data/online/npz-train/b09/b09-696/b09-696z-05.npz (npz, 26642 bytes, 1 tensors)

x f8 [541, 6]
0	0xc033b0ed9c69e554	-19.691125655988188
1	0x3ff499f0cd06ef1e	1.2875831612463524
2	0x3fb6055d3e2de000	0.08601935165449959
3	0xbfbf7560a1f86440	-0.12288478807785541
4	0x3ff0000000000000	1.0
5	0x0000000000000000	0.0
6	0xc0339ae83f2bb774	-19.605106304333688
7	0x3ff2a29ac2e768da	1.164698373168497
8	0x3fb3ba6659e76200	0.07706298537176082
9	0xbfc078efd60f1e08	-0.12869070007421635
10	0x3ff0000000000000	1.0
11	0x0000000000000000	0.0
12	0xc033872dd8d1d012	-19.528043318961927
13	0x3ff0937cc8258519	1.0360076730942807
14	0x3fb3ba6659e76100	0.07706298537175726
15	0xbfc078efd60f1e10	-0.12869070007421657
16	0x3ff0000000000000	1.0
17	0x0000000000000000	0.0
18	0xc03373737277e8b1	-19.45098033359017
19	0x3fed08bd9ac742ae	0.9073169730200641
20	0x3fb3ba6659e76200	0.07706298537176082
21	0xbfc078efd60f1e08	-0.12869070007421635
22	0x3ff0000000000000	1.0
23	0x0000000000000000	0.0
24	0xc0335fb90c1e014f	-19.37391734821841
25	0x3fe8ea81a5437b2c	0.7786262729458477
26	0x3fb3ba6659e76200	0.07706298537176082
27	0xbfc078efd60f1e0c	-0.12869070007421646
28	0x3ff0000000000000	1.0
29	0x0000000000000000	0.0
30	0xc0334bfea5c419ed	-19.29685436284665
31	0x3fe4cc45afbfb3a9	0.6499355728716313
32	0x3fa41ca17e719800	0.039280935940766426
33	0xbfc287abd12114e4	-0.14476535521877232
34	0x3ff0000000000000	1.0
35	0x0000000000000000	0.0
36	0xc03341f05504e121	-19.257573426905882
37	0x3fe02a5abb776e70	0.505170217652859
38	0x3fa41ca17e719800	0.039280935940766426
39	0xbfc287abd12114e6	-0.14476535521877237
40	0x3ff0000000000000	1.0
41	0x0000000000000000	0.0
42	0xc03337e20445a855	-19.218292490965116
43	0x3fd710df8e5e526d	0.3604048624340866
44	0x3fa41ca17e719a00	0.03928093594076998
45	0xbfc287abd12114e6	-0.14476535521877237
46	0x3ff0000000000000	1.0
47	0x0000000000000000	0.0
48	0xc0332dd3b3866f88	-19.179011555024346
49	0x3fcb9a134b9b8ff4	0.21563950721531422
50	0x3fa41ca17e719800	0.039280935940766426
51	0xbfc287abd12114e4	-0.14476535521877232
52	0x3ff0000000000000	1.0
53	0x0000000000000000	0.0
54	0xc03323c562c736bc	-19.13973061908358
55	0x3fb224cef4f4f620	0.0708741519965419
56	0x3fa41ca17e719800	0.039280935940766426
57	0xbfc287abd12114e8	-0.14476535521877243
58	0x3ff0000000000000	1.0
59	0x0000000000000000	0.0
60	0xc03319b71207fdf0	-19.100449683142813
61	0xbfb2ea88ad4d33b0	-0.07389120322223053
62	0x3faf94a3ff93f200	0.061680912922359
63	0xbfc18069c921d702	-0.13673136063487595
64	0x3ff0000000000000	1.0
65	0x0000000000000000	0.0
66	0xc03309ecc00833f7	-19.038768770220454
67	0xbfcaf5ae1fc870da	-0.21062256385710648
68	0x3fb50f6124ac2800	0.08226592202495908
69	0x3fc00e0ad5bc6c42	0.12542853771523893
70	0x3ff0000000000000	1.0
71	0x0000000000000000	0.0
72	0xc032f4dd5ee387cf	-18.956502848195495
73	0xbfb5cf4694180930	-0.08519402614186755
74	0x3fb50f6124ac2900	0.08226592202496263
75	0x3fc00e0ad5bc6c42	0.12542853771523893
76	0x3ff0000000000000	1.0
77	0x0000000000000000	0.0
78	0xc032dfcdfdbedba6	-18.874236926170532
79	0x3fa4999e2ec19ea8	0.04023451157337138
80	0x3fb50f6124ac2800	0.08226592202495908
81	0x3fc00e0ad5bc6c42	0.12542853771523893
82	0x3ff0000000000000	1.0
83	0x0000000000000000	0.0
84	0xc032cabe9c9a2f7e	-18.791971004145573
85	0x3fc53472616cd3ec	0.1656630492886103
86	0x3f985436bbdb8000	0.02375875016775808
87	0x3fc2f526fcaa32a4	0.14810645424986035
88	0x3ff0000000000000	1.0
89	0x0000000000000000	0.0
90	0xc032c4a98eeb389e	-18.768212253977815
91	0x3fd414ccaf0b8348	0.31376950353847066
92	0x3f985436bbdb8400	0.023758750167761633
93	0x3fc2f526fcaa32a6	0.1481064542498604
94	0x3ff0000000000000	1.0
95	0x0000000000000000	0.0
96	0xc032be94813c41bd	-18.744453503810053
97	0x3fdd8f602d609c9b	0.46187595778833107
98	0x3f985436bbdb8000	0.02375875016775808
99	0x3fc2f526fcaa32a6	0.1481064542498604
100	0x3ff0000000000000	1.0
101	0x0000000000000000	0.0
102	0xc032b87f738d4add	-18.720694753642295
103	0x3fe384f9d5dadaf7	0.6099824120381915
104	0x3f985436bbdb8400	0.023758750167761633
105	0x3fc2f526fcaa32a4	0.14810645424986035
106	0x3ff0000000000000	1.0
107	0x0000000000000000	0.0
108	0xc032b26a65de53fc	-18.696936003474534
109	0x3fe84243950567a0	0.7580888662880518
110	0x3f8a23264e323000	0.012762355100015554
111	0x3fc321608972a9c0	0.14945608817408917
112	0x3ff0000000000000	1.0
113	0x0000000000000000	0.0
114	0xc032af2601148db6	-18.684173648374518
115	0x3fed0a9bb7621210	0.907544954462141
116	0x3f8a23264e322800	0.012762355100012002
117	0x3fc321608972a9c0	0.14945608817408917
118	0x3ff0000000000000	1.0
119	0x0000000000000000	0.0
120	0xc032abe19c4ac771	-18.671411293274506
121	0x3ff0e979ecdf5e40	1.0570010426362302
122	0x3f8a23264e323000	0.012762355100015554
123	0x3fc321608972a9c0	0.14945608817408917
124	0x3ff0000000000000	1.0
125	0x0000000000000000	0.0
126	0xc032a89d3781012b	-18.65864893817449
127	0x3ff34da5fe0db378	1.2064571308103194
128	0x3f8a23264e323000	0.012762355100015554
129	0x3fc321608972a9c0	0.14945608817408917
130	0x3ff0000000000000	1.0
131	0x0000000000000000	0.0
132	0xc032a558d2b73ae5	-18.645886583074475
133	0x3ff5b1d20f3c08b0	1.3559132189844085
134	0x3f8a23264e323000	0.012762355100015554
135	0x3fc321608972a9c8	0.1494560881740894
136	0x3ff0000000000000	1.0
137	0x0000000000000000	0.0
138	0xc032a2146ded749f	-18.63312422797446
139	0x3ff815fe206a5de9	1.505369307158498
140	0x3f654461db08a000	0.0025960837595171427
141	0x3fc33276bb495468	0.1499775328144637
142	0x3ff0000000000000	1.0
143	0x0000000000000000	0.0
144	0xc032a16a4ade9c5a	-18.630528144214942
145	0x3ffa7c4cf7d38876	1.6553468399729616
146	0x3f654461db08c000	0.0025960837595206954
147	0x3fc33276bb495470	0.1499775328144639
148	0x3ff0000000000000	1.0
149	0x0000000000000000	0.0
150	0xc032a0c027cfc414	-18.62793206045542
151	0x3ffce29bcf3cb304	1.8053243727874255
152	0x3f45f4a1eb5f0000	0.0006700316068801726
153	0x3fc33326a5878820	0.14999850351802113
154	0x3ff0000000000000	1.0
155	0x0000000000000000	0.0
156	0xc032a0943e8bed56	-18.62726202884854
157	0x3fff4900a3eda408	1.9553228763054467
158	0x3f45f4a1eb5f8000	0.0006700316068837253
159	0x3fc33326a5878820	0.14999850351802113
160	0x3ff0000000000000	1.0
161	0x0000000000000000	0.0
162	0xc032a06855481697	-18.626591997241658
163	0x4000d7b2bc4f4a86	2.105321379823468
164	0xbf6da8cbfb246000	-0.0036205276493426197
165	0x3fc331c49d3b8fd0	0.14995629956604128
166	0x3ff0000000000000	1.0
167	0x0000000000000000	0.0
168	0xc032a1559ba7efba	-18.630212524891
169	0x40020acf06230383	2.255277679389509
170	0xbf5d370fd7398000	-0.0017831473059217728
171	0x3fc332da49d47b70	0.14998940091114887
172	0x3ff0000000000000	1.0
173	0x0000000000000000	0.0
174	0xc032a1ca77e74ca0	-18.631995672196922
175	0x40033dfcaac04b3a	2.405267080300658
176	0xbf5035b33060c000	-0.000989365567431122
177	0x3fc33317d448ad40	0.14999673715042583
178	0x3ff0000000000000	1.0
179	0x0000000000000000	0.0
180	0xc032a20b4eb40e23	-18.632985037764353
181	0x4004712e2804d60e	2.5552638174510838
182	0xbf43260547e20000	-0.0005843663964384405
183	0x3fc33329a6c09f20	0.1499988617153969
184	0x3ff0000000000000	1.0
185	0x0000000000000000	0.0
186	0xc032a2319abe9de7	-18.63356940416079
187	0x4005a460c270e000	2.7052626791664807
188	0x3f8dce4df3235800	0.014553650839314258
189	0xbfc31c0297f4d850	-0.1492923013663039
190	0x3ff0000000000000	1.0
191	0x0000000000000000	0.0
192	0xc0329e77d100397c	-18.619015753321477
193	0x400472a098f1927b	2.5559703778001768
194	0x3f7d3f073bfc4000	0.007140186556867434
195	0xbfb2c026cd65f940	-0.07324450029952789
196	0x0000000000000000	0.0
197	0x3ff0000000000000	1.0
198	0xc034f922d6a4780e	-20.97318784251552
199	0x3fe0dd7e5e6387b7	0.5270377963572547
200	0x3fc3333333333300	0.14999999999999858
201	0x0000000000000000	0.0
202	0x3ff0000000000000	1.0
203	0x0000000000000000	0.0
204	0xc034d2bc703e11a8	-20.823187842515523
205	0x3fe0dd7e5e6387b7	0.5270377963572547
206	0x3fc050899d49ce00	0.1274578111657405
207	0xbfb43ef1763f6b00	-0.07908543717296013
208	0x3ff0000000000000	1.0
209	0x0000000000000000	0.0
210	0xc034b21b5d037e0c	-20.695730031349783
211	0x3fdcab405f3734ae	0.44795235918429455
212	0x3fc050899d49ce00	0.1274578111657405
213	0xbfb43ef1763f6b00	-0.07908543717296013
214	0x3ff0000000000000	1.0
215	0x0000000000000000	0.0
216	0xc034917a49c8ea70	-20.568272220184042
217	0x3fd79b8401a759ee	0.3688669220113344
218	0x3fc32dfd810a4d00	0.14984101105492442
219	0x3f7c47d6b8e25640	0.006904448279006881
220	0x3ff0000000000000	1.0
221	0x0000000000000000	0.0
222	0xc0346b1e4ec6d5d6	-20.418431209129118
223	0x3fd80ca35c8ae347	0.3757713702903413
224	0x3fc32dfd810a4d80	0.14984101105492798
225	0x3f7c47d6b8e25680	0.006904448279006936
226	0x3ff0000000000000	1.0
227	0x0000000000000000	0.0
228	0xc03444c253c4c13b	-20.26859019807419
229	0x3fd87dc2b76e6ca1	0.38267581856934824
230	0x3fc32dfd810a4d80	0.14984101105492798
231	0x3f7c47d6b8e25640	0.006904448279006881
232	0x3ff0000000000000	1.0
233	0x0000000000000000	0.0
234	0xc0341e6658c2aca0	-20.11874918701926
235	0x3fd8eee21251f5fa	0.3895802668483551
236	0x3fc32dfd810a4d00	0.14984101105492442
237	0x3f7c47d6b8e25680	0.006904448279006936
238	0x3ff0000000000000	1.0
239	0x0000000000000000	0.0
240	0xc033f80a5dc09806	-19.968908175964337
241	0x3fd960016d357f54	0.39648471512736205
242	0x3fc32dfd810a4d00	0.14984101105492442
243	0x3f7c47d6b8e25640	0.006904448279006881
244	0x3ff0000000000000	1.0
245	0x0000000000000000	0.0
246	0xc033d1ae62be836c	-19.819067164909413
247	0x3fd9d120c81908ad	0.40338916340636893
248	0x3fc32dfd810a4d80	0.14984101105492798
249	0x3f7c47d6b8e25640	0.006904448279006881
250	0x3ff0000000000000	1.0
251	0x0000000000000000	0.0
252	0xc033ab5267bc6ed1	-19.669226153854485
253	0x3fda424022fc9206	0.4102936116853758
254	0x3fc32dfd810a4d80	0.14984101105492798
255	0x3f7c47d6b8e25680	0.006904448279006936
