data/online/npz-train/b04/b04-301/b04-301z-05.npz (npz, 33282 bytes, 1 tensors)

x f8 [679, 6]
0	0xc0418545e3aa9cb8	-35.04119535284684
1	0xbfdb58b2bc5320ae	-0.42728870764814075
2	0x3fb1f786009c2600	0.07018315806285358
3	0xbfc0f7fe8ecc5d1c	-0.13256818745205912
4	0x3ff0000000000000	1.0
5	0x0000000000000000	0.0
6	0xc0417c4a20aa4ea5	-34.97101219478399
7	0xbfe1ea5901dca79e	-0.5598568951001999
8	0x3fb1f786009c2600	0.07018315806285358
9	0xbfc0f7fe8ecc5d20	-0.13256818745205923
10	0x3ff0000000000000	1.0
11	0x0000000000000000	0.0
12	0xc041734e5daa0092	-34.900829036721134
13	0xbfe62858a58fbee6	-0.6924250825522591
14	0x3fb1f786009c2800	0.07018315806286068
15	0xbfc0f7fe8ecc5d20	-0.13256818745205923
16	0x3ff0000000000000	1.0
17	0x0000000000000000	0.0
18	0xc0416a529aa9b27e	-34.830645878658274
19	0xbfea66584942d62e	-0.8249932700043183
20	0x3fbf5f41a56ee600	0.12254724778076564
21	0xbfb624d5a029be78	-0.0864995494864561
22	0x3ff0000000000000	1.0
23	0x0000000000000000	0.0
24	0xc0415aa2f9d6fb0b	-34.70809863087751
25	0xbfed2af2fd480dfd	-0.9114928194907744
26	0x3fbf5f41a56ee600	0.12254724778076564
27	0xbfb624d5a029be78	-0.0864995494864561
28	0x3ff0000000000000	1.0
29	0x0000000000000000	0.0
30	0xc0414af359044398	-34.58555138309674
31	0xbfefef8db14d45cc	-0.9979923689772305
32	0x3fbf5f41a56ee600	0.12254724778076564
33	0xbfb624d5a029be80	-0.08649954948645622
34	0x3ff0000000000000	1.0
35	0x0000000000000000	0.0
36	0xc0413b43b8318c25	-34.46300413531598
37	0xbff15a1432a93ece	-1.0844919184636868
38	0x3fbf5f41a56ee400	0.12254724778075854
39	0xbfb624d5a029be70	-0.086499549486456
40	0x3ff0000000000000	1.0
41	0x0000000000000000	0.0
42	0xc0412b94175ed4b3	-34.34045688753522
43	0xbff2bc618cabdab5	-1.1709914679501428
44	0x3fbf5f41a56ee600	0.12254724778076564
45	0xbfb624d5a029be80	-0.08649954948645622
46	0x3ff0000000000000	1.0
47	0x0000000000000000	0.0
48	0xc0411be4768c1d40	-34.21790963975445
49	0xbff41eaee6ae769d	-1.257491017436599
50	0x3fbf5f41a56ee600	0.12254724778076564
51	0xbfb624d5a029be70	-0.086499549486456
52	0x3ff0000000000000	1.0
53	0x0000000000000000	0.0
54	0xc0410c34d5b965cd	-34.09536239197369
55	0xbff580fc40b11284	-1.343990566923055
56	0x3fc2b03b0fb65c00	0.14600313441471258
57	0xbfa19c5a34df03e0	-0.03439599891090217
58	0x3ff0000000000000	1.0
59	0x0000000000000000	0.0
60	0xc040f9849aa9af71	-33.949359257558974
61	0xbff60ddf12580aa3	-1.3783865658339571
62	0x3fc2b03b0fb65d00	0.14600313441471968
63	0xbfa19c5a34df03e0	-0.03439599891090217
64	0x3ff0000000000000	1.0
65	0x0000000000000000	0.0
66	0xc040e6d45f99f914	-33.803356123144255
67	0xbff69ac1e3ff02c2	-1.4127825647448593
68	0x3fc303444162c000	0.14853718941367333
69	0x3f9566240a802d80	0.02089744867411758
70	0x3ff0000000000000	1.0
71	0x0000000000000000	0.0
72	0xc040d3d11b589654	-33.65481893373058
73	0xbff6452953d5020c	-1.3918851160707417
74	0x3fc303444162bf00	0.14853718941366623
75	0x3f9566240a802d80	0.02089744867411758
76	0x3ff0000000000000	1.0
77	0x0000000000000000	0.0
78	0xc040c0cdd7173395	-33.506281744316915
79	0xbff5ef90c3ab0156	-1.3709876673966241
80	0x3fc303444162c000	0.14853718941367333
81	0x3f9566240a802d80	0.02089744867411758
82	0x3ff0000000000000	1.0
83	0x0000000000000000	0.0
84	0xc040adca92d5d0d5	-33.35774455490324
85	0xbff599f8338100a0	-1.3500902187225066
86	0x3fc303444162bf00	0.14853718941366623
87	0x3f9566240a802d80	0.02089744867411758
88	0x3ff0000000000000	1.0
89	0x0000000000000000	0.0
90	0xc0409ac74e946e16	-33.209207365489576
91	0xbff5445fa356ffea	-1.329192770048389
92	0x3fc303444162c000	0.14853718941367333
93	0x3f9566240a802d80	0.02089744867411758
94	0x3ff0000000000000	1.0
95	0x0000000000000000	0.0
96	0xc04087c40a530b56	-33.0606701760759
97	0xbff4eec7132cff34	-1.3082953213742714
98	0x3fbf38bafb2d0600	0.12195938713286836
99	0x3fb65b069ebd8070	0.08732644439214865
100	0x3ff0000000000000	1.0
101	0x0000000000000000	0.0
102	0xc0407827acd574d3	-32.938710788943034
103	0xbff38916a941272d	-1.2209688769821228
104	0x3fbf38bafb2d0600	0.12195938713286836
105	0x3fb65b069ebd8060	0.08732644439214843
106	0x3ff0000000000000	1.0
107	0x0000000000000000	0.0
108	0xc040688b4f57de50	-32.816751401810166
109	0xbff223663f554f27	-1.1336424325899743
110	0x3fb6b43afe409a00	0.08868759829838524
111	0x3fbef8192533ec40	0.12097317846557676
112	0x3ff0000000000000	1.0
113	0x0000000000000000	0.0
114	0xc0405d3131d8be03	-32.72806380351178
115	0xbff033e4ad021063	-1.0126692541243976
116	0x3fb6b43afe409a00	0.08868759829838524
117	0x3fbef8192533ec40	0.12097317846557676
118	0x3ff0000000000000	1.0
119	0x0000000000000000	0.0
120	0xc04051d714599db6	-32.639376205213395
121	0xbfec88c6355da33e	-0.8916960756588208
122	0x3fb6b43afe409a00	0.08868759829838524
123	0x3fbef8192533ec40	0.12097317846557676
124	0x3ff0000000000000	1.0
125	0x0000000000000000	0.0
126	0xc040467cf6da7d69	-32.55068860691501
127	0xbfe8a9c310b725b6	-0.770722897193244
128	0x3fa6b524e4178c00	0.04435076984716346
129	0x3fc2577079c5c610	0.14329343744206868
130	0x3ff0000000000000	1.0
131	0x0000000000000000	0.0
132	0xc04040cfada17786	-32.506337837067846
133	0xbfe413e6f245b432	-0.6274294597511754
134	0xbf92eae5aba8c000	-0.018474186517948965
135	0x3fc30dc76acf8bd8	0.14885800090186652
136	0x3ff0000000000000	1.0
137	0x0000000000000000	0.0
138	0xc040432d0a56ec9e	-32.524812023585795
139	0xbfdea0ea2f23a278	-0.47857145884930885
140	0xbf92eae5aba8b800	-0.01847418651794186
141	0x3fc30dc76acf8bda	0.14885800090186657
142	0x3ff0000000000000	1.0
143	0x0000000000000000	0.0
144	0xc040458a670c61b5	-32.54328621010374
145	0xbfd51a0679bbdc8b	-0.3297134579474423
146	0xbf92eae5aba8c000	-0.018474186517948965
147	0x3fc30dc76acf8bda	0.14885800090186657
148	0x3ff0000000000000	1.0
149	0x0000000000000000	0.0
150	0xc04047e7c3c1d6cd	-32.561760396621686
151	0xbfc7264588a82d3c	-0.1808554570455757
152	0xbfbc17b3eb3e7c00	-0.10973667615188276
153	0x3fba2df3fc07113f	0.10226368811624285
154	0x3ff0000000000000	1.0
155	0x0000000000000000	0.0
156	0xc04055f39db7760b	-32.67149707277357
157	0xbfb41e9715494939	-0.07859176892933285
158	0xbfbc17b3eb3e7e00	-0.10973667615188987
159	0x3fba2df3fc07113f	0.10226368811624285
160	0x3ff0000000000000	1.0
161	0x0000000000000000	0.0
162	0xc04063ff77ad154a	-32.78123374892546
163	0x3f983d739af72018	0.02367191918691
164	0xbfbc17b3eb3e7c00	-0.10973667615188276
165	0x3fba2df3fc07113e	0.10226368811624284
166	0x3ff0000000000000	1.0
167	0x0000000000000000	0.0
168	0xc040720b51a2b488	-32.89097042507734
169	0x3fc01ea871626ca2	0.12593560730315284
170	0xbfbc17b3eb3e7e00	-0.10973667615188987
171	0x3fba2df3fc071140	0.10226368811624287
172	0x3ff0000000000000	1.0
173	0x0000000000000000	0.0
174	0xc04080172b9853c7	-33.00070710122923
175	0x3fcd35a26f65f542	0.2281992954193957
176	0xbfbc17b3eb3e7c00	-0.10973667615188276
177	0x3fba2df3fc07113c	0.10226368811624281
178	0x3ff0000000000000	1.0
179	0x0000000000000000	0.0
180	0xc0408e23058df305	-33.110443777381114
181	0x3fd5264e36b4bef0	0.3304629835356385
182	0xbfc0a5bb2234af00	-0.13005770845608566
183	0x3fb321b072d68dd8	0.07473280719437214
184	0x3ff0000000000000	1.0
185	0x0000000000000000	0.0
186	0xc0409ec8c0b027b4	-33.2405014858372
187	0x3fd9eeba536a6266	0.40519579073001066
188	0xbfc0a5bb2234b000	-0.13005770845609277
189	0x3fb321b072d68dd8	0.07473280719437214
190	0x3ff0000000000000	1.0
191	0x0000000000000000	0.0
192	0xc040af6e7bd25c64	-33.37055919429329
193	0x3fdeb726702005dc	0.4799285979243828
194	0xbfc0a5bb2234af00	-0.13005770845608566
195	0x3fb321b072d68dd8	0.07473280719437214
196	0x3ff0000000000000	1.0
197	0x0000000000000000	0.0
198	0xc040c01436f49113	-33.50061690274938
199	0x3fe1bfc9466ad4a9	0.554661405118755
200	0xbfc0a5bb2234af00	-0.13005770845608566
201	0x3fb321b072d68dd8	0.07473280719437214
202	0x3ff0000000000000	1.0
203	0x0000000000000000	0.0
204	0xc040d0b9f216c5c2	-33.630674611205464
205	0x3fe423ff54c5a664	0.6293942123131271
206	0xbfc0a5bb2234b000	-0.13005770845609277
207	0x3fb321b072d68dd0	0.07473280719437203
208	0x3ff0000000000000	1.0
209	0x0000000000000000	0.0
210	0xc040e15fad38fa72	-33.76073231966156
211	0x3fe688356320781e	0.7041270195074991
212	0xbfc0a5bb2234af00	-0.13005770845608566
213	0x3fb321b072d68de0	0.07473280719437225
214	0x3ff0000000000000	1.0
215	0x0000000000000000	0.0
216	0xc040f205685b2f21	-33.89079002811764
217	0x3fe8ec6b717b49da	0.7788598267018714
218	0xbfc0a5bb2234af00	-0.13005770845608566
219	0x3fb321b072d68dd8	0.07473280719437214
220	0x3ff0000000000000	1.0
221	0x0000000000000000	0.0
222	0xc04102ab237d63d0	-34.02084773657373
223	0x3feb50a17fd61b95	0.8535926338962435
224	0xbfc1e1894b072200	-0.13969532168836452
225	0x3fabf9663554c5b0	0.05463714028372679
226	0x3ff0000000000000	1.0
227	0x0000000000000000	0.0
228	0xc041148cacc86af2	-34.16054305826209
229	0x3fed1037e32b67f0	0.9082297741799703
230	0xbfc1e1894b072300	-0.13969532168837162
231	0x3fabf9663554c5b0	0.05463714028372679
232	0x3ff0000000000000	1.0
233	0x0000000000000000	0.0
234	0xc041266e36137215	-34.300238379950464
235	0x3feecfce4680b44b	0.9628669144636971
236	0xbfc1e1894b072200	-0.13969532168836452
237	0x3fabf9663554c5b0	0.05463714028372679
238	0x3ff0000000000000	1.0
239	0x0000000000000000	0.0
240	0xc041384fbf5e7937	-34.43993370163883
241	0x3ff047b254eb0053	1.017504054747424
242	0xbfbcbf11b826f600	-0.11229048486617188
243	0x3fb975bc0f534380	0.0994527375617178
244	0x3ff0000000000000	1.0
245	0x0000000000000000	0.0
246	0xc04146af483a8cb2	-34.552224186505
247	0x3ff1df0e15e0348b	1.1169567923091417
248	0xbfbcbf11b826f600	-0.11229048486617188
249	0x3fb975bc0f534390	0.09945273756171802
250	0x3ff0000000000000	1.0
251	0x0000000000000000	0.0
252	0xc041550ed116a02d	-34.66451467137117
253	0x3ff37669d6d568c4	1.2164095298708597
254	0xbfad898b32bee800	-0.05769000048117334
255	0x3fa395d922825320	0.03825262590650014
