data/online/npz-train/b06/b06-537/b06-537z-02.npz (npz, 37626 bytes, 1 tensors)

x f8 [769, 6]
0	0xc041ba729f8f829a	-35.456623025010416
1	0xbfe9be1748e503d1	-0.8044544624063922
2	0xbfc166124548f400	-0.1359274709992917
3	0x3fb03d221e885af8	0.06343281979966864
4	0x3ff0000000000000	1.0
5	0x0000000000000000	0.0
6	0xc041cbd8b1d4cb8e	-35.59255049600971
7	0xbfe7b6730513f872	-0.7410216426067235
8	0xbfc166124548f300	-0.1359274709992846
9	0x3fb03d221e885af8	0.06343281979966864
10	0x3ff0000000000000	1.0
11	0x0000000000000000	0.0
12	0xc041dd3ec41a1481	-35.72847796700899
13	0xbfe5aecec142ed13	-0.6775888228070549
14	0xbfc166124548f400	-0.1359274709992917
15	0x3fb03d221e885af8	0.06343281979966864
16	0x3ff0000000000000	1.0
17	0x0000000000000000	0.0
18	0xc041eea4d65f5d75	-35.86440543800828
19	0xbfe3a72a7d71e1b4	-0.6141560030073863
20	0xbfbac7919cec5600	-0.10460767823345662
21	0x3fbb856b79f7fb90	0.10750457504035027
22	0x3ff0000000000000	1.0
23	0x0000000000000000	0.0
24	0xc041fc089f2dd3a0	-35.96901311624174
25	0xbfe0367d0e32e242	-0.506651427967036
26	0xbfbac7919cec5400	-0.10460767823344952
27	0x3fbb856b79f7fb90	0.10750457504035027
28	0x3ff0000000000000	1.0
29	0x0000000000000000	0.0
30	0xc042096c67fc49ca	-36.07362079447519
31	0xbfd98b9f3de7c5a0	-0.3991468529266857
32	0xbfbac7919cec5600	-0.10460767823345662
33	0x3fbb856b79f7fb94	0.10750457504035033
34	0x3ff0000000000000	1.0
35	0x0000000000000000	0.0
36	0xc04216d030cabff5	-36.178228472708646
37	0xbfd2aa445f69c6bb	-0.2916422778863354
38	0xbfbac7919cec5400	-0.10460767823344952
39	0x3fbb856b79f7fb90	0.10750457504035027
40	0x3ff0000000000000	1.0
41	0x0000000000000000	0.0
42	0xc0422433f999361f	-36.282836150942096
43	0xbfc791d301d78fae	-0.18413770284598513
44	0xbfb44ea9ad386000	-0.07932529906281616
45	0x3fc04ba6829d94a5	0.1273086679240453
46	0x3ff0000000000000	1.0
47	0x0000000000000000	0.0
48	0xc0422e5b4e6fd24f	-36.36216145000491
49	0xbfad18b1fce7ec24	-0.05682903492193983
50	0xbfb44ea9ad386000	-0.07932529906281616
51	0x3fc04ba6829d94a5	0.1273086679240453
52	0x3ff0000000000000	1.0
53	0x0000000000000000	0.0
54	0xc0423882a3466e7f	-36.44148674906773
55	0x3fb20af406c73338	0.07047963300210547
56	0xbfb44ea9ad386000	-0.07932529906281616
57	0x3fc04ba6829d94a4	0.12730866792404527
58	0x3ff0000000000000	1.0
59	0x0000000000000000	0.0
60	0xc04242a9f81d0aaf	-36.520812048130544
61	0x3fc9512086012e40	0.19778830092615074
62	0xbfb44ea9ad386000	-0.07932529906281616
63	0x3fc04ba6829d94a6	0.12730866792404533
64	0x3ff0000000000000	1.0
65	0x0000000000000000	0.0
66	0xc0424cd14cf3a6df	-36.60013734719336
67	0x3fd4ce63844f6173	0.32509696885019607
68	0xbfb44ea9ad386000	-0.07932529906281616
69	0x3fc04ba6829d94a4	0.12730866792404527
70	0x3ff0000000000000	1.0
71	0x0000000000000000	0.0
72	0xc04256f8a1ca430f	-36.67946264625618
73	0x3fdcf436c59e2bc5	0.45240563677424134
74	0xbfb44ea9ad386000	-0.07932529906281616
75	0x3fc04ba6829d94a6	0.12730866792404533
76	0x3ff0000000000000	1.0
77	0x0000000000000000	0.0
78	0xc042611ff6a0df3f	-36.75878794531899
79	0x3fe28d0503767b0c	0.5797143046982867
80	0xbfaf6d27e0d54800	-0.06137966746850054
81	0x3fc184da686416d8	0.1368668565484572
82	0x3ff0000000000000	1.0
83	0x0000000000000000	0.0
84	0xc04268fb40991491	-36.82016761278749
85	0x3fe6ee3b9d8f80c2	0.7165811612467439
86	0xbfaf6d27e0d54c00	-0.06137966746850765
87	0x3fc184da686416d8	0.1368668565484572
88	0x3ff0000000000000	1.0
89	0x0000000000000000	0.0
90	0xc04270d68a9149e4	-36.881547280256
91	0x3feb4f7237a88678	0.8534480177952011
92	0x3fc11c9ec3d3b500	0.1336859184442929
93	0x3fb16a694d85def8	0.06802995817804092
94	0x3ff0000000000000	1.0
95	0x0000000000000000	0.0
96	0xc0425fb9ebcd762f	-36.74786136181171
97	0x3fed7cbf61594257	0.921477975973242
98	0x3fb83f6244b9c400	0.09471716096756211
99	0xbfbdc6ac63edf8f0	-0.11631276549994474
100	0x3ff0000000000000	1.0
101	0x0000000000000000	0.0
102	0xc042539a3aab194d	-36.653144200844146
103	0x3fe9c3e9d4db8339	0.8051652104732973
104	0x3fb4b8f5b50c0a00	0.08094726247876594
105	0xbfc02a0f63128724	-0.12628357255476275
106	0x3ff0000000000000	1.0
107	0x0000000000000000	0.0
108	0xc042493dbfd09348	-36.57219693836538
109	0x3fe5b965fc16e170	0.6788816379185345
110	0x3fb4b8f5b50c0a00	0.08094726247876594
111	0xbfc02a0f63128728	-0.12628357255476286
112	0x3ff0000000000000	1.0
113	0x0000000000000000	0.0
114	0xc0423ee144f60d43	-36.491249675886614
115	0x3fe1aee223523fa6	0.5525980653637717
116	0x3fb4b8f5b50c0800	0.08094726247875883
117	0xbfc02a0f63128724	-0.12628357255476275
118	0x3ff0000000000000	1.0
119	0x0000000000000000	0.0
120	0xc0423484ca1b873f	-36.410302413407855
121	0x3fdb48bc951b3bba	0.4263144928090089
122	0x3fb4b8f5b50c0a00	0.08094726247876594
123	0xbfc02a0f63128728	-0.12628357255476286
124	0x3ff0000000000000	1.0
125	0x0000000000000000	0.0
126	0xc0422a284f41013a	-36.32935515092909
127	0x3fd333b4e391f826	0.30003092025424605
128	0x3fb4b8f5b50c0a00	0.08094726247876594
129	0xbfc02a0f63128724	-0.12628357255476275
130	0x3ff0000000000000	1.0
131	0x0000000000000000	0.0
132	0xc0421fcbd4667b35	-36.24840788845032
133	0x3fc63d5a64116928	0.1737473476994833
134	0x3fb4b8f5b50c0a00	0.08094726247876594
135	0xbfc02a0f63128724	-0.12628357255476275
136	0x3ff0000000000000	1.0
137	0x0000000000000000	0.0
138	0xc042156f598bf530	-36.16746062597156
139	0x3fa84d2c03fb8810	0.047463775144720555
140	0x3fb4b8f5b50c0800	0.08094726247875883
141	0xbfc02a0f63128724	-0.12628357255476275
142	0x3ff0000000000000	1.0
143	0x0000000000000000	0.0
144	0xc0420b12deb16f2c	-36.0865133634928
145	0xbfb42d88c4274a40	-0.07881979741004219
146	0x3fb4b8f5b50c0a00	0.08094726247876594
147	0xbfc02a0f6312872c	-0.12628357255476297
148	0x3ff0000000000000	1.0
149	0x0000000000000000	0.0
150	0xc04200b663d6e927	-36.00556610101403
151	0xbfca40d3c5262c4c	-0.20510336996480516
152	0x3fb4b8f5b50c0a00	0.08094726247876594
153	0xbfc02a0f63128720	-0.12628357255476264
154	0x3ff0000000000000	1.0
155	0x0000000000000000	0.0
156	0xc041f659e8fc6322	-35.92461883853527
157	0xbfd53571941c59b6	-0.3313869425195678
158	0x3fb4b8f5b50c0a00	0.08094726247876594
159	0xbfc02a0f63128728	-0.12628357255476286
160	0x3ff0000000000000	1.0
161	0x0000000000000000	0.0
162	0xc041ebfd6e21dd1d	-35.8436715760565
163	0xbfdd4a7945a59d4a	-0.45767051507433065
164	0x3fb4b8f5b50c0800	0.08094726247875883
165	0xbfc02a0f63128720	-0.12628357255476264
166	0x3ff0000000000000	1.0
167	0x0000000000000000	0.0
168	0xc041e1a0f3475719	-35.76272431357774
169	0xbfe2afc07b97706d	-0.5839540876290933
170	0x3fb4b8f5b50c0a00	0.08094726247876594
171	0xbfc02a0f63128728	-0.12628357255476286
172	0x3ff0000000000000	1.0
173	0x0000000000000000	0.0
174	0xc041d744786cd114	-35.681777051098976
175	0xbfe6ba44545c1237	-0.7102376601838561
176	0x3fbe8a7bce2d7200	0.11930059226637724
177	0xbfb746dd91d6f380	-0.09092507181681064
178	0x3ff0000000000000	1.0
179	0x0000000000000000	0.0
180	0xc041c7ff3a85ba5b	-35.5624764588326
181	0xbfe9a3200696f0a7	-0.8011627320006668
182	0x3fb61f44f974f800	0.08641463365799495
183	0x3fbf632e7dffd668	0.1226071412673605
184	0x3ff0000000000000	1.0
185	0x0000000000000000	0.0
186	0xc041bcef9808ffdf	-35.476061825174604
187	0xbfe5b6ba36d6f5da	-0.6785555907333063
188	0x3fa5ae95f400b400	0.04234760860013154
189	0x3fc26b413e8d1f10	0.14389815859089383
190	0x3ff0000000000000	1.0
191	0x0000000000000000	0.0
192	0xc041b783f28bffb2	-35.43371421657447
193	0xbfe11be9e733ae16	-0.5346574321424125
194	0x3fa5ae95f400b400	0.04234760860013154
195	0x3fc26b413e8d1f0e	0.14389815859089378
196	0x3ff0000000000000	1.0
197	0x0000000000000000	0.0
198	0xc041b2184d0eff85	-35.39136660797434
199	0xbfd902332f20cca5	-0.3907592735515187
200	0x3fa5ae95f400b400	0.04234760860013154
201	0x3fc26b413e8d1f0e	0.14389815859089378
202	0x3ff0000000000000	1.0
203	0x0000000000000000	0.0
204	0xc041acaca791ff58	-35.34901899937421
205	0xbfcf99251fb47a3c	-0.2468611149606249
206	0x3fa5ae95f400b400	0.04234760860013154
207	0x3fc26b413e8d1f10	0.14389815859089383
208	0x3ff0000000000000	1.0
209	0x0000000000000000	0.0
210	0xc041a7410214ff2b	-35.30667139077408
211	0xbfba5bc7c24eb658	-0.10296295636973107
212	0x3fa5ae95f400b400	0.04234760860013154
213	0x3fc26b413e8d1f0c	0.14389815859089372
214	0x3ff0000000000000	1.0
215	0x0000000000000000	0.0
216	0xc041a1d55c97fefe	-35.264323782173946
217	0x3fa4f57575970f80	0.04093520222116265
218	0x3fa5ae95f400b400	0.04234760860013154
219	0x3fc26b413e8d1f10	0.14389815859089383
220	0x3ff0000000000000	1.0
221	0x0000000000000000	0.0
222	0xc0419c69b71afed1	-35.221976173573815
223	0x3fc7a89e9bf2e2f0	0.18483336081205648
224	0x3fb2f0da35ff0000	0.0739876157595063
225	0x3fc0b3ab5cb11250	0.13048307443581786
226	0x3ff0000000000000	1.0
227	0x0000000000000000	0.0
228	0xc04192f149ffff51	-35.14798855781431
229	0x3fd42e24fc51faa0	0.31531643524787434
230	0x3fb92dcbc3eec800	0.0983550408698477
231	0x3fbcfe294c198118	0.11325319393063571
232	0x3ff0000000000000	1.0
233	0x0000000000000000	0.0
234	0xc041865a641e07ed	-35.04963351694446
235	0x3fdb6daf4f585ae6	0.42856962917851005
236	0x3fb92dcbc3eeca00	0.0983550408698548
237	0x3fbcfe294c198118	0.11325319393063571
238	0x3ff0000000000000	1.0
239	0x0000000000000000	0.0
240	0xc04179c37e3c1088	-34.951278476074606
241	0x3fe1569cd12f5d96	0.5418228231091458
242	0x3fc3331faa625200	0.14999767131361352
243	0x3f4b6364bed3d800	0.0008358232422824852
244	0x3ff0000000000000	1.0
245	0x0000000000000000	0.0
246	0xc04166905e91ae36	-34.80128080476099
247	0x3fe15d75aa5f128c	0.5426586463514282
248	0x3fc3331faa625300	0.14999767131362063
249	0x3f4b6364bed3d400	0.0008358232422823741
250	0x3ff0000000000000	1.0
251	0x0000000000000000	0.0
252	0xc041535d3ee74be3	-34.65128313344737
253	0x3fe1644e838ec781	0.5434944695937106
254	0x3fc3331faa625200	0.14999767131361352
255	0x3f4b6364bed3d800	0.0008358232422824852
