data/online/npz-eval/b05/b05-459/b05-459z-01.npz (npz, 19442 bytes, 1 tensors)

x f8 [390, 6]
000000 16 56 2d 45 c8 27 34 c0 59 f2 bd ae 1f 16 e3 3f
       -20.155399631088663 0.5964506543092042
000010 00 2c f0 81 5e 00 9b 3f 4c 1e 28 8e a8 e6 c2 3f
       0.02636859577254924 0.14766413632627218
000020 00 00 00 00 00 00 f0 3f 00 00 00 00 00 00 00 00
       1.0 0.0
000030 0b da 8c 2d 08 21 34 c0 ec f9 47 d2 c9 cf e7 3f
       -20.129031035316114 0.7441147906354764
000040 00 08 77 a9 44 e5 97 bf 54 fe 9f 4e 5b f7 c2 3f
       -0.023335526316948574 0.14817372645483096
000050 00 00 00 00 00 00 f0 3f 00 00 00 00 00 00 00 00
       1.0 0.0
000060 cd 37 b7 7e 01 27 34 c0 81 f9 ef a5 a0 8d ec 3f
       -20.152366561633063 0.8922885170903073
000070 00 04 77 a9 44 e5 97 bf 54 fe 9f 4e 5b f7 c2 3f
       -0.02333552631694502 0.14817372645483096
000080 00 00 00 00 00 00 f0 3f 00 00 00 00 00 00 00 00
       1.0 0.0
000090 8e 95 e1 cf fa 2c 34 c0 8b fc cb bc bb a5 f0 3f
       -20.175702087950008 1.0404622435451383
0000a0 00 08 77 a9 44 e5 97 bf 50 fe 9f 4e 5b f7 c2 3f
       -0.023335526316948574 0.14817372645483085
0000b0 00 00 00 00 00 00 f0 3f 00 00 00 00 00 00 00 00
       1.0 0.0
0000c0 50 f3 0b 21 f4 32 34 c0 55 fc 9f 26 a7 04 f3 3f
       -20.199037614266956 1.1886359699999691
0000d0 00 04 77 a9 44 e5 97 bf 58 fe 9f 4e 5b f7 c2 3f
       -0.02333552631694502 0.14817372645483107
0000e0 00 00 00 00 00 00 f0 3f 00 00 00 00 00 00 00 00
       1.0 0.0
0000f0 11 51 36 72 ed 38 34 c0 20 fc 73 90 92 63 f5 3f
       -20.2223731405839 1.3368096964548002
000100 00 00 0b 07 b3 44 75 3f b0 07 ab 11 41 30 c3 3f
       0.005192469907967734 0.1499101005811645
000110 00 00 00 00 00 00 f0 3f 00 00 00 00 00 00 00 00
       1.0 0.0
000120 61 e0 05 27 99 37 34 c0 16 5d a9 b2 9a c9 f7 3f
       -20.217180670675933 1.4867197970359647
000130 00 00 0b 07 b3 44 75 3f b0 07 ab 11 41 30 c3 3f
       0.005192469907967734 0.1499101005811645
000140 00 00 00 00 00 00 f0 3f 00 00 00 00 00 00 00 00
       1.0 0.0
000150 b1 6f d5 db 44 36 34 c0 0c be de d4 a2 2f fa 3f
       -20.211988200767966 1.6366298976171292
000160 00 00 0b 07 b3 44 75 3f b0 07 ab 11 41 30 c3 3f
       0.005192469907967734 0.1499101005811645
000170 00 00 00 00 00 00 f0 3f 00 00 00 00 00 00 00 00
       1.0 0.0
000180 01 ff a4 90 f0 34 34 c0 02 1f 14 f7 aa 95 fc 3f
       -20.206795730859998 1.7865399981982937
000190 00 9c 5c 56 8b bc 97 3f a8 e4 ef d6 27 f8 c2 3f
       0.023180176874259217 0.14819810862517113
0001a0 00 00 00 00 00 00 f0 3f 00 00 00 00 00 00 00 00
       1.0 0.0
0001b0 da 67 cf 6d 01 2f 34 c0 97 1b f2 f1 af f4 fe 3f
       -20.18361555398574 1.9347381068234648
0001c0 00 20 e3 9d 9f d6 80 3f 48 9e 9f 92 cf 2b c3 3f
       0.00822186184485929 0.14977450045920393
0001d0 00 00 00 00 00 00 f0 3f 00 00 00 00 00 00 00 00
       1.0 0.0
0001e0 76 ab db 99 e6 2c 34 c0 b0 07 23 f2 14 ad 00 40
       -20.17539369214088 2.0845126072826687
0001f0 00 28 e3 9d 9f d6 80 3f 40 9e 9f 92 cf 2b c3 3f
       0.008221861844862843 0.1497745004592037
000200 00 00 00 00 00 00 f0 3f 00 00 00 00 00 00 00 00
       1.0 0.0
000210 11 ef e7 c5 cb 2a 34 c0 94 01 4d eb d1 df 01 40
       -20.167171830296017 2.2342871077418724
000220 00 54 b4 16 03 5d a6 3f 60 dd 6f 7d 6c de b9 3f
       0.04367837574151423 0.10105016767908159
000230 00 00 00 00 00 00 00 00 00 00 00 00 00 00 f0 3f
       0.0 1.0
000240 b7 6e 12 f5 76 86 33 c0 9e ac 74 03 e1 48 f5 3f
       -19.52525264453899 1.3302927145948966
000250 00 88 1c 1e 60 7b a1 3f 58 67 17 59 2a b2 c2 3f
       0.034144405055727134 0.14606217718283676
000260 00 00 00 00 00 00 f0 3f 00 00 00 00 00 00 00 00
       1.0 0.0
000270 73 60 03 45 b9 7d 33 c0 89 99 97 4e 26 9f f7 3f
       -19.491108239483264 1.4763548917777334
000280 00 88 1c 1e 60 7b a1 3f 50 67 17 59 2a b2 c2 3f
       0.034144405055727134 0.14606217718283654
000290 00 00 00 00 00 00 f0 3f 00 00 00 00 00 00 00 00
       1.0 0.0
0002a0 2f 52 f4 94 fb 74 33 c0 73 86 ba 99 6b f5 f9 3f
       -19.456963834427537 1.62241706896057
0002b0 00 8a 1c 1e 60 7b a1 3f 58 67 17 59 2a b2 c2 3f
       0.03414440505573069 0.14606217718283676
0002c0 00 00 00 00 00 00 f0 3f 00 00 00 00 00 00 00 00
       1.0 0.0
0002d0 ea 43 e5 e4 3d 6c 33 c0 5e 73 dd e4 b0 4b fc 3f
       -19.422819429371806 1.7684792461434067
0002e0 00 88 1c 1e 60 7b a1 3f 50 67 17 59 2a b2 c2 3f
       0.034144405055727134 0.14606217718283654
0002f0 00 00 00 00 00 00 f0 3f 00 00 00 00 00 00 00 00
       1.0 0.0
000300 a6 35 d6 34 80 63 33 c0 48 60 00 30 f6 a1 fe 3f
       -19.38867502431608 1.9145414233262432
000310 00 14 a6 e8 63 74 a1 3f a0 36 89 c4 92 b2 c2 3f
       0.03409111227941963 0.1460746249817264
000320 00 00 00 00 00 00 f0 3f 00 00 00 00 00 00 00 00
       1.0 0.0
000330 9c e2 e1 02 c6 5a 33 c0 8e c3 48 44 24 7c 00 40
       -19.35458391203666 2.0606160483079696
000340 00 10 6e ca 63 86 7c bf b0 f5 9e 58 e6 2d c3 bf
       -0.00696410160788119 -0.149838250419561
000350 00 00 00 00 00 00 f0 3f 00 00 00 00 00 00 00 00
       1.0 0.0
000360 7d 89 1e 69 8e 5c 33 c0 66 a8 7d bd 8b 92 fe 3f
       -19.36154801364454 1.9107777978884086
000370 00 20 6e ca 63 86 7c bf b0 f5 9e 58 e6 2d c3 bf
       -0.006964101607884743 -0.149838250419561
000380 00 00 00 00 00 00 f0 3f 00 00 00 00 00 00 00 00
       1.0 0.0
000390 5f 30 5b cf 56 5e 33 c0 b0 c9 69 f2 ce 2c fc 3f
       -19.368512115252425 1.7609395474688476
0003a0 00 e6 87 2f ca 6e a0 3f 10 af 24 e9 5d c1 c2 bf
       0.032095259000879395 -0.14652608760786068
0003b0 00 00 00 00 00 00 f0 3f 00 00 00 00 00 00 00 00
       1.0 0.0
0003c0 6c 6c 43 6a 1f 56 33 c0 ce 33 45 35 a3 d4 f9 3f
       -19.336416856251546 1.614413459860987
0003d0 00 e3 43 06 1e b8 bb 3f 70 0b 4e 38 14 93 ba bf
       0.10827815678556973 -0.10380674719458027
0003e0 00 00 00 00 00 00 f0 3f 00 00 00 00 00 00 00 00
       1.0 0.0
0003f0 89 28 3d 4c 67 3a 33 c0 17 53 c0 f1 71 2b f8 3f
       -19.228138699465976 1.5106067126664067
000400 00 e3 43 06 1e b8 bb 3f 80 0b 4e 38 14 93 ba bf
       0.10827815678556973 -0.1038067471945805
000410 00 00 00 00 00 00 f0 3f 00 00 00 00 00 00 00 00
       1.0 0.0
000420 a6 e4 36 2e af 1e 33 c0 5f 72 3b ae 40 82 f6 3f
       -19.119860542680406 1.4067999654718262
000430 00 e3 43 06 1e b8 bb 3f 70 0b 4e 38 14 93 ba bf
       0.10827815678556973 -0.10380674719458027
000440 00 00 00 00 00 00 f0 3f 00 00 00 00 00 00 00 00
       1.0 0.0
000450 c3 a0 30 10 f7 02 33 c0 a8 91 b6 6a 0f d9 f4 3f
       -19.011582385894837 1.302993218277246
000460 00 c7 0d 92 77 3b c2 3f 20 79 b8 80 0a 13 a8 3f
       0.14243979102644033 0.047020271504367495
000470 00 00 00 00 00 00 f0 3f 00 00 00 00 00 00 00 00
       1.0 0.0
000480 35 85 0c 21 80 de 32 c0 71 55 bc be a7 99 f5 3f
       -18.869142594868396 1.3500134897816134
000490 00 4e 54 8f 44 d1 af 3f f0 61 04 81 8b 79 c1 3f
       0.06214346170068197 0.13652175712265047
0004a0 00 00 00 00 00 00 f0 3f 00 00 00 00 00 00 00 00
       1.0 0.0
0004b0 0e db c4 7e 97 ce 32 c0 af e1 dc 2e d9 c8 f7 3f
       -18.806999133167714 1.4865352469042639
0004c0 00 4e 54 8f 44 d1 af 3f f0 61 04 81 8b 79 c1 3f
       0.06214346170068197 0.13652175712265047
0004d0 00 00 00 00 00 00 f0 3f 00 00 00 00 00 00 00 00
       1.0 0.0
0004e0 e7 30 7d dc ae be 32 c0 ed 6d fd 9e 0a f8 f9 3f
       -18.744855671467032 1.6230570040269143
0004f0 00 4c 54 8f 44 d1 af 3f f0 61 04 81 8b 79 c1 3f
       0.062143461700678415 0.13652175712265047
000500 00 00 00 00 00 00 f0 3f 00 00 00 00 00 00 00 00
       1.0 0.0
000510 c1 86 35 3a c6 ae 32 c0 2b fa 1d 0f 3c 27 fc 3f
       -18.682712209766354 1.7595787611495648
000520 00 4e 54 8f 44 d1 af 3f e8 61 04 81 8b 79 c1 3f
       0.06214346170068197 0.13652175712265024
000530 00 00 00 00 00 00 f0 3f 00 00 00 00 00 00 00 00
       1.0 0.0
000540 9a dc ed 97 dd 9e 32 c0 68 86 3e 7f 6d 56 fe 3f
       -18.620568748065672 1.896100518272215
000550 00 c5 0a 8a f8 f4 b4 3f 90 54 69 27 ac 16 c0 3f
       0.08186295862357795 0.12569190906893768
000560 00 00 00 00 00 00 f0 3f 00 00 00 00 00 00 00 00
       1.0 0.0
000570 d5 d1 63 9f e8 89 32 c0 7d d8 15 82 a1 2c 00 40
       -18.538705789442094 2.0217924273411527
000580 00 76 7a 6e 85 07 b3 3f 00 9b 9d 8b b4 37 bd 3f
       0.074333514663941 0.11413124474129788
000590 00 00 00 00 00 00 00 00 00 00 00 00 00 00 f0 3f
       0.0 1.0
0005a0 79 91 6d 9b 58 f6 2e c0 e4 19 57 9e 0c 54 f1 3f
       -15.481144768834143 1.0830198464551524
0005b0 40 df 4f 8d 97 6e c2 bf 00 2f dd 24 06 81 a5 bf
       -0.14400000000000013 -0.041999999999999815
0005c0 00 00 00 00 00 00 f0 3f 00 00 00 00 00 00 00 00
       1.0 0.0
0005d0 f6 d0 a2 f9 12 40 2f c0 6c 30 30 6d 04 a8 f0 3f
       -15.625144768834144 1.0410198464551526
0005e0 80 12 d9 3d ae a7 c2 bf 20 ee ea 56 22 2b a2 3f
       -0.1457422067634475 0.035485337362356484
0005f0 00 00 00 00 00 00 f0 3f 00 00 00 00 00 00 00 00
       1.0 0.0
000600 40 35 9a b2 b1 8a 2f c0 dd 87 e7 7f 5d 39 f1 3f
       -15.770886975597591 1.076505183817509
000610 00 0e e9 17 2f c2 b9 bf 80 b2 c5 13 a5 7a bc 3f
       -0.10061926206349625 0.11124641163559978
000620 00 00 00 00 00 00 f0 3f 00 00 00 00 00 00 00 00
       1.0 0.0
000630 5c 07 ca 10 36 be 2f c0 05 e3 23 d1 07 01 f3 3f
       -15.871506237661087 1.1877515954531088
000640 80 0e e9 17 2f c2 b9 bf 90 b2 c5 13 a5 7a bc 3f
       -0.10061926206349803 0.1112464116356
000650 00 00 00 00 00 00 f0 3f 00 00 00 00 00 00 00 00
       1.0 0.0
000660 79 d9 f9 6e ba f1 2f c0 2e 3e 60 22 b2 c8 f4 3f
       -15.972125499724585 1.2989980070887088
000670 80 0e e9 17 2f c2 b9 bf 80 b2 c5 13 a5 7a bc 3f
       -0.10061926206349803 0.11124641163559978
000680 00 00 00 00 00 00 f0 3f 00 00 00 00 00 00 00 00
       1.0 0.0
000690 cb d5 94 66 9f 12 30 c0 56 99 9c 73 5c 90 f6 3f
       -16.072744761788083 1.4102444187243086
0006a0 00 71 7a 16 77 9b b3 bf 98 76 8f 1c 29 82 c0 3f
       -0.07659096049104974 0.12897218603659577
0006b0 00 00 00 00 00 00 f0 3f 00 00 00 00 00 00 00 00
       1.0 0.0
0006c0 3c 50 ab dd 3a 26 30 c0 29 88 2e 97 a1 a0 f8 3f
       -16.149335722279133 1.5392166047609044
0006d0 00 98 c0 b5 fb c4 86 3f 38 da b9 1d ae 25 c3 3f
       0.011117903217449765 0.14958740664924774
0006e0 00 00 00 00 00 00 f0 3f 00 00 00 00 00 00 00 00
       1.0 0.0
0006f0 29 98 34 3e 62 23 30 c0 70 c3 e5 5a 57 05 fb 3f
       -16.138217819061683 1.6888040114101521
000700 00 f2 ca 93 f6 b4 be 3f 00 fb 2e 8d b6 0e b7 3f
       0.11994877918454705 0.09006825396407336
000710 00 00 00 00 00 00 f0 3f 00 00 00 00 00 00 00 00
       1.0 0.0
000720 37 cd a0 47 ad 04 30 c0 20 b3 b8 c3 42 76 fc 3f
       -16.018269039877136 1.7788722653742255
000730 00 f0 16 32 82 c9 c2 3f c0 fc 95 87 82 ae 9f 3f
       0.14677455373555404 0.030939139867311338
000740 00 00 00 00 00 00 f0 3f 00 00 00 00 00 00 00 00
       1.0 0.0
000750 ae 3e 79 86 34 be 2f c0 13 0b d7 cd fc f4 fc 3f
       -15.871494486141582 1.8098114052415368
000760 c0 0a 44 7d d3 27 c2 3f 00 a1 e3 c1 20 fc a8 bf
       0.1418403970383988 -0.04879858366786216
000770 00 00 00 00 00 00 f0 3f 00 00 00 00 00 00 00 00
       1.0 0.0
000780 83 2e 84 38 95 75 2f c0 0b ee c7 c7 1b 2d fc 3f
       -15.729654089103184 1.7610128215736747
000790 c0 0a 44 7d d3 27 c2 3f 00 a1 e3 c1 20 fc a8 bf
       0.1418403970383988 -0.04879858366786216
0007a0 00 00 00 00 00 00 f0 3f 00 00 00 00 00 00 00 00
       1.0 0.0
0007b0 58 1e 8f ea f5 2c 2f c0 03 d1 b8 c1 3a 65 fb 3f
       -15.587813692064785 1.7122142379058125
0007c0 80 7f 1d 2d ee 8b ba 3f 00 cc 67 ba f6 be bb bf
       0.10369766808935132 -0.10838262606539217
0007d0 00 00 00 00 00 00 f0 3f 00 00 00 00 00 00 00 00
       1.0 0.0
0007e0 59 e3 34 0e de f7 2e c0 43 54 12 56 4b a9 f9 3f
       -15.484116023975433 1.6038316118404203
0007f0 00 80 1d 2d ee 8b ba 3f 00 cc 67 ba f6 be bb bf
       0.1036976680893531 -0.10838262606539217
