data/online/npz-eval/b02/b02-122/b02-122z-06.npz (npz, 30690 bytes, 1 tensors)

x f8 [625, 6]
000000 4e 1a c3 1b 7e 6d 34 c0 b7 3e 35 af 83 a2 02 40
       -20.427705512173183 2.3293527305721358
000010 00 ab 8c 6a 69 37 bc bf 60 9d d0 c4 c3 0b ba bf
       -0.11022051669412392 -0.10174201540995886
000020 00 00 00 00 00 00 f0 3f 00 00 00 00 00 00 00 00
       1.0 0.0
000030 f9 a6 2d 85 b5 89 34 c0 cc b9 0e 91 25 d2 01 40
       -20.537926028867307 2.227610715162177
000040 00 01 8b 46 63 92 b1 bf 40 0c 43 1b 64 12 c1 bf
       -0.06863995048752614 -0.13337375003001917
000050 00 00 00 00 00 00 f0 3f 00 00 00 00 00 00 00 00
       1.0 0.0
000060 fa 31 74 e8 47 9b 34 c0 08 89 5a 4f ff c0 00 40
       -20.606565979354833 2.0942369651321577
000070 00 01 8b 46 63 92 b1 bf 38 0c 43 1b 64 12 c1 bf
       -0.06863995048752614 -0.13337375003001894
000080 00 00 00 00 00 00 f0 3f 00 00 00 00 00 00 00 00
       1.0 0.0
000090 fb bc ba 4b da ac 34 c0 89 b0 4c 1b b2 5f ff 3f
       -20.67520592984236 1.9608632151021388
0000a0 00 94 af 55 c4 7f 93 bf 08 b0 10 f7 6e 0b c3 bf
       -0.01904207966790139 -0.14878642142991816
0000b0 00 00 00 00 00 00 f0 3f 00 00 00 00 00 00 00 00
       1.0 0.0
0000c0 e0 28 d0 3c ba b1 34 c0 88 9a 6a 3c 44 fe fc 3f
       -20.69424800951026 1.8120767936722206
0000d0 00 38 fe 56 98 ab 81 bf f0 71 58 e1 0f 2b c3 bf
       -0.008628072886292415 -0.14975164893338855
0000e0 00 00 00 00 00 00 f0 3f 00 00 00 00 00 00 00 00
       1.0 0.0
0000f0 a7 08 db af ef b3 34 c0 4a 8c 3f 40 e2 98 fa 3f
       -20.702876082396553 1.662325144738832
000100 00 0c 19 0f 13 f3 a4 3f e0 90 07 4a cc 78 c2 bf
       0.040917010872838944 -0.14431146254276594
000110 00 00 00 00 00 00 f0 3f 00 00 00 00 00 00 00 00
       1.0 0.0
000120 21 7c 53 26 76 a9 34 c0 2e 9a fe b6 c8 49 f8 3f
       -20.661959071523714 1.5180136821960661
000130 00 0a 19 0f 13 f3 a4 3f d8 90 07 4a cc 78 c2 bf
       0.04091701087283539 -0.14431146254276572
000140 00 00 00 00 00 00 f0 3f 00 00 00 00 00 00 00 00
       1.0 0.0
000150 9c ef cb 9c fc 9e 34 c0 13 a8 bd 2d af fa f5 3f
       -20.62104206065088 1.3737022196533004
000160 00 0c 19 0f 13 f3 a4 3f d8 90 07 4a cc 78 c2 bf
       0.040917010872838944 -0.14431146254276572
000170 00 00 00 00 00 00 f0 3f 00 00 00 00 00 00 00 00
       1.0 0.0
000180 16 63 44 13 83 94 34 c0 f8 b5 7c a4 95 ab f3 3f
       -20.58012504977804 1.2293907571105347
000190 00 0a 19 0f 13 f3 a4 3f e0 90 07 4a cc 78 c2 bf
       0.04091701087283539 -0.14431146254276594
0001a0 00 00 00 00 00 00 f0 3f 00 00 00 00 00 00 00 00
       1.0 0.0
0001b0 91 d6 bc 89 09 8a 34 c0 dc c3 3b 1b 7c 5c f1 3f
       -20.539208038905205 1.0850792945677687
0001c0 00 87 6e 1d 98 b4 b0 3f bc b0 4c d2 b4 49 c1 bf
       0.06525564878986856 -0.13506183880361344
0001d0 00 00 00 00 00 00 f0 3f 00 00 00 00 00 00 00 00
       1.0 0.0
0001e0 0a 68 9f f1 54 79 34 c0 89 5b e4 01 8b 66 ee 3f
       -20.473952390115336 0.9500174557641553
0001f0 00 87 6e 1d 98 b4 b0 3f bc b0 4c d2 b4 49 c1 bf
       0.06525564878986856 -0.13506183880361344
000200 00 00 00 00 00 00 f0 3f 00 00 00 00 00 00 00 00
       1.0 0.0
000210 83 f9 81 59 a0 68 34 c0 5a 2f 51 cd 1d 14 ea 3f
       -20.408696741325468 0.8149556169605419
000220 00 39 2b 78 7b f1 bf 3f c0 f9 d3 f5 c7 4f b5 bf
       0.12477847751435789 -0.08324861289654617
000230 00 00 00 00 00 00 f0 3f 00 00 00 00 00 00 00 00
       1.0 0.0
000240 4a ce 09 de ae 48 34 c0 22 b0 96 ce 24 6a e7 3f
       -20.28391826381111 0.7317070040639957
000250 80 f2 1f 6c 32 33 c3 3f 00 60 3b 25 b2 db 25 3f
       0.1499999072983833 0.00016676473261756364
000260 00 00 00 00 00 00 f0 3f 00 00 00 00 00 00 00 00
       1.0 0.0
000270 65 8e 31 79 48 22 34 c0 d8 03 b9 89 82 6b e7 3f
       -20.133918356512726 0.7318737687966133
000280 00 f3 1f 6c 32 33 c3 3f 00 60 3b 25 b2 db 25 3f
       0.14999990729838686 0.00016676473261756364
000290 00 00 00 00 00 00 f0 3f 00 00 00 00 00 00 00 00
       1.0 0.0
0002a0 7f 4e 59 14 e2 fb 33 c0 8e 57 db 44 e0 6c e7 3f
       -19.98391844921434 0.7320405335292308
0002b0 00 ac 55 c3 ca fb b1 3f ec ee 30 20 dd f6 c0 3f
       0.07024829167282576 0.13253368446191105
0002c0 00 00 00 00 00 00 f0 3f 00 00 00 00 00 00 00 00
       1.0 0.0
0002d0 d3 f8 95 49 e6 e9 33 c0 49 93 e7 8c 97 aa eb 3f
       -19.913670157541514 0.8645742179911419
0002e0 00 ad 55 c3 ca fb b1 3f ec ee 30 20 dd f6 c0 3f
       0.07024829167282931 0.13253368446191105
0002f0 00 00 00 00 00 00 f0 3f 00 00 00 00 00 00 00 00
       1.0 0.0
000300 26 a3 d2 7e ea d7 33 c0 04 cf f3 d4 4e e8 ef 3f
       -19.843421865868685 0.9971079024530529
000310 00 40 04 ea e5 a5 71 bf d0 db 09 01 2c 31 c3 3f
       -0.004308603384075127 0.1499381070204593
000320 00 00 00 00 00 00 f0 3f 00 00 00 00 00 00 00 00
       1.0 0.0
000330 6a 43 31 dd 04 d9 33 c0 fc 22 9b ea 4c 5a f2 3f
       -19.84773046925276 1.1470460094735122
000340 00 5a 15 e1 99 2e a8 bf c0 ca ba de 2f 39 c2 3f
       -0.047230538106919795 0.14237020850631232
000350 00 00 00 00 00 00 f0 3f 00 00 00 00 00 00 00 00
       1.0 0.0
000360 17 ce 21 2a 1c e5 33 c0 54 7c 72 e6 72 a1 f4 3f
       -19.89496100735968 1.2894162179798245
000370 00 5a 15 e1 99 2e a8 bf c8 ca ba de 2f 39 c2 3f
       -0.047230538106919795 0.14237020850631255
000380 00 00 00 00 00 00 f0 3f 00 00 00 00 00 00 00 00
       1.0 0.0
000390 c4 58 12 77 33 f1 33 c0 ad d5 49 e2 98 e8 f6 3f
       -19.9421915454666 1.431786426486137
0003a0 00 58 15 e1 99 2e a8 bf c0 ca ba de 2f 39 c2 3f
       -0.04723053810691624 0.14237020850631232
0003b0 00 00 00 00 00 00 f0 3f 00 00 00 00 00 00 00 00
       1.0 0.0
0003c0 70 e3 02 c4 4a fd 33 c0 05 2f 21 de be 2f f9 3f
       -19.989422083573515 1.5741566349924494
0003d0 00 81 ac aa d1 d5 b3 bf 38 14 ca 67 b2 70 c0 3f
       -0.07748136917917137 0.12843923633423215
0003e0 00 00 00 00 00 00 f0 3f 00 00 00 00 00 00 00 00
       1.0 0.0
0003f0 f1 8f ad 95 20 11 34 c0 8c 71 1a 2b d5 3d fb 3f
       -20.066903452752687 1.7025958713266816
000400 00 82 ac aa d1 d5 b3 bf 40 14 ca 67 b2 70 c0 3f
       -0.07748136917917492 0.12843923633423238
000410 00 00 00 00 00 00 f0 3f 00 00 00 00 00 00 00 00
       1.0 0.0
000420 73 3c 58 67 f6 24 34 c0 14 b4 13 78 eb 4b fd 3f
       -20.14438482193186 1.831035107660914
000430 00 81 ac aa d1 d5 b3 bf 38 14 ca 67 b2 70 c0 3f
       -0.07748136917917137 0.12843923633423215
000440 00 00 00 00 00 00 f0 3f 00 00 00 00 00 00 00 00
       1.0 0.0
000450 f4 e8 02 39 cc 38 34 c0 9b f6 0c c5 01 5a ff 3f
       -20.221866191111033 1.959474343995146
000460 00 81 ac aa d1 d5 b3 bf 38 14 ca 67 b2 70 c0 3f
       -0.07748136917917137 0.12843923633423215
000470 00 00 00 00 00 00 f0 3f 00 00 00 00 00 00 00 00
       1.0 0.0
000480 75 95 ad 0a a2 4c 34 c0 91 1c 03 09 0c b4 00 40
       -20.299347560290204 2.0879135803293782
000490 00 58 b0 05 0e d3 bb bf 00 04 5d 8e de 76 ba 3f
       -0.10868919028175128 0.10337630248706375
0004a0 00 00 00 00 00 00 f0 3f 00 00 00 00 00 00 00 00
       1.0 0.0
0004b0 cd 45 b3 18 75 68 34 c0 b1 04 76 fd c2 87 01 40
       -20.408036750571956 2.191289882816442
0004c0 00 e3 8e 54 ec d0 c1 bf 80 32 77 9f 08 a1 ac 3f
       -0.13918832901779155 0.05591608950235116
0004d0 00 00 00 00 00 00 f0 3f 00 00 00 00 00 00 00 00
       1.0 0.0
0004e0 93 63 5c f1 16 8c 34 c0 7b e1 f3 1f 47 fa 01 40
       -20.547225079589747 2.247205972318793
0004f0 00 ee 77 df cd 89 a1 bf a0 bb b4 1c 52 b1 c2 bf
       -0.0342544875420252 -0.14603639985713546
000500 00 00 00 00 00 00 f0 3f 00 00 00 00 00 00 00 00
       1.0 0.0
000510 8a 1f 4c d8 db 94 34 c0 c1 95 28 fe 31 cf 00 40
       -20.581479567131773 2.1011695724616577
000520 00 f0 77 df cd 89 a1 bf 98 bb b4 1c 52 b1 c2 bf
       -0.034254487542028755 -0.14603639985713524
000530 00 00 00 00 00 00 f0 3f 00 00 00 00 00 00 00 00
       1.0 0.0
000540 82 db 3b bf a0 9d 34 c0 0f 94 ba b8 39 48 ff 3f
       -20.6157340546738 1.9551331726045225
000550 00 1c 33 fe bb 4a 9a 3f 40 46 af 68 a8 ea c2 bf
       0.025675713911166298 -0.1477861891894907
000560 00 00 00 00 00 00 f0 3f 00 00 00 00 00 00 00 00
       1.0 0.0
000570 bb 4e 3c 10 0e 97 34 c0 47 ab a4 ab e4 ea fc 3f
       -20.590058340762635 1.8073469834150317
000580 00 1c 33 fe bb 4a 9a 3f 40 46 af 68 a8 ea c2 bf
       0.025675713911166298 -0.1477861891894907
000590 00 00 00 00 00 00 f0 3f 00 00 00 00 00 00 00 00
       1.0 0.0
0005a0 f4 c1 3c 61 7b 90 34 c0 7f c2 8e 9e 8f 8d fa 3f
       -20.56438262685147 1.659560794225541
0005b0 00 00 53 14 cd e4 68 3f c0 09 30 67 21 e9 91 bf
       0.003038788362204059 -0.017490884707521692
0005c0 00 00 00 00 00 00 00 00 00 00 00 00 00 00 f0 3f
       0.0 1.0
0005d0 da 81 b1 53 98 9e 33 c0 fb 73 85 57 6d fb e4 3f
       -19.61951182445214 0.6556917867088708
0005e0 00 bf 0a 74 2c 17 c2 3f 40 26 ed dd 8e ba a9 3f
       0.1413322035418716 0.050251450148220744
0005f0 00 00 00 00 00 00 f0 3f 00 00 00 00 00 00 00 00
       1.0 0.0
000600 5c 6c c9 fa 69 7a 33 c0 5f 46 64 45 16 97 e6 3f
       -19.478179620910268 0.7059432368570916
000610 00 bf 0a 74 2c 17 c2 3f 40 26 ed dd 8e ba a9 3f
       0.1413322035418716 0.050251450148220744
000620 00 00 00 00 00 00 f0 3f 00 00 00 00 00 00 00 00
       1.0 0.0
000630 de 56 e1 a1 3b 56 33 c0 c3 18 43 33 bf 32 e8 3f
       -19.336847417368396 0.7561946870053123
000640 00 67 b9 45 81 bf bc 3f a0 35 42 19 3e 75 b9 bf
       0.11229713394405039 -0.09944522968927183
000650 00 00 00 00 00 00 f0 3f 00 00 00 00 00 00 00 00
       1.0 0.0
000660 77 9d 9b 20 7c 39 33 c0 0f d2 1a 70 17 04 e5 3f
       -19.224550283424346 0.6567494573160405
000670 00 67 b9 45 81 bf bc 3f a0 35 42 19 3e 75 b9 bf
       0.11229713394405039 -0.09944522968927183
000680 00 00 00 00 00 00 f0 3f 00 00 00 00 00 00 00 00
       1.0 0.0
000690 10 e4 55 9f bc 1c 33 c0 5b 8b f2 ac 6f d5 e1 3f
       -19.112253149480296 0.5573042276267687
0006a0 00 80 a6 cf 5c 7d b4 3f b8 c0 ea 9d 02 3d c0 bf
       0.08003788060750594 -0.12686188422003908
0006b0 00 00 00 00 00 00 f0 3f 00 00 00 00 00 00 00 00
       1.0 0.0
0006c0 90 3d 86 42 3f 08 33 c0 5a b6 ef 0a 5e 8c db 3f
       -19.03221526887279 0.4304423434067296
0006d0 00 80 a6 cf 5c 7d b4 3f b8 c0 ea 9d 02 3d c0 bf
       0.08003788060750594 -0.12686188422003908
0006e0 00 00 00 00 00 00 f0 3f 00 00 00 00 00 00 00 00
       1.0 0.0
0006f0 10 97 b6 e5 c1 f3 32 c0 fe 55 fa bb dc 6d d3 3f
       -18.952177388265284 0.3035804591866905
000700 00 80 a6 cf 5c 7d b4 3f b8 c0 ea 9d 02 3d c0 bf
       0.08003788060750594 -0.12686188422003908
000710 00 00 00 00 00 00 f0 3f 00 00 00 00 00 00 00 00
       1.0 0.0
000720 90 f0 e6 88 44 df 32 c0 44 eb 09 da b6 9e c6 3f
       -18.872139507657778 0.17671857496665144
000730 00 74 81 b1 99 c9 ab 3f db 3d 6c 2b 31 e6 c1 bf
       0.054272463720486996 -0.1398374044442637
000740 00 00 00 00 00 00 f0 3f 00 00 00 00 00 00 00 00
       1.0 0.0
000750 d6 2f 0e bc 5f d1 32 c0 a4 b5 76 ba 16 e2 a2 3f
       -18.81786704393729 0.036881170522387735
000760 00 72 81 b1 99 c9 ab 3f db 3d 6c 2b 31 e6 c1 bf
       0.054272463720483444 -0.1398374044442637
000770 00 00 00 00 00 00 f0 3f 00 00 00 00 00 00 00 00
       1.0 0.0
000780 1d 6f 35 ef 7a c3 32 c0 e4 20 9d f9 56 5b ba bf
       -18.763594580216807 -0.10295623392187597
000790 00 74 81 b1 99 c9 ab 3f da 3d 6c 2b 31 e6 c1 bf
       0.054272463720486996 -0.13983740444426368
0007a0 00 00 00 00 00 00 f0 3f 00 00 00 00 00 00 00 00
       1.0 0.0
0007b0 63 ae 5c 22 96 b5 32 c0 4c ce 3a a8 dc 13 cf bf
       -18.70932211649632 -0.24279363836613965
0007c0 00 10 2f d1 65 b8 7b 3f 70 72 04 db 31 2e c3 bf
       0.006767652247564371 -0.149847251836849
0007d0 00 00 00 00 00 00 f0 3f 00 00 00 00 00 00 00 00
       1.0 0.0
0007e0 72 9b ff 9b da b3 32 c0 5e a0 9f 41 07 21 d9 bf
       -18.702554464248756 -0.39264089020298865
0007f0 00 10 2f d1 65 b8 7b 3f 6c 72 04 db 31 2e c3 bf
       0.006767652247564371 -0.14984725183684888
