data/online/npz-train/b05/b05-431/b05-431z-05.npz (npz, 33074 bytes, 1 tensors)

x f8 [674, 6]
00000000: 7640 8840 1193 37c0 b3b4 6420 9961 f83f
00000010: 8028 522a 125a c0bf 80cf 785b 1620 b43f
00000020: 0000 0000 0000 f03f 0000 0000 0000 0000
00000030: c7e4 dc64 c5b3 37c0 ab41 1c86 9aa3 f93f
00000040: 003a 8153 926e b6bf c06c 72e9 b22a bf3f
00000050: 0000 0000 0000 f03f 0000 0000 0000 0000
00000060: 0166 30f7 33ca 37c0 7768 b3b4 4596 fb3f
00000070: 003a 8153 926e b6bf c06c 72e9 b22a bf3f
00000080: 0000 0000 0000 f03f 0000 0000 0000 0000
00000090: 3be7 8389 a2e0 37c0 438f 4ae3 f088 fd3f
000000a0: 0064 acc3 85ef a2bf 38ab cf5c 759b c23f
000000b0: 0000 0000 0000 f03f 0000 0000 0000 0000
000000c0: 6dbd 654c 1aea 37c0 aa84 e48e 5fdc ff3f
000000d0: 0038 b19b 6047 8e3f 108f d73c 441b c33f
000000e0: 0000 0000 0000 f03f 0000 0000 0000 0000
000000f0: 4647 5260 51e6 37c0 46bb 3f0b e41f 0140
00000100: 00ea 437c cee9 b53f 40b8 6a05 9988 bf3f
00000110: 0000 0000 0000 f03f 0000 0000 0000 0000
00000120: 5c03 d691 67d0 37c0 0811 6bd3 281c 0240
00000130: 00ea 437c cee9 b53f 20b8 6a05 9988 bf3f
00000140: 0000 0000 0000 f03f 0000 0000 0000 0000
00000150: 72bf 59c3 7dba 37c0 c966 969b 6d18 0340
00000160: 8007 f261 476a c03f 802d bb5f 09eb b33f
00000170: 0000 0000 0000 f03f 0000 0000 0000 0000
00000180: 63db 9534 a999 37c0 3540 94e6 c5b7 0340
00000190: 00ae b41d c82f c33f 007a be55 f5e8 76bf
000001a0: 0000 0000 0000 f03f 0000 0000 0000 0000
000001b0: 0772 5aa4 4973 37c0 f860 e96b 51ac 0340
000001c0: 80ae b41d c82f c33f 007a be55 f5e8 76bf
000001d0: 0000 0000 0000 f03f 0000 0000 0000 0000
000001e0: aa08 1f14 ea4c 37c0 bb81 3ef1 dca0 0340
000001f0: 00e3 7e68 b061 ba3f 20d3 25d1 23e7 bbbf
00000200: 0000 0000 0000 f03f 0000 0000 0000 0000
00000210: c789 b663 8832 37c0 2253 b5d2 a3c1 0240
00000220: 00e3 7e68 b061 ba3f 20d3 25d1 23e7 bbbf
00000230: 0000 0000 0000 f03f 0000 0000 0000 0000
00000240: e40a 4eb3 2618 37c0 8924 2cb4 6ae2 0140
00000250: 0032 8244 7f9d ac3f 8067 5b3b 47d1 c1bf
00000260: 0000 0000 0000 f03f 0000 0000 0000 0000
00000270: cbc9 abf3 d709 37c0 116e 7640 56c5 0040
00000280: 0094 c1f7 f317 933f 68e9 28a3 130d c3bf
00000290: 0000 0000 0000 f03f 0000 0000 0000 0000
000002a0: 66d9 adf6 1105 37c0 f5be 870c 0a29 ff3f
000002b0: 0090 c1f7 f317 933f 68e9 28a3 130d c3bf
000002c0: 0000 0000 0000 f03f 0000 0000 0000 0000
000002d0: 02e9 aff9 4b00 37c0 c8a1 2298 67c7 fc3f
000002e0: 00e8 f5b8 220b acbf e8c6 05b1 ccdf c1bf
000002f0: 0000 0000 0000 f03f 0000 0000 0000 0000
00000300: f663 0c8b 510e 37c0 ebe8 0102 6e8b fa3f
00000310: 00e8 f5b8 220b acbf e0c6 05b1 ccdf c1bf
00000320: 0000 0000 0000 f03f 0000 0000 0000 0000
00000330: eade 681c 571c 37c0 0f30 e16b 744f f83f
00000340: 0001 e2b9 3c8b b23f 8053 951b 15d0 c03f
00000350: 0000 0000 0000 f03f 0000 0000 0000 0000
00000360: e9fc aedf cb09 37c0 7fda 530f 7769 fa3f
00000370: 0001 e2b9 3c8b b23f 7853 951b 15d0 c03f
00000380: 0000 0000 0000 f03f 0000 0000 0000 0000
00000390: e81a f5a2 40f7 36c0 ee84 c6b2 7983 fc3f
000003a0: 0001 e2b9 3c8b b23f 8053 951b 15d0 c03f
000003b0: 0000 0000 0000 f03f 0000 0000 0000 0000
000003c0: e738 3b66 b5e4 36c0 5e2f 3956 7c9d fe3f
000003d0: 0002 e2b9 3c8b b23f 8053 951b 15d0 c03f
000003e0: 0000 0000 0000 f03f 0000 0000 0000 0000
000003f0: e556 8129 2ad2 36c0 e7ec d57c bf5b 0040
00000400: 00a0 9918 2a86 bc3f 603b fbde 6cb5 b93f
00000410: 0000 0000 0000 f03f 0000 0000 0000 0000
00000420: 45bd 68ff a3b5 36c0 c2c6 cde3 6a29 0140
00000430: 00f1 1c18 5641 b73f 0074 19d2 b18e be3f
00000440: 0000 0000 0000 f03f 0000 0000 0000 0000
00000450: 54a0 50a9 629e 36c0 6292 5e72 e01d 0240
00000460: 8082 e136 d993 c23f 00f7 4763 a8ca 963f
00000470: 0000 0000 0000 0000 0000 0000 0000 f03f
00000480: 6ac0 5a54 6ec9 35c0 5214 123d 5574 a7bf
00000490: 0000 0000 0000 0000 3333 3333 3333 c33f
000004a0: 0000 0000 0000 f03f 0000 0000 0000 0000
000004b0: 6ac0 5a54 6ec9 35c0 3d5c ddc7 3bac ba3f
000004c0: 0000 0000 0000 0000 3433 3333 3333 c33f
000004d0: 0000 0000 0000 f03f 0000 0000 0000 0000
000004e0: 6ac0 5a54 6ec9 35c0 a9f0 908b a844 d03f
000004f0: 0000 0000 0000 0000 3233 3333 3333 c33f
00000500: 0000 0000 0000 f03f 0000 0000 0000 0000
00000510: 6ac0 5a54 6ec9 35c0 428a 2a25 42de d93f
00000520: 0000 0000 0000 0000 3433 3333 3333 c33f
00000530: 0000 0000 0000 f03f 0000 0000 0000 0000
00000540: 6ac0 5a54 6ec9 35c0 ee11 62df edbb e13f
00000550: 0000 0000 0000 0000 3033 3333 3333 c33f
00000560: 0000 0000 0000 f03f 0000 0000 0000 0000
00000570: 6ac0 5a54 6ec9 35c0 bade 2eac ba88 e63f
00000580: 0048 e4a8 8240 903f 04e4 30fb 9b17 c33f
00000590: 0000 0000 0000 f03f 0000 0000 0000 0000
000005a0: 5887 b033 5ec5 35c0 bb17 fbaa a14e eb3f
000005b0: 0044 e4a8 8240 903f 04e4 30fb 9b17 c33f
000005c0: 0000 0000 0000 f03f 0000 0000 0000 0000
000005d0: 474e 0613 4ec1 35c0 5ea8 e354 440a f03f
000005e0: 0038 4637 d7b1 903f 00e6 edc7 1416 c33f
000005f0: 0000 0000 0000 f03f 0000 0000 0000 0000
00000600: b97c 389d 21bd 35c0 1e65 e1ed 066d f23f
00000610: 0038 4637 d7b1 903f f8e5 edc7 1416 c33f
00000620: 0000 0000 0000 f03f 0000 0000 0000 0000
00000630: 2bab 6a27 f5b8 35c0 dd21 df86 c9cf f43f
00000640: 003c 4637 d7b1 903f f8e5 edc7 1416 c33f
00000650: 0000 0000 0000 f03f 0000 0000 0000 0000
00000660: 9cd9 9cb1 c8b4 35c0 9cde dc1f 8c32 f73f
00000670: 0038 4637 d7b1 903f 00e6 edc7 1416 c33f
00000680: 0000 0000 0000 f03f 0000 0000 0000 0000
00000690: 0e08 cf3b 9cb0 35c0 5c9b dab8 4e95 f93f
000006a0: 00a4 6e34 162a 9b3f 486c 406d b9e5 c23f
000006b0: 0000 0000 0000 f03f 0000 0000 0000 0000
000006c0: 65ec 41b6 d1a9 35c0 e5a8 82e6 05f2 fb3f
000006d0: 00a4 6e34 162a 9b3f 486c 406d b9e5 c23f
000006e0: 0000 0000 0000 f03f 0000 0000 0000 0000
000006f0: bcd0 b430 07a3 35c0 6eb6 2a14 bd4e fe3f
00000700: 00a0 6e34 162a 9b3f 406c 406d b9e5 c23f
00000710: 0000 0000 0000 f03f 0000 0000 0000 0000
00000720: 14b5 27ab 3c9c 35c0 fb61 e920 ba55 0040
00000730: 00ea d0a5 5fc7 b03f d0e8 b648 2845 c13f
00000740: 0000 0000 0000 f03f 0000 0000 0000 0000
00000750: 2ae4 814b 758b 35c0 88d0 74a5 0c6a 0140
00000760: 00e9 d0a5 5fc7 b03f c0e8 b648 2845 c13f
00000770: 0000 0000 0000 f03f 0000 0000 0000 0000
00000780: 4113 dceb ad7a 35c0 143f 002a 5f7e 0240
00000790: 00fc 7321 eb02 9f3f c02d c2e9 65eb af3f
000007a0: 0000 0000 0000 0000 0000 0000 0000 f03f
000007b0: 1c65 36ef 2952 36c0 088f 2c71 7688 f03f
000007c0: 0033 3333 3333 c33f 0000 0000 0000 0000
000007d0: 0000 0000 0000 f03f 0000 0000 0000 0000
000007e0: b6fe cf88 c32b 36c0 088f 2c71 7688 f03f
000007f0: 8033 3333 3333 c33f 0000 0000 0000 0000
-23.574481995834923 1.5238276734701628 -0.12774874750568088 0.07861461384965018 1.0 0.0 -23.702230743340603 1.602442287319813
-0.0876246885174865 0.12174528312100374 1.0 0.0 -23.78985543185809 1.7241875704408167 -0.0876246885174865 0.12174528312100374
1.0 0.0 -23.877480120375576 1.8459328535618205 -0.03698366178122825 0.14536921531483826 1.0 0.0
-23.914463782156805 1.9913020688766587 0.014784579039908152 0.14926960917284093 1.0 0.0 -23.899679203116897 2.1405716780494997
0.08559885534115352 0.12317806608436488 1.0 0.0 -23.814080347775743 2.2637497441338645 0.08559885534115352 0.12317806608436443
1.0 0.0 -23.72848149243459 2.386927810218229 0.1282433727502017 0.07780512416063878 1.0 0.0
-23.600238119684388 2.4647329343788678 0.14989568186261693 -0.005593260135269507 1.0 0.0 -23.45034243782177 2.4591396742435983
0.14989568186262048 -0.005593260135269507 1.0 0.0 -23.30044675595915 2.4535464141083287 0.10305311728633271 -0.10899566513201053
1.0 0.0 -23.197393638672818 2.344550748976318 0.10305311728633271 -0.10899566513201053 1.0 0.0
-23.094340521386485 2.2355550838443077 0.055889107811797345 -0.1391991653279625 1.0 0.0 -23.038451413574688 2.096355918516345
0.018646060940586295 -0.14883656946933432 1.0 0.0 -23.0198053526341 1.9475193490470109 0.018646060940582743 -0.14883656946933432
1.0 0.0 -23.00115929169352 1.7986827795776765 -0.054772458151049364 -0.13964232104949947 1.0 0.0
-23.055931749844568 1.659040458528177 -0.054772458151049364 -0.13964232104949925 1.0 0.0 -23.110704207995617 1.5193981374786778
0.07243709123759245 0.13135017248955805 1.0 0.0 -23.038267116758025 1.6507483099682358 0.07243709123759245 0.13135017248955783
1.0 0.0 -22.965830025520432 1.7820984824577937 0.07243709123759245 0.13135017248955805 1.0 0.0
-22.89339293428284 1.9134486549473517 0.07243709123759601 0.13135017248955805 1.0 0.0 -22.820955843045244 2.0447988274369098
0.11142218685711214 0.10042458003884525 1.0 0.0 -22.709533656188132 2.145223407475755 0.09084070290277069 0.1193648469865849
1.0 0.0 -22.61869295328536 2.26458825446234 0.1451369779561169 0.022257453021658158 0.0 1.0
-21.786839744716794 -0.045809425072584134 0.0 0.15 1.0 0.0 -21.786839744716794 0.10419057492741586
0.0 0.15000000000000002 1.0 0.0 -21.786839744716794 0.25419057492741587 0.0 0.14999999999999997
1.0 0.0 -21.786839744716794 0.40419057492741584 0.0 0.15000000000000002 1.0 0.0
-21.786839744716794 0.5541905749274159 0.0 0.1499999999999999 1.0 0.0 -21.786839744716794 0.7041905749274158
0.01587108760674738 0.14915799870667013 1.0 0.0 -21.770968657110046 0.8533485736340859 0.015871087606743828 0.14915799870667013
1.0 0.0 -21.755097569503302 1.002506572340756 0.016303408383059548 0.14911136400387193 1.0 0.0
-21.738794161120243 1.151617936344628 0.016303408383059548 0.1491113640038717 1.0 0.0 -21.722490752737183 1.3007293003484997
0.0163034083830631 0.1491113640038717 1.0 0.0 -21.70618734435412 1.4498406643523714 0.016303408383059548 0.14911136400387193
1.0 0.0 -21.68988393597106 1.5989520283562433 0.026527735662657648 0.14763562998345692 1.0 0.0
-21.663356200308403 1.7465876583397002 0.026527735662657648 0.14763562998345692 1.0 0.0 -21.636828464645745 1.8942232883231571
0.026527735662654095 0.1476356299834567 1.0 0.0 -21.61030072898309 2.041858918306614 0.0655422000717536 0.13492301512253002
1.0 0.0 -21.544758528911338 2.176781933429144 0.06554220007175005 0.13492301512252958 1.0 0.0
-21.479216328839588 2.3117049485516734 0.030284570614636408 0.06234281996247715 0.0 1.0 -22.320952368526477 1.0333160801755543
0.14999999999999858 0.0 1.0 0.0 -22.17095236852648 1.0333160801755543 0.15000000000000213 0.0
