data/online/npz-eval/b06/b06-008/b06-008-07.npz (npz, 21698 bytes, 1 tensors)

x f8 [438, 6]
000000 1b b1 79 78 c6 a2 2f c0 69 df b2 c2 ea e3 dd bf
       -15.817920460562666 -0.4670359517435743
000010 40 7f a5 4d 08 f6 c1 bf 20 9e 82 4d 23 24 ab 3f
       -0.14032081405002295 0.05301008530778639
000020 00 00 00 00 00 00 f0 3f 00 00 00 00 00 00 00 00
       1.0 0.0
000030 18 47 b0 99 9e ea 2f c0 a5 8b 02 59 66 7f da bf
       -15.95824127461269 -0.4140258664357879
000040 80 7f a5 4d 08 f6 c1 bf 20 9e 82 4d 23 24 ab 3f
       -0.14032081405002472 0.05301008530778639
000050 00 00 00 00 00 00 f0 3f 00 00 00 00 00 00 00 00
       1.0 0.0
000060 8b 6e 73 5d 3b 19 30 c0 e1 37 52 ef e1 1a d7 bf
       -16.098562088662714 -0.36101578112800153
000070 00 c8 f2 b4 fc 82 bd bf 48 3e 37 dc 96 91 b8 3f
       -0.11527995507893252 0.09597151638376389
000080 00 00 00 00 00 00 f0 3f 00 00 00 00 00 00 00 00
       1.0 0.0
000090 53 61 28 5a be 36 30 c0 4f 68 44 38 7c f6 d0 bf
       -16.213842043741646 -0.26504426474423765
0000a0 00 c9 f2 b4 fc 82 bd bf 4a 3e 37 dc 96 91 b8 3f
       -0.11527995507893607 0.09597151638376392
0000b0 00 00 00 00 00 00 f0 3f 00 00 00 00 00 00 00 00
       1.0 0.0
0000c0 1c 54 dd 56 41 54 30 c0 79 31 6d 02 2d a4 c5 bf
       -16.329121998820582 -0.16907274836047373
0000d0 00 34 0a e2 d9 20 b7 bf 3c b0 bc 8e 4f a7 be 3f
       -0.09034501808692141 0.11974045977393727
0000e0 00 00 00 00 00 00 f0 3f 00 00 00 00 00 00 00 00
       1.0 0.0
0000f0 50 5e bf 30 62 6b 30 c0 6c 65 3b ec 14 42 a9 bf
       -16.419467016907504 -0.04933228858653646
000100 00 34 0a e2 d9 20 b7 bf 3c b0 bc 8e 4f a7 be 3f
       -0.09034501808692141 0.11974045977393727
000110 00 00 00 00 00 00 f0 3f 00 00 00 00 00 00 00 00
       1.0 0.0
000120 84 68 a1 0a 83 82 30 c0 86 fd 9e 18 45 06 b2 3f
       -16.509812034994425 0.07040817118740081
000130 00 34 0a e2 d9 20 b7 bf 3c b0 bc 8e 4f a7 be 3f
       -0.09034501808692141 0.11974045977393727
000140 00 00 00 00 00 00 f0 3f 00 00 00 00 00 00 00 00
       1.0 0.0
000150 b8 72 83 e4 a3 99 30 c0 e1 d6 ad 53 ca 56 c8 3f
       -16.600157053081347 0.19014863096133808
000160 00 0a 01 ac 00 cc ad bf 13 32 72 53 2e b2 c1 3f
       -0.058197041508282865 0.13825015139117677
000170 00 00 00 00 00 00 f0 3f 00 00 00 00 00 00 00 00
       1.0 0.0
000180 3d 73 d9 e4 89 a8 30 c0 7a 04 90 53 7c 04 d5 3f
       -16.65835409458963 0.32839878235251485
000190 00 ec dd dd e8 64 9b bf dc 88 95 b9 65 e4 c2 3f
       -0.026752127210311727 0.14759513437008465
0001a0 00 00 00 00 00 00 f0 3f 00 00 00 00 00 00 00 00
       1.0 0.0
0001b0 b8 ea 10 1f 63 af 30 c0 e8 c8 5a 30 af 76 de 3f
       -16.68510622179994 0.4759939167225995
0001c0 00 ec dd dd e8 64 9b bf d8 88 95 b9 65 e4 c2 3f
       -0.026752127210311727 0.14759513437008454
0001d0 00 00 00 00 00 00 f0 3f 00 00 00 00 00 00 00 00
       1.0 0.0
0001e0 33 62 48 59 3c b6 30 c0 aa c6 92 06 71 f4 e3 3f
       -16.711858349010253 0.623589051092684
0001f0 00 02 07 5f 37 7a a7 3f c4 49 83 fe e7 47 c2 3f
       0.04585431132318618 0.14281940390953995
000200 00 00 00 00 00 00 f0 3f 00 00 00 00 00 00 00 00
       1.0 0.0
000210 b2 de 98 3d 7f aa 30 c0 1b 99 33 06 6b 86 e8 3f
       -16.666004037687067 0.766408455002224
000220 00 07 27 1d f9 49 b9 3f 00 db 29 bf 98 e5 bc 3f
       0.0987849899456954 0.11287836711003862
000230 00 00 00 00 00 00 f0 3f 00 00 00 00 00 00 00 00
       1.0 0.0
000240 ab b7 7b 44 35 91 30 c0 7b d4 18 1e 1e 23 ec 3f
       -16.56721904774137 0.8792868221122626
000250 00 08 27 1d f9 49 b9 3f f8 da 29 bf 98 e5 bc 3f
       0.09878498994569895 0.11287836711003851
000260 00 00 00 00 00 00 f0 3f 00 00 00 00 00 00 00 00
       1.0 0.0
000270 a3 90 5e 4b eb 77 30 c0 da 0f fe 35 d1 bf ef 3f
       -16.468434057795672 0.9921651892223011
000280 80 1d 64 fc 83 f2 c2 3f 80 20 56 1e 50 d6 98 3f
       0.1480259878519341 0.024255039073552087
000290 00 00 00 00 00 00 f0 3f 00 00 00 00 00 00 00 00
       1.0 0.0
0002a0 68 c8 65 43 06 52 30 c0 6f 60 78 db 41 43 f0 3f
       -16.32040806994374 1.0164202282958532
0002b0 80 5e 32 08 4e 24 c3 3f 00 1b 5c 46 db e5 87 bf
       0.1495454349539962 -0.0116688853118041
0002c0 00 00 00 00 00 00 f0 3f 00 00 00 00 00 00 00 00
       1.0 0.0
0002d0 ab 63 55 a7 bd 2b 30 c0 39 a8 eb 24 76 13 f0 3f
       -16.170862634989742 1.0047513429840491
0002e0 80 5e 32 08 4e 24 c3 3f c0 1a 5c 46 db e5 87 bf
       0.1495454349539962 -0.01166888531180399
0002f0 00 00 00 00 00 00 f0 3f 00 00 00 00 00 00 00 00
       1.0 0.0
000300 ee fe 44 0b 75 05 30 c0 07 e0 bd dc 54 c7 ef 3f
       -16.021317200035746 0.9930824576722451
000310 40 6a 2e 8a 27 4f c1 3f 30 8f d6 d8 f7 9d b0 bf
       0.1352281021798536 -0.06491040271663162
000320 00 00 00 00 00 00 f0 3f 00 00 00 00 00 00 00 00
       1.0 0.0
000330 33 44 61 78 ad c5 2f c0 21 0e a3 e1 95 b3 ed 3f
       -15.886089097855892 0.9281720549556135
000340 00 6a 2e 8a 27 4f c1 3f 28 8f d6 d8 f7 9d b0 bf
       0.13522810217985182 -0.06491040271663151
000350 00 00 00 00 00 00 f0 3f 00 00 00 00 00 00 00 00
       1.0 0.0
000360 8b 8a 38 da 70 80 2f c0 3c 3c 88 e6 d6 9f eb 3f
       -15.75086099567604 0.863261652238982
000370 40 6a 2e 8a 27 4f c1 3f 30 8f d6 d8 f7 9d b0 bf
       0.1352281021798536 -0.06491040271663162
000380 00 00 00 00 00 00 f0 3f 00 00 00 00 00 00 00 00
       1.0 0.0
000390 e2 d0 0f 3c 34 3b 2f c0 56 6a 6d eb 17 8c e9 3f
       -15.615632893496187 0.7983512495223504
0003a0 00 6a 2e 8a 27 4f c1 3f 30 8f d6 d8 f7 9d b0 bf
       0.13522810217985182 -0.06491040271663162
0003b0 00 00 00 00 00 00 f0 3f 00 00 00 00 00 00 00 00
       1.0 0.0
0003c0 3a 17 e7 9d f7 f5 2e c0 70 98 52 f0 58 78 e7 3f
       -15.480404791316335 0.7334408468057187
0003d0 40 6a 2e 8a 27 4f c1 3f 28 8f d6 d8 f7 9d b0 bf
       0.1352281021798536 -0.06491040271663151
0003e0 00 00 00 00 00 00 f0 3f 00 00 00 00 00 00 00 00
       1.0 0.0
0003f0 91 5d be ff ba b0 2e c0 8b c6 37 f5 99 64 e5 3f
       -15.345176689136482 0.6685304440890872
000400 80 02 cd 74 6c 01 ba 3f f0 a3 df 77 37 f7 a8 bf
       0.1015842232855082 -0.04876111353207324
000410 00 00 00 00 00 00 00 00 00 00 00 00 00 00 f0 3f
       0.0 1.0
000420 bf 9d 8c 8d 6c 29 2d c0 9e d8 49 38 8b cd 01 c0
       -14.580906318106711 -2.2253631970916805
000430 00 e0 22 db 78 b9 88 bf 50 ec 4f 3d 41 23 c3 3f
       -0.012072509944445642 0.1495133923889136
000440 00 00 00 00 00 00 f0 3f 00 00 00 00 00 00 00 00
       1.0 0.0
000450 77 66 c3 eb 9a 2f 2d c0 d9 d9 74 24 57 9b 00 c0
       -14.592978828051157 -2.075849804702767
000460 00 e4 22 db 78 b9 88 bf 50 ec 4f 3d 41 23 c3 3f
       -0.012072509944447418 0.1495133923889136
000470 00 00 00 00 00 00 f0 3f 00 00 00 00 00 00 00 00
       1.0 0.0
000480 30 2f fa 49 c9 35 2d c0 28 b6 3f 21 46 d2 fe bf
       -14.605051337995604 -1.9263364123138533
000490 00 e0 22 db 78 b9 88 bf 50 ec 4f 3d 41 23 c3 3f
       -0.012072509944445642 0.1495133923889136
0004a0 00 00 00 00 00 00 f0 3f 00 00 00 00 00 00 00 00
       1.0 0.0
0004b0 e8 f7 30 a8 f7 3b 2d c0 9e b8 95 f9 dd 6d fc bf
       -14.61712384794005 -1.7768230199249397
0004c0 00 e4 22 db 78 b9 88 bf 50 ec 4f 3d 41 23 c3 3f
       -0.012072509944447418 0.1495133923889136
0004d0 00 00 00 00 00 00 f0 3f 00 00 00 00 00 00 00 00
       1.0 0.0
0004e0 a1 c0 67 06 26 42 2d c0 14 bb eb d1 75 09 fa bf
       -14.629196357884497 -1.6273096275360261
0004f0 00 e0 22 db 78 b9 88 bf 50 ec 4f 3d 41 23 c3 3f
       -0.012072509944445642 0.1495133923889136
000500 00 00 00 00 00 00 f0 3f 00 00 00 00 00 00 00 00
       1.0 0.0
000510 59 89 9e 64 54 48 2d c0 8a bd 41 aa 0d a5 f7 bf
       -14.641268867828943 -1.4777962351471126
000520 00 e4 22 db 78 b9 88 bf 48 ec 4f 3d 41 23 c3 3f
       -0.012072509944447418 0.14951339238891337
000530 00 00 00 00 00 00 f0 3f 00 00 00 00 00 00 00 00
       1.0 0.0
000540 12 52 d5 c2 82 4e 2d c0 01 c0 97 82 a5 40 f5 bf
       -14.65334137777339 -1.3282828427581992
000550 00 e0 22 db 78 b9 88 bf 50 ec 4f 3d 41 23 c3 3f
       -0.012072509944445642 0.1495133923889136
000560 00 00 00 00 00 00 f0 3f 00 00 00 00 00 00 00 00
       1.0 0.0
000570 ca 1a 0c 21 b1 54 2d c0 77 c2 ed 5a 3d dc f2 bf
       -14.665413887717836 -1.1787694503692856
000580 00 e4 22 db 78 b9 88 bf 50 ec 4f 3d 41 23 c3 3f
       -0.012072509944447418 0.1495133923889136
000590 00 00 00 00 00 00 f0 3f 00 00 00 00 00 00 00 00
       1.0 0.0
0005a0 83 e3 42 7f df 5a 2d c0 ed c4 43 33 d5 77 f0 bf
       -14.677486397662284 -1.029256057980372
0005b0 00 e0 22 db 78 b9 88 bf 50 ec 4f 3d 41 23 c3 3f
       -0.012072509944445642 0.1495133923889136
0005c0 00 00 00 00 00 00 f0 3f 00 00 00 00 00 00 00 00
       1.0 0.0
0005d0 3b ac 79 dd 0d 61 2d c0 c6 8e 33 17 da 26 ec bf
       -14.68955890760673 -0.8797426655914584
0005e0 00 58 94 ab ca d8 83 3f c0 ed 1b 79 ee 28 c3 3f
       0.009690841065587819 0.14968663133173088
0005f0 00 00 00 00 00 00 f0 3f 00 00 00 00 00 00 00 00
       1.0 0.0
000600 25 c7 ce aa 17 5c 2d c0 56 93 ec 78 9e 5c e7 bf
       -14.679868066541141 -0.7300560342597275
000610 00 54 94 ab ca d8 83 3f c0 ed 1b 79 ee 28 c3 3f
       0.009690841065586042 0.14968663133173088
000620 00 00 00 00 00 00 f0 3f 00 00 00 00 00 00 00 00
       1.0 0.0
000630 10 e2 23 78 21 57 2d c0 e6 97 a5 da 62 92 e2 bf
       -14.670177225475555 -0.5803694029279967
000640 00 58 94 ab ca d8 83 3f c4 ed 1b 79 ee 28 c3 3f
       0.009690841065587819 0.149686631331731
000650 00 00 00 00 00 00 f0 3f 00 00 00 00 00 00 00 00
       1.0 0.0
000660 fa fc 78 45 2b 52 2d c0 ea 38 bd 78 4e 90 db bf
       -14.660486384409968 -0.43068277159626567
000670 00 54 94 ab ca d8 83 3f c0 ed 1b 79 ee 28 c3 3f
       0.009690841065586042 0.14968663133173088
000680 00 00 00 00 00 00 f0 3f 00 00 00 00 00 00 00 00
       1.0 0.0
000690 e5 17 ce 12 35 4d 2d c0 0a 42 2f 3c d7 fb d1 bf
       -14.650795543344381 -0.2809961402645348
0006a0 00 58 94 ab ca d8 83 3f c0 ed 1b 79 ee 28 c3 3f
       0.009690841065587819 0.14968663133173088
0006b0 00 00 00 00 00 00 f0 3f 00 00 00 00 00 00 00 00
       1.0 0.0
0006c0 cf 32 23 e0 3e 48 2d c0 54 96 42 ff bf ce c0 bf
       -14.641104702278794 -0.1313095089328039
0006d0 00 54 94 ab ca d8 83 3f c4 ed 1b 79 ee 28 c3 3f
       0.009690841065586042 0.149686631331731
0006e0 00 00 00 00 00 00 f0 3f 00 00 00 00 00 00 00 00
       1.0 0.0
0006f0 ba 4d 78 ad 48 43 2d c0 80 bb ca ce 73 d1 92 3f
       -14.631413861213208 0.01837712239892708
000700 00 be 59 c1 49 cf a0 3f ba f3 88 db 04 bc c2 3f
       0.032831482746470186 0.14636288375359446
000710 00 00 00 00 00 00 f0 3f 00 00 00 00 00 00 00 00
       1.0 0.0
000720 fc f3 b6 63 79 32 2d c0 2a 4b 62 55 33 16 c5 3f
       -14.598582378466737 0.16474000615252155
000730 00 be 59 c1 49 cf a0 3f ba f3 88 db 04 bc c2 3f
       0.032831482746470186 0.14636288375359446
000740 00 00 00 00 00 00 f0 3f 00 00 00 00 00 00 00 00
       1.0 0.0
000750 3e 9a f5 19 aa 21 2d c0 72 9f 75 18 1c e9 d3 3f
       -14.565750895720267 0.311102889906116
000760 00 be 59 c1 49 cf a0 3f ba f3 88 db 04 bc c2 3f
       0.032831482746470186 0.14636288375359446
000770 00 00 00 00 00 00 f0 3f 00 00 00 00 00 00 00 00
       1.0 0.0
000780 80 40 34 d0 da 10 2d c0 4f 19 3a 86 1e 47 dd 3f
       -14.532919412973797 0.4574657736597105
000790 00 bf 59 c1 49 cf a0 3f ba f3 88 db 04 bc c2 3f
       0.03283148274647196 0.14636288375359446
0007a0 00 00 00 00 00 00 f0 3f 00 00 00 00 00 00 00 00
       1.0 0.0
0007b0 c1 e6 72 86 0b 00 2d c0 96 49 ff 79 90 52 e3 3f
       -14.500087930227325 0.6038286574133049
0007c0 00 f8 09 4c 04 e2 7e 3f e0 6a b3 c2 a1 35 a1 3f
       0.0075397651531812215 0.03361230375022273
0007d0 00 00 00 00 00 00 00 00 00 00 00 00 00 00 f0 3f
       0.0 1.0
0007e0 26 52 fc 5a d5 82 2a c0 a7 e9 30 8b 9e fd bf 3f
       -13.255534022618189 0.12496367357463233
0007f0 00 a8 5b 31 0f 1d c3 bf f8 0b a4 26 17 20 8d bf
       -0.1493243208890931 -0.014221363894199243
