data/online/npz-train/b05/b05-452/b05-452z-05.npz (npz, 37554 bytes, 1 tensors)

x f8 [767, 6]
0	0xc037bcdac3c5329f	-23.737713084835033
1	0xbfec5c40dfbec736	-0.8862614030860871
2	0xbfaa037ee7a00000	-0.05080792024091352
3	0xbfc210a659bd5468	-0.14113311178030874
4	0x3ff0000000000000	1.0
5	0x0000000000000000	0.0
6	0xc037c9dc8339029f	-23.788521005075946
7	0xbff070353b170e28	-1.0273945148663959
8	0xbfb55a6cdf604700	-0.08341103032605801
9	0xbfbfea5eebd48ed0	-0.1246699643857554
10	0x3ff0000000000000	1.0
11	0x0000000000000000	0.0
12	0xc037df36f01862e6	-23.871932035402004
13	0xbff26edb29d45715	-1.1520644792521513
14	0xbfb55a6cdf604700	-0.08341103032605801
15	0xbfbfea5eebd48ed0	-0.1246699643857554
16	0x3ff0000000000000	1.0
17	0x0000000000000000	0.0
18	0xc037f4915cf7c32d	-23.955343065728062
19	0xbff46d811891a002	-1.2767344436379067
20	0xbfc30daf34049b00	-0.14885511436406063
21	0xbf92f0fd88c67ac0	-0.01849743029890294
22	0x3ff0000000000000	1.0
23	0x0000000000000000	0.0
24	0xc0381aacbb5fcc63	-24.104198180092123
25	0xbff4b9450eb4b9ed	-1.2952318739368096
26	0xbfc30daf34049a80	-0.14885511436405707
27	0xbf92f0fd88c67ac0	-0.01849743029890294
28	0x3ff0000000000000	1.0
29	0x0000000000000000	0.0
30	0xc03840c819c7d598	-24.25305329445618
31	0xbff5050904d7d3d8	-1.3137293042357125
32	0xbfc20f24c60e6500	-0.14108714743341721
33	0x3faa143506e9e980	0.05093541821857439
34	0x3ff0000000000000	1.0
35	0x0000000000000000	0.0
36	0xc03864e66353f262	-24.394140441889597
37	0xbff434675ca0848c	-1.2627938860171382
38	0xbfc20f24c60e6500	-0.14108714743341721
39	0x3faa143506e9e9a0	0.05093541821857461
40	0x3ff0000000000000	1.0
41	0x0000000000000000	0.0
42	0xc0388904ace00f2c	-24.535227589323014
43	0xbff363c5b469353f	-1.2118584677985635
44	0xbfc20f24c60e6500	-0.14108714743341721
45	0x3faa143506e9e980	0.05093541821857439
46	0x3ff0000000000000	1.0
47	0x0000000000000000	0.0
48	0xc038ad22f66c2bf6	-24.67631473675643
49	0xbff293240c31e5f3	-1.1609230495799892
50	0xbfb25608de6c4a00	-0.07162528448342442
51	0x3fc0dea54cf63ce8	0.13179460771468787
52	0x3ff0000000000000	1.0
53	0x0000000000000000	0.0
54	0xc038bf78ff4a9840	-24.747940021239856
55	0xbff0774f62931e56	-1.0291284418653013
56	0xbfb25608de6c4a00	-0.07162528448342442
57	0x3fc0dea54cf63ce4	0.13179460771468776
58	0x3ff0000000000000	1.0
59	0x0000000000000000	0.0
60	0xc038d1cf0829048a	-24.81956530572328
61	0xbfecb6f571e8ad73	-0.8973338341506135
62	0xbfb25608de6c4a00	-0.07162528448342442
63	0x3fc0dea54cf63ce4	0.13179460771468776
64	0x3ff0000000000000	1.0
65	0x0000000000000000	0.0
66	0xc038e425110770d4	-24.891190590206705
67	0xbfe87f4c1eab1e3a	-0.7655392264359258
68	0xbfa29b1948108000	-0.036339559599809945
69	0x3fc2a0c74014d118	0.14553156498880848
70	0x3ff0000000000000	1.0
71	0x0000000000000000	0.0
72	0xc038ed729dab7914	-24.927530149806515
73	0xbfe3d71a4ea5e9f4	-0.6200076614471173
74	0xbfa29b1948108000	-0.036339559599809945
75	0x3fc2a0c74014d11c	0.1455315649888086
76	0x3ff0000000000000	1.0
77	0x0000000000000000	0.0
78	0xc038f6c02a4f8154	-24.963869709406325
79	0xbfde5dd0fd416b5a	-0.4744760964583087
80	0xbf6dceb467d36000	-0.0036386035486479784
81	0x3fc331c0f1ae8320	0.14995586205352485
82	0x3ff0000000000000	1.0
83	0x0000000000000000	0.0
84	0xc038f7ae9ff2bfef	-24.967508312954973
85	0xbfd4c4f0846a29ca	-0.32452023440478384
86	0x3f90caf9fddb4c00	0.016399294013194066
87	0x3fc315bc9302b00a	0.1491008489441586
88	0x3ff0000000000000	1.0
89	0x0000000000000000	0.0
90	0xc038f37be173491c	-24.95110901894178
91	0xbfc6742475d1a38a	-0.17541938546062524
92	0x3f90caf9fddb4c00	0.016399294013194066
93	0x3fc315bc9302b00a	0.1491008489441586
94	0x3ff0000000000000	1.0
95	0x0000000000000000	0.0
96	0xc038ef4922f3d249	-24.934709724928585
97	0xbf9af33f16779c00	-0.02631853651646665
98	0x3faf86a3d2646400	0.06157409613860665
99	0x3fc181fd944999a6	0.13677949658012983
100	0x3ff0000000000000	1.0
101	0x0000000000000000	0.0
102	0xc038df85d10aa017	-24.873135628789978
103	0x3fbc472b62f54c4c	0.11046096006366318
104	0x3faf86a3d2646200	0.061574096138603096
105	0x3fc181fd944999a6	0.13677949658012983
106	0x3ff0000000000000	1.0
107	0x0000000000000000	0.0
108	0xc038cfc27f216de6	-24.811561532651375
109	0x3fcfa59345c43fcc	0.24724045664379302
110	0x3faf86a3d2646400	0.06157409613860665
111	0x3fc181fd944999a8	0.1367794965801299
112	0x3ff0000000000000	1.0
113	0x0000000000000000	0.0
114	0xc038bfff2d383bb4	-24.749987436512768
115	0x3fd893c86d06ecba	0.3840199532239229
116	0x3fc3086dfb054180	0.1486947513281045
117	0x3f9438128cdc7000	0.0197451494669707
118	0x3ff0000000000000	1.0
119	0x0000000000000000	0.0
120	0xc03899ee51423131	-24.601292685184664
121	0x3fd9d74995d4b3ba	0.4037651026908936
122	0x3fc3086dfb054180	0.1486947513281045
123	0x3f9438128cdc7010	0.019745149466970757
124	0x3ff0000000000000	1.0
125	0x0000000000000000	0.0
126	0xc03873dd754c26ae	-24.45259793385656
127	0x3fdb1acabea27abb	0.42351025215786436
128	0x3fc1b02963aaf200	0.13818852774228674
129	0xbfaddf29757095f0	-0.058343215547477345
130	0x3ff0000000000000	1.0
131	0x0000000000000000	0.0
132	0xc038507d2284d0ca	-24.314409406114272
133	0x3fd75ee58ff467fd	0.365167036610387
134	0x3fc1b02963aaf200	0.13818852774228674
135	0xbfaddf29757095e8	-0.05834321554747729
136	0x3ff0000000000000	1.0
137	0x0000000000000000	0.0
138	0xc0382d1ccfbd7ae6	-24.176220878371986
139	0x3fd3a30061465540	0.30682382106290973
140	0x3fb5113dd5e8ee00	0.08229433510216921
141	0xbfc00d6e7857a7cb	-0.12540989757627438
142	0x3ff0000000000000	1.0
143	0x0000000000000000	0.0
144	0xc038180b91e791f8	-24.093926543269816
145	0x3fc738924a3502b5	0.18141392348663535
146	0x3fb5113dd5e8ef00	0.08229433510217277
147	0xbfc00d6e7857a7cb	-0.12540989757627438
148	0x3ff0000000000000	1.0
149	0x0000000000000000	0.0
150	0xc03802fa5411a909	-24.011632208167644
151	0x3facac8f47756ba8	0.056004025910360966
152	0x3f9069c0a0da2400	0.016028413598665026
153	0xbfc3170ed9abe0e4	-0.1491411745880732
154	0x3ff0000000000000	1.0
155	0x0000000000000000	0.0
156	0xc037fedfe3e97280	-23.99560379456898
157	0xbfb7d7d60f9d0bf4	-0.09313714867771222
158	0x3f9069c0a0da2400	0.016028413598665026
159	0xbfc3170ed9abe0e4	-0.1491411745880732
160	0x3ff0000000000000	1.0
161	0x0000000000000000	0.0
162	0xc037fac573c13bf7	-23.979575380970314
163	0xbfcf02f9e17a66de	-0.2422783232657854
164	0xbfa8da92f2b3ba00	-0.048542587401119164
165	0xbfc22ab4214d30c0	-0.1419282114606002
166	0x3ff0000000000000	1.0
167	0x0000000000000000	0.0
168	0xc0380732bd3a95d4	-24.028117968371433
169	0xbfd896d70163cbcf	-0.3842065347263856
170	0xbfa8da92f2b3b800	-0.04854258740111561
171	0xbfc22ab4214d30c2	-0.14192821146060025
172	0x3ff0000000000000	1.0
173	0x0000000000000000	0.0
174	0xc03813a006b3efb0	-24.07666055577255
175	0xbfe0d61889053218	-0.5261347461869859
176	0xbfa8da92f2b3ba00	-0.048542587401119164
177	0xbfc22ab4214d30c0	-0.1419282114606002
178	0x3ff0000000000000	1.0
179	0x0000000000000000	0.0
180	0xc038200d502d498d	-24.125203143173668
181	0xbfe560c591587e48	-0.668062957647586
182	0xbfa8da92f2b3b800	-0.04854258740111561
183	0xbfc22ab4214d30c0	-0.1419282114606002
184	0x3ff0000000000000	1.0
185	0x0000000000000000	0.0
186	0xc0382c7a99a6a369	-24.173745730574783
187	0xbfe9eb7299abca78	-0.8099911691081862
188	0xbfa88cc141290400	-0.04794887466824349
189	0xbfc1f1d26e2a7cc8	-0.14019232157895645
190	0x0000000000000000	0.0
191	0x3ff0000000000000	1.0
192	0xc036d3151478eeac	-22.824540404819956
193	0xc000ce664de7f572	-2.1007810675061416
194	0xbfa8494a75f05800	-0.04743416490252628
195	0xbfc236f7d87441c0	-0.14230249470757705
196	0x3ff0000000000000	1.0
197	0x0000000000000000	0.0
198	0xc036df39b9b3e6d8	-22.871974569722482
199	0xc001f1d5cb6f398e	-2.2430835622137186
200	0xbfc08c71d2ffbb00	-0.12928602984126059
201	0xbfb378aaed225ca0	-0.07605999268922625
202	0x3ff0000000000000	1.0
203	0x0000000000000000	0.0
204	0xc03700529d59e64e	-23.001260599563743
205	0xc0028d9b22d84c73	-2.319143554902945
206	0xbfc329e4e9b2e980	-0.14971600924566175
207	0xbf82e50292077400	-0.009225864488081825
208	0x3ff0000000000000	1.0
209	0x0000000000000000	0.0
210	0xc03726a6672d4c21	-23.150976608809405
211	0xc002a080256a53e7	-2.3283694193910267
212	0xbfb905067eb45300	-0.09773293107384617
213	0x3fbd215f862511a0	0.11379048371333633
214	0x3ff0000000000000	1.0
215	0x0000000000000000	0.0
216	0xc0373fab6dac0074	-23.24870953988325
217	0xc001b77529392b5a	-2.2145789356776904
218	0xbfb0532ab64fe400	-0.06376902533510531
219	0x3fc160e9e1423340	0.13577006815867243
220	0x3ff0000000000000	1.0
221	0x0000000000000000	0.0
222	0xc0374ffe98625058	-23.312478565218356
223	0xc000a1668b250826	-2.078808867519018
224	0xbf8dcd02a4b70800	-0.014551182414724195
225	0x3fc31c049caaac08	0.14929254197826958
226	0x3ff0000000000000	1.0
227	0x0000000000000000	0.0
228	0xc03753b838b6e739	-23.32702974763308
229	0xbffedf4c82b4bacb	-1.9295163255407484
230	0xbf8dcd02a4b71000	-0.014551182414727748
231	0x3fc31c049caaac08	0.14929254197826958
232	0x3ff0000000000000	1.0
233	0x0000000000000000	0.0
234	0xc0375771d90b7e1b	-23.341580930047808
235	0xbffc7bcbef1f654a	-1.7802237835624788
236	0x3f7958e0e9c48000	0.0061882768316365855
237	0x3fc32f03f1d1a9e8	0.14987229640548994
238	0x3ff0000000000000	1.0
239	0x0000000000000000	0.0
240	0xc03755dc4afce1d3	-23.33539265321617
241	0xbffa15eb70e5300d	-1.6303514871569889
242	0x3f7958e0e9c47000	0.006188276831633033
243	0x3fc32f03f1d1a9e8	0.14987229640548994
244	0x3ff0000000000000	1.0
245	0x0000000000000000	0.0
246	0xc0375446bcee458c	-23.32920437638454
247	0xbff7b00af2aafad0	-1.480479190751499
248	0x3f7958e0e9c48000	0.0061882768316365855
249	0x3fc32f03f1d1a9e8	0.14987229640548994
250	0x3ff0000000000000	1.0
251	0x0000000000000000	0.0
252	0xc03752b12edfa944	-23.323016099552902
253	0xbff54a2a7470c593	-1.330606894346009
254	0x3f7958e0e9c48000	0.0061882768316365855
255	0x3fc32f03f1d1a9e8	0.14987229640548994
