data/online/npz-train/b01/b01-074/b01-074z-06.npz (npz, 36738 bytes, 1 tensors)

x f8 [750, 6]
-30.764887599680918 -1.876208280673908 0.04157409769532805 0.14412353867713423 1.0 0.0 -30.72331350198559 -1.7320847419967738
0.0415740976953245 0.14412353867713423 1.0 0.0 -30.681739404290266 -1.5879612033196395 0.04157409769532805 0.14412353867713423
1.0 0.0 -30.640165306594938 -1.4438376646425053 0.04157409769532805 0.144123538677134 1.0 0.0
-30.59859120889961 -1.2997141259653713 0.029807102610057257 0.14700862775358958 1.0 0.0 -30.568784106289552 -1.1527054982117817
0.02980710261006081 0.14700862775358958 1.0 0.0 -30.53897700367949 -1.0056968704581921 0.029807102610057257 0.14700862775358947
1.0 0.0 -30.509169901069434 -0.8586882427046026 0.029807102610057257 0.14700862775358947 1.0 0.0
-30.479362798459377 -0.7116796149510132 0.029807102610057257 0.14700862775358947 1.0 0.0 -30.44955569584932 -0.5646709871974237
0.02980710261006081 0.1470086277535897 1.0 0.0 -30.41974859323926 -0.417662359443834 0.029807102610057257 0.14700862775358958
1.0 0.0 -30.3899414906292 -0.2706537316902444 0.05256523382779932 0.1404880642354672 1.0 0.0
-30.337376256801402 -0.13016566745477723 0.041278685229276135 -0.14420842605667114 1.0 0.0 -30.296097571572126 -0.27437409351144837
0.041278685229276135 -0.14420842605667117 1.0 0.0 -30.25481888634285 -0.41858251956811954 0.041278685229276135 -0.14420842605667106
1.0 0.0 -30.213540201113574 -0.5627909456247906 0.04127868522927258 -0.14420842605667117 1.0 0.0
-30.1722615158843 -0.7069993716814618 0.041278685229276135 -0.14420842605667117 1.0 0.0 -30.130982830655025 -0.8512077977381329
0.041278685229276135 -0.14420842605667106 1.0 0.0 -30.08970414542575 -0.995416223794804 0.056244404354249156 -0.13905598505219297
1.0 0.0 -30.0334597410715 -1.134472208846997 0.056244404354249156 -0.13905598505219308 1.0 0.0
-29.97721533671725 -1.27352819389919 0.08811863412233123 -0.12138824622019495 1.0 0.0 -29.88909670259492 -1.394916440119385
0.08811863412233123 -0.12138824622019495 1.0 0.0 -29.80097806847259 -1.51630468633958 0.08811863412233123 -0.12138824622019495
1.0 0.0 -29.712859434350257 -1.6376929325597749 0.14579734083339702 -0.0352581253884936 1.0 0.0
-29.56706209351686 -1.6729510579482685 0.09459480901559303 0.11641229362616201 1.0 0.0 -29.472467284501267 -1.5565387643221065
0.03429565129398071 0.1460267383129603 1.0 0.0 -29.438171633207286 -1.4105120260091462 0.03429565129397716 0.1460267383129601
1.0 0.0 -29.40387598191331 -1.264485287696186 0.008735050017754986 0.14974544701321424 1.0 0.0
-29.395140931895554 -1.1147398406829718 0.008735050017754986 0.14974544701321402 1.0 0.0 -29.3864058818778 -0.9649943936697578
0.008735050017751433 0.14974544701321413 1.0 0.0 -29.377670831860048 -0.8152489466565437 0.002069559804390053 0.14998572239455343
1.0 0.0 -29.375601272055658 -0.6652632242619902 0.002069559804390053 0.14998572239455343 1.0 0.0
-29.373531712251268 -0.5152775018674368 -0.007894476699622288 0.1497921134026725 1.0 0.0 -29.38142618895089 -0.3654853884647643
0.0930097175805571 -0.11768259189695307 1.0 0.0 -29.288416471370333 -0.4831679803617174 0.06150302301218957 -0.1368114694035627
1.0 0.0 -29.226913448358143 -0.6199794497652801 0.061503023012193125 -0.1368114694035626 1.0 0.0
-29.16541042534595 -0.7567909191688427 0.06150302301218957 -0.1368114694035627 1.0 0.0 -29.10390740233376 -0.8936023885724054
0.08056322431912122 -0.12652891719803372 1.0 0.0 -29.02334417801464 -1.020131305770439 0.08056322431912122 -0.12652891719803372
1.0 0.0 -28.942780953695518 -1.1466602229684728 0.08056322431912122 -0.12652891719803372 1.0 0.0
-28.862217729376397 -1.2731891401665065 0.08056322431912477 -0.12652891719803372 1.0 0.0 -28.781654505057272 -1.3997180573645402
0.08056322431912122 -0.1265289171980335 1.0 0.0 -28.70109128073815 -1.5262469745625737 0.08056322431912122 -0.12652891719803394
00000000: d8be 79ac cfc3 3ec0 43a9 5ff9 f204 febf
00000010: 009e ec3b 3349 a53f d8dd 99de a372 c23f
00000020: 0000 0000 0000 f03f 0000 0000 0000 0000
00000030: 89c8 db12 2bb9 3ec0 886d 8c7d 9eb6 fbbf
00000040: 009c ec3b 3349 a53f d8dd 99de a372 c23f
00000050: 0000 0000 0000 f03f 0000 0000 0000 0000
00000060: 3bd2 3d79 86ae 3ec0 cd31 b901 4a68 f9bf
00000070: 009e ec3b 3349 a53f d8dd 99de a372 c23f
00000080: 0000 0000 0000 f03f 0000 0000 0000 0000
00000090: ecdb 9fdf e1a3 3ec0 12f6 e585 f519 f7bf
000000a0: 009e ec3b 3349 a53f d0dd 99de a372 c23f
000000b0: 0000 0000 0000 f03f 0000 0000 0000 0000
000000c0: 9de5 0146 3d99 3ec0 58ba 120a a1cb f4bf
000000d0: 0048 98cb c085 9e3f 903b 37c0 2dd1 c23f
000000e0: 0000 0000 0000 f03f 0000 0000 0000 0000
000000f0: 8bff ced5 9b91 3ec0 e6d2 0b52 7b71 f2bf
00000100: 004c 98cb c085 9e3f 903b 37c0 2dd1 c23f
00000110: 0000 0000 0000 f03f 0000 0000 0000 0000
00000120: 7819 9c65 fa89 3ec0 74eb 049a 5517 f0bf
00000130: 0048 98cb c085 9e3f 8c3b 37c0 2dd1 c23f
00000140: 0000 0000 0000 f03f 0000 0000 0000 0000
00000150: 6633 69f5 5882 3ec0 0508 fcc3 5f7a ebbf
00000160: 0048 98cb c085 9e3f 8c3b 37c0 2dd1 c23f
00000170: 0000 0000 0000 f03f 0000 0000 0000 0000
00000180: 544d 3685 b77a 3ec0 2239 ee53 14c6 e6bf
00000190: 0048 98cb c085 9e3f 8c3b 37c0 2dd1 c23f
000001a0: 0000 0000 0000 f03f 0000 0000 0000 0000
000001b0: 4267 0315 1673 3ec0 3f6a e0e3 c811 e2bf
000001c0: 004c 98cb c085 9e3f 943b 37c0 2dd1 c23f
000001d0: 0000 0000 0000 f03f 0000 0000 0000 0000
000001e0: 2f81 d0a4 746b 3ec0 b436 a5e7 faba dabf
000001f0: 0048 98cb c085 9e3f 903b 37c0 2dd1 c23f
00000200: 0000 0000 0000 f03f 0000 0000 0000 0000
00000210: 1d9b 9d34 d363 3ec0 ec98 8907 6452 d1bf
00000220: 00dc 6490 d4e9 aa3f a351 af4c 83fb c13f
00000230: 0000 0000 0000 f03f 0000 0000 0000 0000
00000240: af68 554a 5e56 3ec0 35e0 63c2 44a9 c0bf
00000250: 00ca 29d6 7a22 a53f ef4a dcf4 6b75 c2bf
00000260: 0000 0000 0000 f03f 0000 0000 0000 0000
00000270: ca53 ea0c cd4b 3ec0 9215 a05b 588f d1bf
00000280: 00ca 29d6 7a22 a53f f04a dcf4 6b75 c2bf
00000290: 0000 0000 0000 f03f 0000 0000 0000 0000
000002a0: e53e 7fcf 3b41 3ec0 0a3b 0e56 0eca dabf
000002b0: 00ca 29d6 7a22 a53f ec4a dcf4 6b75 c2bf
000002c0: 0000 0000 0000 f03f 0000 0000 0000 0000
000002d0: 002a 1492 aa36 3ec0 4030 3e28 6202 e2bf
000002e0: 00c8 29d6 7a22 a53f f04a dcf4 6b75 c2bf
000002f0: 0000 0000 0000 f03f 0000 0000 0000 0000
00000300: 1c15 a954 192c 3ec0 fc42 7525 bd9f e6bf
00000310: 00ca 29d6 7a22 a53f f04a dcf4 6b75 c2bf
00000320: 0000 0000 0000 f03f 0000 0000 0000 0000
00000330: 3700 3e17 8821 3ec0 b855 ac22 183d ebbf
00000340: 00ca 29d6 7a22 a53f ec4a dcf4 6b75 c2bf
00000350: 0000 0000 0000 f03f 0000 0000 0000 0000
00000360: 52eb d2d9 f616 3ec0 7368 e31f 73da efbf
00000370: 00aa 910a 11cc ac3f ac5d 0e26 96cc c1bf
00000380: 0000 0000 0000 f03f 0000 0000 0000 0000
00000390: 7da2 4dd1 9008 3ec0 ef7f b354 cc26 f2bf
000003a0: 00aa 910a 11cc ac3f b05d 0e26 96cc c1bf
000003b0: 0000 0000 0000 f03f 0000 0000 0000 0000
000003c0: a859 c8c8 2afa 3dc0 a54b 7519 5f60 f4bf
000003d0: 003e b95b f18e b63f c070 a2d3 4c13 bfbf
000003e0: 0000 0000 0000 f03f 0000 0000 0000 0000
000003f0: 6aa0 6cd7 9be3 3dc0 b172 afe6 9351 f6bf
00000400: 003e b95b f18e b63f c070 a2d3 4c13 bfbf
00000410: 0000 0000 0000 f03f 0000 0000 0000 0000
00000420: 2ce7 10e6 0ccd 3dc0 bd99 e9b3 c842 f8bf
00000430: 003e b95b f18e b63f c070 a2d3 4c13 bfbf
00000440: 0000 0000 0000 f03f 0000 0000 0000 0000
00000450: ee2d b5f4 7db6 3dc0 c9c0 2381 fd33 fabf
00000460: 0092 5cbd 7ca9 c23f 4077 ec5e 5a0d a2bf
00000470: 0000 0000 0000 f03f 0000 0000 0000 0000
00000480: ca74 3afb 2a91 3dc0 8324 1b54 68c4 fabf
00000490: 00e5 178b 5d37 b83f 000a fa31 32cd bd3f
000004a0: 0000 0000 0000 f03f 0000 0000 0000 0000
000004b0: e55c af9d f378 3dc0 e383 fb30 95e7 f8bf
000004c0: 00c4 6719 338f a13f c8a6 b210 01b1 c23f
000004d0: 0000 0000 0000 f03f 0000 0000 0000 0000
000004e0: 03a9 2204 2c70 3dc0 0a2f e50e 7591 f6bf
000004f0: 00c2 6719 338f a13f c0a6 b210 01b1 c23f
00000500: 0000 0000 0000 f03f 0000 0000 0000 0000
00000510: 22f5 956a 6467 3dc0 32da ceec 543b f4bf
00000520: 00d0 3d91 aee3 813f a0c5 d2da db2a c33f
00000530: 0000 0000 0000 f03f 0000 0000 0000 0000
00000540: 68cd c3f4 2765 3dc0 7e81 7471 f9d5 f1bf
00000550: 00d0 3d91 aee3 813f 98c5 d2da db2a c33f
00000560: 0000 0000 0000 f03f 0000 0000 0000 0000
00000570: aea5 f17e eb62 3dc0 9651 34ec 3be1 eebf
00000580: 00c8 3d91 aee3 813f 9cc5 d2da db2a c33f
00000590: 0000 0000 0000 f03f 0000 0000 0000 0000
000005a0: f57d 1f09 af60 3dc0 2fa0 7ff5 8416 eabf
000005b0: 00c0 a975 2ef4 603f ec98 466e bb32 c33f
000005c0: 0000 0000 0000 f03f 0000 0000 0000 0000
000005d0: a7d0 ab67 2760 3dc0 f4f9 ed19 d649 e5bf
000005e0: 00c0 a975 2ef4 603f ec98 466e bb32 c33f
000005f0: 0000 0000 0000 f03f 0000 0000 0000 0000
00000600: 5923 38c6 9f5f 3dc0 b953 5c3e 277d e0bf
00000610: 0088 f3b9 fa2a 80bf 98b0 2152 632c c33f
00000620: 0000 0000 0000 f03f 0000 0000 0000 0000
00000630: ca61 8f25 a561 3dc0 26cf a7d3 1c64 d7bf
00000640: 00fc 371f 7ccf b73f 8084 8143 7220 bebf
00000650: 0000 0000 0000 f03f 0000 0000 0000 0000
00000660: ce29 70a9 d549 3dc0 4630 8864 39ec debf
00000670: 008e e200 537d af3f 382b 67c9 0983 c1bf
00000680: 0000 0000 0000 f03f 0000 0000 0000 0000
00000690: 87b8 efff 163a 3dc0 f1e2 9d24 dfd6 e3bf
000006a0: 0090 e200 537d af3f 342b 67c9 0983 c1bf
000006b0: 0000 0000 0000 f03f 0000 0000 0000 0000
000006c0: 3f47 6f56 582a 3dc0 bead f796 a137 e8bf
000006d0: 008e e200 537d af3f 382b 67c9 0983 c1bf
000006e0: 0000 0000 0000 f03f 0000 0000 0000 0000
000006f0: f8d5 eeac 991a 3dc0 8c78 5109 6498 ecbf
00000700: 0000 b69d ca9f b43f 8892 ae7c 1932 c0bf
00000710: 0000 0000 0000 f03f 0000 0000 0000 0000
00000720: f81f 51e2 f905 3dc0 978e 3e34 7552 f0bf
00000730: 0000 b69d ca9f b43f 8892 ae7c 1932 c0bf
00000740: 0000 0000 0000 f03f 0000 0000 0000 0000
00000750: f869 b317 5af1 3cc0 e860 d463 b858 f2bf
00000760: 0000 b69d ca9f b43f 8892 ae7c 1932 c0bf
00000770: 0000 0000 0000 f03f 0000 0000 0000 0000
00000780: f8b3 154d badc 3cc0 3933 6a93 fb5e f4bf
00000790: 0001 b69d ca9f b43f 8892 ae7c 1932 c0bf
000007a0: 0000 0000 0000 f03f 0000 0000 0000 0000
000007b0: f7fd 7782 1ac8 3cc0 8a05 00c3 3e65 f6bf
000007c0: 0000 b69d ca9f b43f 8092 ae7c 1932 c0bf
000007d0: 0000 0000 0000 f03f 0000 0000 0000 0000
000007e0: f747 dab7 7ab3 3cc0 dad7 95f2 816b f8bf
000007f0: 0000 b69d ca9f b43f 9092 ae7c 1932 c0bf
