data/online/npz-train/b10/b10-748/b10-748z-03.npz (npz, 30714 bytes, 1 tensors)

x f8 [625, 6]
00000000: 2ca3 9721 b414 37c0 2005 637b 32b4 bbbf
00000010: 0060 388f 58b6 97bf 66e5 f9d8 46f8 c23f
00000020: 0000 0000 0000 f03f 0000 0000 0000 0000
00000030: 4471 bbb7 a11a 37c0 588b 216d b678 a43f
00000040: 009c cc74 63cd 903f 880d 2815 b415 c33f
00000050: 0000 0000 0000 f03f 0000 0000 0000 0000
00000060: 1d3e de5e 6e16 37c0 5e70 70b0 e133 c83f
00000070: 0098 cc74 63cd 903f 880d 2815 b415 c33f
00000080: 0000 0000 0000 f03f 0000 0000 0000 0000
00000090: f70a 0106 3b12 37c0 f33e cce2 caa4 d53f
000000a0: 009c cc74 63cd 903f 860d 2815 b415 c33f
000000b0: 0000 0000 0000 f03f 0000 0000 0000 0000
000000c0: d0d7 23ad 070e 37c0 b645 60ed a42f df3f
000000d0: 009c cc74 63cd 903f 8c0d 2815 b415 c33f
000000e0: 0000 0000 0000 f03f 0000 0000 0000 0000
000000f0: a9a4 4654 d409 37c0 3e26 fa7b 3f5d e43f
00000100: 0098 cc74 63cd 903f 800d 2815 b415 c33f
00000110: 0000 0000 0000 f03f 0000 0000 0000 0000
00000120: 8371 69fb a005 37c0 9e29 4481 ac22 e93f
00000130: 009c cc74 63cd 903f 880d 2815 b415 c33f
00000140: 0000 0000 0000 f03f 0000 0000 0000 0000
00000150: 5c3e 8ca2 6d01 37c0 002d 8e86 19e8 ed3f
00000160: 0098 cc74 63cd 903f 900d 2815 b415 c33f
00000170: 0000 0000 0000 f03f 0000 0000 0000 0000
00000180: 360b af49 3afd 36c0 3218 ec45 c356 f13f
00000190: 009c cc74 63cd 903f 880d 2815 b415 c33f
000001a0: 0000 0000 0000 f03f 0000 0000 0000 0000
000001b0: 0fd8 d1f0 06f9 36c0 e319 91c8 79b9 f33f
000001c0: 0020 3f14 1d99 6e3f 48c1 b709 ad31 c33f
000001d0: 0000 0000 0000 f03f 0000 0000 0000 0000
000001e0: 1636 e927 12f8 36c0 0c12 c869 af1f f63f
000001f0: 0020 3f14 1d99 6e3f 50c1 b709 ad31 c33f
00000200: 0000 0000 0000 f03f 0000 0000 0000 0000
00000210: 1d94 005f 1df7 36c0 360a ff0a e585 f83f
00000220: 0020 3f14 1d99 6e3f 48c1 b709 ad31 c33f
00000230: 0000 0000 0000 f03f 0000 0000 0000 0000
00000240: 24f2 1796 28f6 36c0 5f02 36ac 1aec fa3f
00000250: 0000 be71 45f3 50bf 500c 7545 1533 c33f
00000260: 0000 0000 0000 f03f 0000 0000 0000 0000
00000270: 1cb9 2d63 6cf6 36c0 e9a3 e454 7d52 fd3f
00000280: 00c0 bd71 45f3 50bf 480c 7545 1533 c33f
00000290: 0000 0000 0000 f03f 0000 0000 0000 0000
000002a0: 1380 4330 b0f6 36c0 7245 93fd dfb8 ff3f
000002b0: 0000 be71 45f3 50bf 500c 7545 1533 c33f
000002c0: 0000 0000 0000 f03f 0000 0000 0000 0000
000002d0: 0b47 59fd f3f6 36c0 7ef3 2053 a10f 0140
000002e0: 00c0 bd71 45f3 50bf 500c 7545 1533 c33f
000002f0: 0000 0000 0000 f03f 0000 0000 0000 0000
00000300: 020e 6fca 37f7 36c0 4344 78a7 d242 0240
00000310: 00a0 28d2 5884 84bf 40ef f4c0 3928 c33f
00000320: 0000 0000 0000 f03f 0000 0000 0000 0000
00000330: 1653 8955 c8f9 36c0 3793 8743 5675 0340
00000340: 0098 28d2 5884 84bf 40ef f4c0 3928 c33f
00000350: 0000 0000 0000 f03f 0000 0000 0000 0000
00000360: 2998 a3e0 58fc 36c0 2be2 96df d9a7 0440
00000370: 00a0 28d2 5884 84bf 50ef f4c0 3928 c33f
00000380: 0000 0000 0000 f03f 0000 0000 0000 0000
00000390: 3ddd bd6b e9fe 36c0 2031 a67b 5dda 0540
000003a0: 0098 28d2 5884 84bf 40ef f4c0 3928 c33f
000003b0: 0000 0000 0000 f03f 0000 0000 0000 0000
000003c0: 5022 d8f6 7901 37c0 1480 b517 e10c 0740
000003d0: 00a0 28d2 5884 84bf 40ef f4c0 3928 c33f
000003e0: 0000 0000 0000 f03f 0000 0000 0000 0000
000003f0: 6467 f281 0a04 37c0 08cf c4b3 643f 0840
00000400: 0098 28d2 5884 84bf 40ef f4c0 3928 c33f
00000410: 0000 0000 0000 f03f 0000 0000 0000 0000
00000420: 77ac 0c0d 9b06 37c0 fc1d d44f e871 0940
00000430: 00a0 28d2 5884 84bf 40ef f4c0 3928 c33f
00000440: 0000 0000 0000 f03f 0000 0000 0000 0000
00000450: 8bf1 2698 2b09 37c0 f06c e3eb 6ba4 0a40
00000460: 0098 28d2 5884 84bf 40ef f4c0 3928 c33f
00000470: 0000 0000 0000 f03f 0000 0000 0000 0000
00000480: 9e36 4123 bc0b 37c0 e4bb f287 efd6 0b40
00000490: 00a0 28d2 5884 84bf 40ef f4c0 3928 c33f
000004a0: 0000 0000 0000 f03f 0000 0000 0000 0000
000004b0: b27b 5bae 4c0e 37c0 d80a 0224 7309 0d40
000004c0: 0098 28d2 5884 84bf 40ef f4c0 3928 c33f
000004d0: 0000 0000 0000 f03f 0000 0000 0000 0000
000004e0: c5c0 7539 dd10 37c0 cc59 11c0 f63b 0e40
000004f0: 00a0 28d2 5884 84bf 40ef f4c0 3928 c33f
00000500: 0000 0000 0000 f03f 0000 0000 0000 0000
00000510: d905 90c4 6d13 37c0 c0a8 205c 7a6e 0f40
00000520: 0030 d579 d065 74bf 009d 4578 b70b b33f
00000530: 0000 0000 0000 0000 0000 0000 0000 f03f
00000540: 9aad 1eb6 4821 37c0 465c 232c bbf5 e53f
00000550: 0017 a422 854e bc3f 706a 16b5 a4f2 b9bf
00000560: 0000 0000 0000 f03f 0000 0000 0000 0000
00000570: 8309 fc30 fa04 37c0 f88e 8095 66b7 e23f
00000580: 0017 a422 854e bc3f 746a 16b5 a4f2 b9bf
00000590: 0000 0000 0000 f03f 0000 0000 0000 0000
000005a0: 6c65 d9ab abe8 36c0 5383 bbfd 23f2 de3f
000005b0: 0017 a422 854e bc3f 746a 16b5 a4f2 b9bf
000005c0: 0000 0000 0000 f03f 0000 0000 0000 0000
000005d0: 55c1 b626 5dcc 36c0 b6e8 75d0 7a75 d83f
000005e0: 802d d128 21fe c03f 1029 cd61 45e0 b1bf
000005f0: 0000 0000 0000 f03f 0000 0000 0000 0000
00000600: fa1e 65e4 60aa 36c0 729e 0278 69fd d33f
00000610: 002e d128 21fe c03f 1429 cd61 45e0 b1bf
00000620: 0000 0000 0000 f03f 0000 0000 0000 0000
00000630: 9e7c 13a2 6488 36c0 5aa8 1e3f b00a cf3f
00000640: 802d d128 21fe c03f 1229 cd61 45e0 b1bf
00000650: 0000 0000 0000 f03f 0000 0000 0000 0000
00000660: 43da c15f 6866 36c0 d113 388e 8d1a c63f
00000670: 0005 d5ec 84ed c23f d034 a8e2 9ec5 99bf
00000680: 0000 0000 0000 f03f 0000 0000 0000 0000
00000690: 3930 e855 8d40 36c0 370d e3b1 d9e1 c23f
000006a0: 0005 d5ec 84ed c23f d434 a8e2 9ec5 99bf
000006b0: 0000 0000 0000 f03f 0000 0000 0000 0000
000006c0: 2f86 0e4c b21a 36c0 390d 1cab 4b52 bf3f
000006d0: 001d 14eb 1bc8 bf3f 8f7d 0c59 4a8d b53f
000006e0: 0000 0000 0000 f03f 0000 0000 0000 0000
000006f0: 1272 2330 eafa 35c0 6445 1402 cb6f ca3f
00000700: 001c 14eb 1bc8 bf3f 907d 0c59 4a8d b53f
00000710: 0000 0000 0000 f03f 0000 0000 0000 0000
00000720: f65d 3814 22db 35c0 1642 4d17 389b d23f
00000730: 001d 14eb 1bc8 bf3f 8c7d 0c59 4a8d b53f
00000740: 0000 0000 0000 f03f 0000 0000 0000 0000
00000750: d949 4df8 59bb 35c0 7961 90ad 8afe d73f
00000760: 008c 8aae 7766 b93f 4c96 d60b 90cc bc3f
00000770: 0000 0000 0000 f03f 0000 0000 0000 0000
00000780: 4dbf 9e80 f3a1 35c0 0c07 86b0 ae31 df3f
00000790: 008d 8aae 7766 b93f 5096 d60b 90cc bc3f
000007a0: 0000 0000 0000 f03f 0000 0000 0000 0000
000007b0: c034 f008 8d88 35c0 50d6 bd59 6932 e33f
000007c0: 00e3 35a8 8d13 b33f a077 67d7 c8a9 c03f
000007d0: 0000 0000 0000 f03f 0000 0000 0000 0000
000007e0: ddfe 477b 7975 35c0 38b4 978f db5c e73f
000007f0: 00e3 35a8 8d13 b33f a077 67d7 c8a9 c03f
-23.08087358429036 -0.10821834099171612 -0.02315653204104251 0.14820180506266495 1.0 0.0 -23.1040301163314 0.039983464070948826
0.016408494953022768 0.1490998366644869 1.0 0.0 -23.08762162137838 0.18908330073543572 0.016408494953019215 0.1490998366644869
1.0 0.0 -23.07121312642536 0.3381831373999226 0.016408494953022768 0.14909983666448684 1.0 0.0
-23.054804631472336 0.48728297406440946 0.016408494953022768 0.149099836664487 1.0 0.0 -23.038396136519314 0.6363828107288965
0.016408494953019215 0.14909983666448667 1.0 0.0 -23.021987641566295 0.7854826473933831 0.016408494953022768 0.1490998366644869
1.0 0.0 -23.00557914661327 0.93458248405787 0.016408494953019215 0.14909983666448712 1.0 0.0
-22.989170651660253 1.0836823207223572 0.016408494953022768 0.1490998366644869 1.0 0.0 -22.97276215670723 1.232782157386844
0.0037351196242276785 0.14995348906041728 1.0 0.0 -22.969027037083002 1.3827356464472613 0.0037351196242276785 0.1499534890604175
1.0 0.0 -22.965291917458774 1.5326891355076788 0.0037351196242276785 0.14995348906041728 1.0 0.0
-22.961556797834547 1.682642624568096 -0.0010345628897709958 0.14999643222299364 1.0 0.0 -22.962591360724318 1.8326390567910897
-0.001034562889767443 0.14999643222299341 1.0 0.0 -22.963625923614085 1.9826354890140832 -0.0010345628897709958 0.14999643222299364
1.0 0.0 -22.964660486503856 2.132631921237077 -0.001034562889767443 0.14999643222299364 1.0 0.0
-22.965695049393624 2.2826283534600704 -0.010018056787046703 0.14966508790700495 1.0 0.0 -22.97571310618067 2.4322934413670754
-0.01001805678704315 0.14966508790700495 1.0 0.0 -22.985731162967713 2.5819585292740803 -0.010018056787046703 0.1496650879070054
1.0 0.0 -22.99574921975476 2.7316236171810857 -0.01001805678704315 0.14966508790700495 1.0 0.0
-23.005767276541803 2.8812887050880907 -0.010018056787046703 0.14966508790700495 1.0 0.0 -23.01578533332885 3.0309537929950956
-0.01001805678704315 0.14966508790700495 1.0 0.0 -23.025803390115893 3.1806188809021005 -0.010018056787046703 0.14966508790700495
1.0 0.0 -23.03582144690294 3.3302839688091055 -0.01001805678704315 0.14966508790700495 1.0 0.0
-23.045839503689983 3.4799490567161104 -0.010018056787046703 0.14966508790700495 1.0 0.0 -23.05585756047703 3.6296141446231154
-0.01001805678704315 0.14966508790700495 1.0 0.0 -23.065875617264073 3.7792792325301203 -0.010018056787046703 0.14966508790700495
1.0 0.0 -23.07589367405112 3.9289443204371253 -0.00497991023923916 0.07439753233267155 0.0 1.0
-23.130015738000658 0.6862464773247516 0.11057312103011085 -0.10135869427760169 1.0 0.0 -23.019442616970547 0.58488778304715
0.11057312103011085 -0.10135869427760175 1.0 0.0 -22.908869495940436 0.4835290887695482 0.11057312103011085 -0.10135869427760175
1.0 0.0 -22.798296374910326 0.38217039449194645 0.13275541775724875 -0.06982835424165423 1.0 0.0
-22.665540957153077 0.3123420402502922 0.1327554177572523 -0.06982835424165429 1.0 0.0 -22.532785539395825 0.24251368600863793
0.13275541775724875 -0.06982835424165426 1.0 0.0 -22.400030121638576 0.17268533176698367 0.14787351192538978 -0.025167925437973804
1.0 0.0 -22.252156609713186 0.14751740632900986 0.14787351192538978 -0.025167925437973818 1.0 0.0
-22.104283097787796 0.12234948089103605 0.12414717187140312 0.08418717073481317 1.0 0.0 -21.980135925916393 0.20653665162584922
0.12414717187139956 0.08418717073481319 1.0 0.0 -21.855988754044994 0.2907238223606624 0.12414717187140312 0.08418717073481313
1.0 0.0 -21.73184158217359 0.37491099309547554 0.09921978007564292 0.11249637879390056 1.0 0.0
-21.632621802097947 0.4874073718893761 0.09921978007564647 0.11249637879390062 1.0 0.0 -21.5334020220223 0.5999037506832767
0.07451711041165865 0.13018141286641782 1.0 0.0 -21.458884911610642 0.7300851635496945 0.07451711041165865 0.13018141286641782
