data/online/npz-eval/b06/b06-502/b06-502z-07.npz (npz, 20002 bytes, 1 tensors)

x f8 [401, 6]
00000000: 028b fa05 ea58 2fc0 587b 1bad ddb9 ef3f
00000010: 0024 7682 0af8 9b3f a0bf 0f18 07e1 c23f
00000020: 0000 0000 0000 f03f 0000 0000 0000 0000
00000030: f04f b900 ee4a 2fc0 a0b5 8fb9 0f39 f23f
00000040: 0026 7682 0af8 9b3f 98bf 0f18 07e1 c23f
00000050: 0000 0000 0000 f03f 0000 0000 0000 0000
00000060: dd14 78fb f13c 2fc0 93ad 919c 3095 f43f
00000070: 0026 7682 0af8 9b3f a0bf 0f18 07e1 c23f
00000080: 0000 0000 0000 f03f 0000 0000 0000 0000
00000090: cad9 36f6 f52e 2fc0 87a5 937f 51f1 f63f
000000a0: 00b8 1680 98d3 853f 8878 c131 c726 c33f
000000b0: 0000 0000 0000 f03f 0000 0000 0000 0000
000000c0: 1cd4 1610 8129 2fc0 98d4 cb65 2a56 f93f
000000d0: 00b4 1680 98d3 853f 9078 c131 c726 c33f
000000e0: 0000 0000 0000 f03f 0000 0000 0000 0000
000000f0: 6fce f629 0c24 2fc0 aa03 044c 03bb fb3f
00000100: 00b8 1680 98d3 853f 8878 c131 c726 c33f
00000110: 0000 0000 0000 f03f 0000 0000 0000 0000
00000120: c1c8 d643 971e 2fc0 bb32 3c32 dc1f fe3f
00000130: 00b8 1680 98d3 853f 8878 c131 c726 c33f
00000140: 0000 0000 0000 f03f 0000 0000 0000 0000
00000150: 13c3 b65d 2219 2fc0 e630 3a8c 5a42 0040
00000160: 00df 206f 7d71 a13f 70a4 a612 beb2 c23f
00000170: 0000 0000 0000 f03f 0000 0000 0000 0000
00000180: 34a2 47e0 b007 2fc0 2d9b 646d 866d 0140
00000190: 00a0 fe43 3ae3 9e3f 1028 ce94 0a8e c03f
000001a0: 0000 0000 0000 0000 0000 0000 0000 f03f
000001b0: be80 9bcf 697f 2ec0 e98d 375c 449e f03f
000001c0: 009a b1e2 9323 933f 587b 88fa e40c c33f
000001d0: 0000 0000 0000 f03f 0000 0000 0000 0000
000001e0: f127 aa05 d875 2ec0 549d 88fb e0ff f23f
000001f0: 009a b1e2 9323 933f 507b 88fa e40c c33f
00000200: 0000 0000 0000 f03f 0000 0000 0000 0000
00000210: 24cf b83b 466c 2ec0 beac d99a 7d61 f53f
00000220: 0098 b1e2 9323 933f 607b 88fa e40c c33f
00000230: 0000 0000 0000 f03f 0000 0000 0000 0000
00000240: 5876 c771 b462 2ec0 2abc 2a3a 1ac3 f73f
00000250: 009a b1e2 9323 933f 507b 88fa e40c c33f
00000260: 0000 0000 0000 f03f 0000 0000 0000 0000
00000270: 8b1d d6a7 2259 2ec0 94cb 7bd9 b624 fa3f
00000280: 009a b1e2 9323 933f 507b 88fa e40c c33f
00000290: 0000 0000 0000 f03f 0000 0000 0000 0000
000002a0: bec4 e4dd 904f 2ec0 feda cc78 5386 fc3f
000002b0: 009a b1e2 9323 933f 607b 88fa e40c c33f
000002c0: 0000 0000 0000 f03f 0000 0000 0000 0000
000002d0: f16b f313 ff45 2ec0 6aea 1d18 f0e7 fe3f
000002e0: 0098 b1e2 9323 933f 507b 88fa e40c c33f
000002f0: 0000 0000 0000 f03f 0000 0000 0000 0000
00000300: 2513 024a 6d3c 2ec0 ea7c b75b c6a4 0040
00000310: 00f4 0119 320e 863f 400d 694f 0ef4 b53f
00000320: 0000 0000 0000 0000 0000 0000 0000 f03f
00000330: 263f cac5 c815 2fc0 8515 a1bd 29eb f73f
00000340: 80ef 6b72 0df7 c23f c0dd 7aab b2f4 97bf
00000350: 0000 0000 0000 f03f 0000 0000 0000 0000
00000360: 688f 0090 ecc9 2ec0 0e2a f3f2 568b f73f
00000370: c0ef 6b72 0df7 c23f 00de 7aab b2f4 97bf
00000380: 0000 0000 0000 f03f 0000 0000 0000 0000
00000390: a9df 365a 107e 2ec0 963e 4528 842b f73f
000003a0: 009a 9afa 5e2d ba3f 0003 a5e1 7188 90bf
000003b0: 0000 0000 0000 0000 0000 0000 0000 f03f
000003c0: f4cf 38e0 dfae 2cc0 1b34 a69b 2863 f33f
000003d0: 00d9 5e01 46ce be3f 5042 70cb daec b63f
000003e0: 0000 0000 0000 f03f 0000 0000 0000 0000
000003f0: 4212 3654 4371 2cc0 4038 5d48 f6d1 f43f
00000400: 000f 1ee9 3c1f af3f e838 e4ca 898d c13f
00000410: 0000 0000 0000 f03f 0000 0000 0000 0000
00000420: 33f4 4c17 2452 2cc0 5dbf b981 a703 f73f
00000430: 0010 1ee9 3c1f af3f e838 e4ca 898d c13f
00000440: 0000 0000 0000 f03f 0000 0000 0000 0000
00000450: 23d6 63da 0433 2cc0 7a46 16bb 5835 f93f
00000460: 000f 1ee9 3c1f af3f e838 e4ca 898d c13f
00000470: 0000 0000 0000 f03f 0000 0000 0000 0000
00000480: 14b8 7a9d e513 2cc0 97cd 72f4 0967 fb3f
00000490: 0010 1ee9 3c1f af3f e838 e4ca 898d c13f
000004a0: 0000 0000 0000 f03f 0000 0000 0000 0000
000004b0: 049a 9160 c6f4 2bc0 b454 cf2d bb98 fd3f
000004c0: 005d d8a1 3050 bcbf 00c5 ba3a d2f0 b9bf
000004d0: 0000 0000 0000 f03f 0000 0000 0000 0000
000004e0: be4a d5c1 662d 2cc0 64a8 230a aef9 fb3f
000004f0: 005d d8a1 3050 bcbf 00c5 ba3a d2f0 b9bf
00000500: 0000 0000 0000 f03f 0000 0000 0000 0000
00000510: 78fb 1823 0766 2cc0 14fc 77e6 a05a fa3f
00000520: 805d d8a1 3050 bcbf 00c5 ba3a d2f0 b9bf
00000530: 0000 0000 0000 f03f 0000 0000 0000 0000
00000540: 33ac 5c84 a79e 2cc0 c44f ccc2 93bb f83f
00000550: c066 202b 3d29 c3bf 0028 d2b8 3d8c 833f
00000560: 0000 0000 0000 f03f 0000 0000 0000 0000
00000570: ce2d 0979 4ceb 2cc0 14f4 3d3e ace2 f83f
00000580: 00ab a15e 03fc b2bf c878 8215 80b0 c03f
00000590: 0000 0000 0000 f03f 0000 0000 0000 0000
000005a0: 2471 c67f 4411 2dc0 2d43 ee40 bcf8 fa3f
000005b0: 80ab a15e 03fc b2bf c878 8215 80b0 c03f
000005c0: 0000 0000 0000 f03f 0000 0000 0000 0000
000005d0: 7bb4 8386 3c37 2dc0 4692 9e43 cc0e fd3f
000005e0: 00ab a15e 03fc b2bf c878 8215 80b0 c03f
000005f0: 0000 0000 0000 f03f 0000 0000 0000 0000
00000600: d1f7 408d 345d 2dc0 5fe1 4e46 dc24 ff3f
00000610: 0063 d69c a4a0 ab3f f82e a025 27ea c13f
00000620: 0000 0000 0000 f03f 0000 0000 0000 0000
00000630: 6e21 a4e8 9341 2dc0 9f73 8195 10b1 0040
00000640: 401e 3f8d c266 c23f c0df 28c2 51eb a53f
00000650: 0000 0000 0000 f03f 0000 0000 0000 0000
00000660: f524 6fde f8f7 2cc0 1e17 8adc bd08 0140
00000670: 4024 3a30 61fa c13f 80e9 12ea eef5 aabf
00000680: 0000 0000 0000 f03f 0000 0000 0000 0000
00000690: 643c ae59 0fb0 2cc0 78cb e120 e69c 0040
000006a0: 00a8 3a93 2d39 8a3f 00c2 acb1 b0a9 73bf
000006b0: 0000 0000 0000 0000 0000 0000 0000 f03f
000006c0: c4ce 61ae ed03 2bc0 8887 f234 c0f7 f23f
000006d0: 00e8 ee8f 7fe2 983f 6871 c407 44f2 c23f
000006e0: 0000 0000 0000 f03f 0000 0000 0000 0000
000006f0: 50d7 996e 7cf7 2ac0 b515 ebb5 0856 f53f
00000700: 00ea ee8f 7fe2 983f 7071 c407 44f2 c23f
00000710: 0000 0000 0000 f03f 0000 0000 0000 0000
00000720: dbdf d12e 0beb 2ac0 e3a3 e336 51b4 f73f
00000730: 00e8 ee8f 7fe2 983f 6871 c407 44f2 c23f
00000740: 0000 0000 0000 f03f 0000 0000 0000 0000
00000750: 67e8 09ef 99de 2ac0 1032 dcb7 9912 fa3f
00000760: 00ea ee8f 7fe2 983f 7071 c407 44f2 c23f
00000770: 0000 0000 0000 f03f 0000 0000 0000 0000
00000780: f2f0 41af 28d2 2ac0 3ec0 d438 e270 fc3f
00000790: 00b3 3fa5 1a09 abbf 305d fe77 94f8 c1bf
000007a0: 0000 0000 0000 f03f 0000 0000 0000 0000
000007b0: a530 e7c9 31ed 2ac0 98f4 d4a9 cf31 fa3f
000007c0: 00b4 3fa5 1a09 abbf 305d fe77 94f8 c1bf
000007d0: 0000 0000 0000 f03f 0000 0000 0000 0000
000007e0: 5970 8ce4 3a08 2bc0 f228 d51a bdf2 f73f
000007f0: 007e 45c6 b457 903f 484d 3bc7 4c17 c3bf
-15.673660456498968 0.9914387112620302 0.027313389027344925 0.14749230074766917 1.0 0.0 -15.646347067471623 1.1389310120096994
0.0273133890273467 0.14749230074766895 1.0 0.0 -15.619033678444277 1.2864233127573683 0.0273133890273467 0.14749230074766917
1.0 0.0 -15.59172028941693 1.4339156135050375 0.010657493027647291 0.14962091378669506 1.0 0.0
-15.581062796389283 1.5835365272917326 0.010657493027645515 0.1496209137866953 1.0 0.0 -15.570405303361637 1.7331574410784278
0.010657493027647291 0.14962091378669506 1.0 0.0 -15.55974781033399 1.882778354865123 0.010657493027647291 0.14962091378669506
1.0 0.0 -15.549090317306343 2.032399268651818 0.03406898480937848 0.14607978735628846 1.0 0.0
-15.515021332496964 2.1784790560081064 0.03016367950445442 0.1293347574795125 0.0 1.0 -15.248854148609436 1.038639412138645
0.018690405570305657 0.14883100731909837 1.0 0.0 -15.23016374303913 1.1874704194577435 0.018690405570305657 0.14883100731909815
1.0 0.0 -15.211473337468824 1.3363014267768416 0.01869040557030388 0.1488310073190986 1.0 0.0
-15.19278293189852 1.4851324340959402 0.018690405570305657 0.14883100731909815 1.0 0.0 -15.174092526328215 1.6339634414150384
0.018690405570305657 0.14883100731909815 1.0 0.0 -15.155402120757909 1.7827944487341365 0.018690405570305657 0.1488310073190986
1.0 0.0 -15.136711715187603 1.931625456053235 0.01869040557030388 0.14883100731909815 1.0 0.0
-15.1180213096173 2.0804564633723333 0.010769263637707027 0.08575524748544172 0.0 1.0 -15.542547398508372 1.4949128539459207
0.14816444479935953 -0.023394386020951563 1.0 0.0 -15.394382953709012 1.471518467924969 0.1481644447993613 -0.023394386020951785
1.0 0.0 -15.246218508909651 1.4481240819040173 0.1022548066926916 -0.01614549579358293 0.0 1.0
-14.341551787314508 1.2117086486862323 0.12033498319110336 0.08955161539803069 1.0 0.0 -14.221216804123404 1.301260264084263
0.06078520150825106 0.13713190466700742 1.0 0.0 -14.160431602615153 1.4383921687512704 0.06078520150825284 0.13713190466700742
1.0 0.0 -14.0996464011069 1.5755240734182778 0.06078520150825106 0.13713190466700742 1.0 0.0
-14.03886119959865 1.7126559780852852 0.06078520150825284 0.13713190466700742 1.0 0.0 -13.978075998090397 1.8497878827522927
-0.1105986018304641 -0.10133089002444606 1.0 0.0 -14.08867459992086 1.7484569927278466 -0.1105986018304641 -0.10133089002444606
1.0 0.0 -14.199273201751325 1.6471261027034005 -0.11059860183046588 -0.10133089002444606 1.0 0.0
-14.30987180358179 1.5457952126789545 -0.1496960125521607 0.009544832423006966 1.0 0.0 -14.459567816133951 1.5553400451019614
-0.07415791569080099 0.13038636255527636 1.0 0.0 -14.533725731824752 1.6857264076572378 -0.07415791569080277 0.13038636255527636
1.0 0.0 -14.607883647515555 1.8161127702125142 -0.07415791569080099 0.13038636255527636 1.0 0.0
-14.682041563206356 1.9464991327677905 0.05395998396415358 0.13995827996438215 1.0 0.0 -14.628081579242203 2.0864574127321727
0.14376098534397563 0.04281096930611694 1.0 0.0 -14.484320593898227 2.1292683820382896 0.14045348028983717 -0.05265757186267006
1.0 0.0 -14.34386711360839 2.0766108101756195 0.012804370933128695 -0.004800501071074326 0.0 1.0
-13.507672738494314 1.185486037088113 0.02430152240751937 0.1480183637548962 1.0 0.0 -13.483371216086795 1.3335044008430093
0.024301522407521148 0.1480183637548964 1.0 0.0 -13.459069693679274 1.4815227645979057 0.02430152240751937 0.1480183637548962
1.0 0.0 -13.434768171271754 1.6295411283528018 0.024301522407521148 0.1480183637548964 1.0 0.0
-13.410466648864233 1.7775594921076983 -0.05280383364865848 -0.14039855822623215 1.0 0.0 -13.463270482512891 1.637160933881466
-0.05280383364866026 -0.14039855822623215 1.0 0.0 -13.516074316161552 1.496762375655234 0.015959572412041823 -0.14914855697734652
