data/online/npz-valid/b05/b05-465/b05-465z-06.npz (npz, 39730 bytes, 1 tensors)

x f8 [812, 6]
-39.63704903607526 0.8077326064881857 -0.05185580382410393 -0.1407514675225674 1.0 0.0 -39.688904839899365 0.6669811389656183
-0.051855803824096824 -0.1407514675225674 1.0 0.0 -39.74076064372346 0.5262296714430509 -0.08866311917713432 -0.12099112073942064
1.0 0.0 -39.829423762900596 0.40523855070363024 -0.12391045049847094 -0.08453520129074005 1.0 0.0
-39.95333421339907 0.3207033494128902 -0.06162126691406655 -0.0420397648577292 0.0 1.0 -40.831233399866946 0.3844773889417659
-0.08053132382897132 0.12654922315981681 1.0 0.0 -40.91176472369592 0.5110266121015827 -0.08053132382897132 0.12654922315981676
1.0 0.0 -40.99229604752489 0.6375758352613995 -0.0511326679232198 0.14101578021999306 1.0 0.0
-41.04342871544811 0.7785916154813926 -0.051132667923226904 0.14101578021999295 1.0 0.0 -41.094561383371335 0.9196073957013855
0.020435363009788432 0.14860146681193376 1.0 0.0 -41.07412602036155 1.0682088625133193 0.06807584314005766 0.1336625586346849
1.0 0.0 -41.00605017722149 1.2018714211480042 0.06807584314005055 0.1336625586346849 1.0 0.0
-40.93797433408144 1.335533979782689 0.13834222901555648 0.057977820509292455 1.0 0.0 -40.79963210506588 1.3935118002919815
0.13834222901555648 0.05797782050929223 1.0 0.0 -40.661289876050326 1.4514896208012737 0.1484330282973545 -0.02162489561773029
1.0 0.0 -40.51285684775297 1.4298647251835435 0.10937967051667385 -0.10264544645362528 1.0 0.0
-40.4034771772363 1.3272192787299182 0.10937967051667385 -0.10264544645362528 1.0 0.0 -40.29409750671962 1.224573832276293
0.10937967051667385 -0.10264544645362528 1.0 0.0 -40.18471783620295 1.1219283858226676 0.07310789284384356 -0.1309779981673752
1.0 0.0 -40.111609943359106 0.9909503876552924 0.07310789284384356 -0.1309779981673752 1.0 0.0
-40.03850205051526 0.8599723894879172 0.07310789284384356 -0.1309779981673752 1.0 0.0 -39.96539415767142 0.728994391320542
0.07310789284385066 -0.1309779981673752 1.0 0.0 -39.89228626482757 0.5980163931531668 0.07310789284384356 -0.1309779981673752
1.0 0.0 -39.819178371983725 0.4670383949857916 0.09820497459137556 0.11338334518573123 1.0 0.0
-39.72097339739235 0.5804217401715228 0.09820497459138267 0.11338334518573123 1.0 0.0 -39.62276842280097 0.693805085357254
0.09820497459137556 0.11338334518573123 1.0 0.0 -39.52456344820959 0.8071884305429853 0.09820497459138267 0.11338334518573112
1.0 0.0 -39.42635847361821 0.9205717757287164 0.1173718529451051 0.09340154247245169 1.0 0.0
-39.3089866206731 1.013973318201168 0.117371852945098 0.09340154247245169 1.0 0.0 -39.191614767728005 1.1073748606736198
0.1173718529451051 0.09340154247245191 1.0 0.0 -39.0742429147829 1.2007764031460717 0.05696044725775806 0.045327678658048765
0.0 1.0 -37.1579827618748 -0.023661570835138895 -0.1382453062707114 -0.05820855000871966 1.0 0.0
-37.29622806814551 -0.08187012084385856 -0.1382453062707114 -0.05820855000871969 1.0 0.0 -37.43447337441622 -0.14007867085257825
-0.1382453062707043 -0.058208550008719634 1.0 0.0 -37.572718680686926 -0.19828722086129788 -0.1382453062707114 -0.05820855000871969
1.0 0.0 -37.71096398695764 -0.25649577087001757 -0.1425233646177162 0.04676633979740294 1.0 0.0
-37.85348735157535 -0.20972943107261463 -0.06583636555751582 0.13477972017398418 1.0 0.0 -37.91932371713287 -0.07494971089863045
0.03222504344851984 0.14649759921152714 1.0 0.0 -37.88709867368435 0.07154788831289668 0.032225043448512736 0.14649759921152714
1.0 0.0 -37.854873630235836 0.21804548752442382 0.1073294764395456 0.10478732503129112 1.0 0.0
-37.74754415379629 0.32283281255571494 0.1073294764395385 0.10478732503129107 1.0 0.0 -37.64021467735675 0.427620137587006
0.1073294764395456 0.10478732503129118 1.0 0.0 -37.53288520091721 0.5324074626182972 0.1073294764395456 0.10478732503129107
00000000: 1ff2 a3d2 8ad1 43c0 71f2 180d f2d8 e93f
00000010: 008c 100b d88c aabf a8cc efe2 2404 c2bf
00000020: 0000 0000 0000 f03f 0000 0000 0000 0000
00000030: 42b6 a608 2ed8 43c0 47ff 5cd4 e857 e53f
00000040: 0088 100b d88c aabf a8cc efe2 2404 c2bf
00000050: 0000 0000 0000 f03f 0000 0000 0000 0000
00000060: 647a a93e d1de 43c0 1d0c a19b dfd6 e03f
00000070: 0026 3a4d a0b2 b6bf 98a4 ae2a 46f9 bebf
00000080: 0000 0000 0000 f03f 0000 0000 0000 0000
00000090: 7717 d08e 2aea 43c0 146f 96ac 6def d93f
000000a0: 0008 8664 98b8 bfbf ac8d e754 19a4 b5bf
000000b0: 0000 0000 0000 f03f 0000 0000 0000 0000
000000c0: 7b5a 02db 06fa 43c0 a98b 5c57 6786 d43f
000000d0: 009c 449c d28c afbf 9015 646e 3c86 a5bf
000000e0: 0000 0000 0000 0000 0000 0000 0000 f03f
000000f0: bee2 25db 656a 44c0 599b e30c 479b d83f
00000100: 0026 266a b39d b4bf 861e 67d3 c332 c03f
00000110: 0000 0000 0000 f03f 0000 0000 0000 0000
00000120: d1f5 dab4 b474 44c0 4e95 4b7b 545a e03f
00000130: 0026 266a b39d b4bf 841e 67d3 c332 c03f
00000140: 0000 0000 0000 f03f 0000 0000 0000 0000
00000150: e408 908e 037f 44c0 ef5c 2570 0567 e43f
00000160: 0094 f9a0 0f2e aabf c4e4 211a ce0c c23f
00000170: 0000 0000 0000 f03f 0000 0000 0000 0000
00000180: 4947 7812 8f85 44c0 20d6 adf6 38ea e83f
00000190: 0098 f9a0 0f2e aabf c0e4 211a ce0c c23f
000001a0: 0000 0000 0000 f03f 0000 0000 0000 0000
000001b0: af85 6096 1a8c 44c0 504f 367d 6c6d ed3f
000001c0: 0058 3cff 01ed 943f 3025 0c74 5f05 c33f
000001d0: 0000 0000 0000 f03f 0000 0000 0000 0000
000001e0: 249e 20f6 7c89 44c0 4eac 1c2d 6217 f13f
000001f0: 0026 ef1f 6b6d b13f 5090 04cf da1b c13f
00000200: 0000 0000 0000 f03f 0000 0000 0000 0000
00000210: 91a6 9040 c680 44c0 583e fd86 dd3a f33f
00000220: 0024 ef1f 6b6d b13f 5090 04cf da1b c13f
00000230: 0000 0000 0000 f03f 0000 0000 0000 0000
00000240: ffae 008b 0f78 44c0 62d0 dde0 585e f53f
00000250: 0087 a3ba 32b5 c13f 6027 f6d5 44af ad3f
00000260: 0000 0000 0000 f03f 0000 0000 0000 0000
00000270: 780b 4658 5a66 44c0 9d81 8d07 d34b f63f
00000280: 0087 a3ba 32b5 c13f 4027 f6d5 44af ad3f
00000290: 0000 0000 0000 f03f 0000 0000 0000 0000
000002a0: f167 8b25 a554 44c0 d732 3d2e 4d39 f73f
000002b0: 0079 177d daff c23f 008c d42d d624 96bf
000002c0: 0000 0000 0000 f03f 0000 0000 0000 0000
000002d0: 7850 0e4b a541 44c0 a7e0 85d5 b9e0 f63f
000002e0: 0064 b75b 4e00 bc3f 1005 9ad3 f846 babf
000002f0: 0000 0000 0000 f03f 0000 0000 0000 0000
00000300: c674 e023 a533 44c0 5640 4c48 4a3c f53f
00000310: 0064 b75b 4e00 bc3f 1005 9ad3 f846 babf
00000320: 0000 0000 0000 f03f 0000 0000 0000 0000
00000330: 1499 b2fc a425 44c0 05a0 12bb da97 f33f
00000340: 0064 b75b 4e00 bc3f 1005 9ad3 f846 babf
00000350: 0000 0000 0000 f03f 0000 0000 0000 0000
00000360: 62bd 84d5 a417 44c0 b4ff d82d 6bf3 f13f
00000370: 0002 d8e8 32b7 b23f 24ed 4f15 e3c3 c0bf
00000380: 0000 0000 0000 f03f 0000 0000 0000 0000
00000390: 6151 103c 490e 44c0 1f04 5e96 ddb5 ef3f
000003a0: 0002 d8e8 32b7 b23f 24ed 4f15 e3c3 c0bf
000003b0: 0000 0000 0000 f03f 0000 0000 0000 0000
000003c0: 60e5 9ba2 ed04 44c0 d608 0ad1 e484 eb3f
000003d0: 0002 d8e8 32b7 b23f 24ed 4f15 e3c3 c0bf
000003e0: 0000 0000 0000 f03f 0000 0000 0000 0000
000003f0: 5f79 2709 92fb 43c0 8d0d b60b ec53 e73f
00000400: 0004 d8e8 32b7 b23f 24ed 4f15 e3c3 c0bf
00000410: 0000 0000 0000 f03f 0000 0000 0000 0000
00000420: 5d0d b36f 36f2 43c0 4412 6246 f322 e33f
00000430: 0002 d8e8 32b7 b23f 24ed 4f15 e3c3 c0bf
00000440: 0000 0000 0000 f03f 0000 0000 0000 0000
00000450: 5ca1 3ed6 dae8 43c0 f62d 1c02 f5e3 dd3f
00000460: 00aa 2c12 f623 b93f f8d9 7bdf b006 bd3f
00000470: 0000 0000 0000 f03f 0000 0000 0000 0000
00000480: 078b 35db 48dc 43c0 3a92 fd9c d092 e23f
00000490: 00ac 2c12 f623 b93f f8d9 7bdf b006 bd3f
000004a0: 0000 0000 0000 f03f 0000 0000 0000 0000
000004b0: b174 2ce0 b6cf 43c0 790d edb8 a633 e63f
000004c0: 00aa 2c12 f623 b93f f8d9 7bdf b006 bd3f
000004d0: 0000 0000 0000 f03f 0000 0000 0000 0000
000004e0: 5c5e 23e5 24c3 43c0 b888 dcd4 7cd4 e93f
000004f0: 00ac 2c12 f623 b93f f0d9 7bdf b006 bd3f
00000500: 0000 0000 0000 f03f 0000 0000 0000 0000
00000510: 0648 1aea 92b6 43c0 f603 ccf0 5275 ed3f
00000520: 00c2 deed 140c be3f b0ac 50da 29e9 b73f
00000530: 0000 0000 0000 f03f 0000 0000 0000 0000
00000540: a558 a3df 8ca7 43c0 c60c 0b16 3c39 f03f
00000550: 00c0 deed 140c be3f b0ac 50da 29e9 b73f
00000560: 0000 0000 0000 f03f 0000 0000 0000 0000
00000570: 4569 2cd5 8698 43c0 9117 b0b3 ceb7 f13f
00000580: 00c2 deed 140c be3f c0ac 50da 29e9 b73f
00000590: 0000 0000 0000 f03f 0000 0000 0000 0000
000005a0: e479 b5ca 8089 43c0 5d22 5551 6136 f33f
000005b0: 0074 4674 eb29 ad3f c03c e182 3035 a73f
000005c0: 0000 0000 0000 0000 0000 0000 0000 f03f
000005d0: c1ca 75c7 3894 42c0 08b9 a223 bd3a 98bf
000005e0: 000d a1ae 05b2 c1bf d822 45d5 82cd adbf
000005f0: 0000 0000 0000 f03f 0000 0000 0000 0000
00000600: ce6b 24cd eaa5 42c0 ae3f 8bb3 70f5 b4bf
00000610: 000d a1ae 05b2 c1bf dc22 45d5 82cd adbf
00000620: 0000 0000 0000 f03f 0000 0000 0000 0000
00000630: db0c d3d2 9cb7 42c0 8ee8 160f 19ee c1bf
00000640: 000c a1ae 05b2 c1bf d422 45d5 82cd adbf
00000650: 0000 0000 0000 f03f 0000 0000 0000 0000
00000660: e7ad 81d8 4ec9 42c0 4331 68c4 7961 c9bf
00000670: 000d a1ae 05b2 c1bf dc22 45d5 82cd adbf
00000680: 0000 0000 0000 f03f 0000 0000 0000 0000
00000690: f44e 30de 00db 42c0 fdbc dc3c 6d6a d0bf
000006a0: 0078 f9a2 343e c2bf 3c89 f7f7 c1f1 a73f
000006b0: 0000 0000 0000 f03f 0000 0000 0000 0000
000006c0: 6c48 d312 3fed 42c0 ab97 bbfb 69d8 cabf
000006d0: 0000 f5ec a6da b0bf 77d8 273d 7640 c13f
000006e0: 0000 0000 0000 f03f 0000 0000 0000 0000
000006f0: ecc2 4966 acf5 42c0 687e 277d e72f b3bf
00000700: 0078 7207 cd7f a03f cf2b c7ee 6ec0 c23f
00000710: 0000 0000 0000 f03f 0000 0000 0000 0000
00000720: 4ee6 0773 8cf1 42c0 36d9 6660 f650 b23f
00000730: 0074 7207 cd7f a03f cf2b c7ee 6ec0 c23f
00000740: 0000 0000 0000 f03f 0000 0000 0000 0000
00000750: b109 c67f 6ced 42c0 6a98 fa1e eae8 cb3f
00000760: 0064 34cf f179 bb3f 9c72 0b96 57d3 ba3f
00000770: 0000 0000 0000 f03f 0000 0000 0000 0000
00000780: 7f6f de86 afdf 42c0 dc28 00f5 4aa9 d43f
00000790: 0062 34cf f179 bb3f 9872 0b96 57d3 ba3f
000007a0: 0000 0000 0000 f03f 0000 0000 0000 0000
000007b0: 4ed5 f68d f2d1 42c0 8205 83da 205e db3f
000007c0: 0064 34cf f179 bb3f a072 0b96 57d3 ba3f
000007d0: 0000 0000 0000 f03f 0000 0000 0000 0000
000007e0: 1c3b 0f95 35c4 42c0 15f1 0260 7b09 e13f
000007f0: 0064 34cf f179 bb3f 9872 0b96 57d3 ba3f
