data/online/npz-eval/b10/b10-755/b10-755z-07.npz (npz, 43418 bytes, 1 tensors)

x f8 [889, 6]
-30.281535299667425 -0.3323146381779323 0.02465984809580135 -0.14795908857482165 1.0 0.0 -30.256875451571624 -0.4802737267527539
-0.054322714538741934 -0.13981789114824394 1.0 0.0 -30.311198166110366 -0.6200916179009979 -0.11258235506720027 -0.09912221409715749
1.0 0.0 -30.423780521177566 -0.7192138319981554 -0.14245236584550725 -0.04698216113608955 1.0 0.0
-30.566232887023073 -0.7661959931342449 -0.1486269964938316 0.02024884967652918 1.0 0.0 -30.714859883516905 -0.7459471434577157
-0.1486269964938316 0.02024884967652918 1.0 0.0 -30.863486880010736 -0.7256982937811866 -0.1351421946445086 0.06508907148412635
1.0 0.0 -30.998629074655245 -0.6606092222970602 -0.1351421946445086 0.06508907148412635 1.0 0.0
-31.133771269299753 -0.5955201508129339 -0.1351421946445086 0.06508907148412624 1.0 0.0 -31.268913463944262 -0.5304310793288076
-0.1351421946445086 0.0650890714841264 1.0 0.0 -31.40405565858877 -0.4653420078446812 -0.1351421946445086 0.06508907148412635
1.0 0.0 -31.53919785323328 -0.40025293636055487 -0.09736047962548611 0.11410932042167071 1.0 0.0
-31.636558332858765 -0.28614361593888415 -0.09736047962548255 0.11410932042167071 1.0 0.0 -31.733918812484248 -0.17203429551721344
-0.09736047962548611 0.11410932042167077 1.0 0.0 -31.831279292109734 -0.057924975095542675 -0.09736047962548611 0.11410932042167066
1.0 0.0 -31.92863977173522 0.05618434532612798 -0.09736047962548611 0.11410932042167066 1.0 0.0
-32.026000251360706 0.17029366574779864 -0.05875965923080173 0.13801196486928158 1.0 0.0 -32.08475991059151 0.3083056306170802
-0.058759659230808836 0.13801196486928158 1.0 0.0 -32.14351956982232 0.4463175954863618 -0.05875965923080173 0.13801196486928152
1.0 0.0 -32.20227922905312 0.5843295603556433 0.0709862668190766 0.13213988770651497 1.0 0.0
-32.13129296223404 0.7164694480621583 0.07098626681908371 0.13213988770651486 1.0 0.0 -32.06030669541496 0.8486093357686731
0.14477290296871814 0.039253108998011155 1.0 0.0 -31.91553379244624 0.8878624447666843 0.14884280248806903 -0.018596240144104215
1.0 0.0 -31.76669098995817 0.8692662046225801 0.14884280248807258 -0.018596240144104326 1.0 0.0
-31.6178481874701 0.8506699644784758 0.13954670617242826 -0.055015605026445646 1.0 0.0 -31.47830148129767 0.7956543594520301
0.13954670617242826 -0.055015605026445535 1.0 0.0 -31.338754775125242 0.7406387544255846 0.13954670617242826 -0.055015605026445646
1.0 0.0 -31.199208068952814 0.6856231493991389 0.11781576769194047 -0.09284096554408827 1.0 0.0
-31.081392301260873 0.5927821838550507 0.11781576769194047 -0.09284096554408838 1.0 0.0 -30.963576533568933 0.4999412183109623
0.11781576769194047 -0.09284096554408833 1.0 0.0 -30.845760765876992 0.40710025276687395 0.11781576769194402 -0.09284096554408833
1.0 0.0 -30.72794499818505 0.3142592872227856 0.11781576769194047 -0.09284096554408833 1.0 0.0
-30.610129230493108 0.2214183216786973 0.11781576769194047 -0.09284096554408833 1.0 0.0 -30.492313462801167 0.12857735613460897
0.11098808075158928 -0.10090414228899935 1.0 0.0 -30.381325382049578 0.027673213845609612 0.11098808075158928 -0.10090414228899935
1.0 0.0 -30.27033730129799 -0.07323092844338974 0.11098808075158928 -0.10090414228899935 1.0 0.0
-30.1593492205464 -0.1741350707323891 0.11098808075158928 -0.10090414228899935 1.0 0.0 -30.04836113979481 -0.27503921302138845
0.08150717876758407 -0.12592291216990203 1.0 0.0 -29.966853961027226 -0.4009621251912905 0.08150717876758762 -0.12592291216990215
1.0 0.0 -29.88534678225964 -0.5268850373611926 0.08150717876758407 -0.12592291216990192 1.0 0.0
-29.803839603492055 -0.6528079495310946 0.08150717876758762 -0.12592291216990215 1.0 0.0 -29.722332424724467 -0.7787308617009967
0.08150717876758407 -0.12592291216990203 1.0 0.0 -29.640825245956883 -0.9046537738708987 0.08150717876758407 -0.1259229121699018
00000000: bcbd 88b2 1248 3ec0 e433 bd9d a444 d5bf
00000010: 0018 6264 6e40 993f e893 49cb 52f0 c2bf
00000020: 0000 0000 0000 f03f 0000 0000 0000 0000
00000030: 36a5 ef96 c241 3ec0 d8fd 6103 cebc debf
00000040: 0068 bfd4 2fd0 abbf 804e f07a 8de5 c1bf
00000050: 0000 0000 0000 f03f 0000 0000 0000 0000
00000060: ea04 daae aa4f 3ec0 8c12 6d60 cad7 e3bf
00000070: 00cb 1e7d 32d2 bcbf 10ba dacb 1260 b9bf
00000080: 0000 0000 0000 f03f 0000 0000 0000 0000
00000090: b523 57e1 7c6c 3ec0 ce69 e8b9 cc03 e7bf
000000a0: 00ab 450e e13b c2bf 305a 26bb 0b0e a8bf
000000b0: 0000 0000 0000 f03f 0000 0000 0000 0000
000000c0: 0baf 73a3 f490 3ec0 71cf 9a75 ad84 e8bf
000000d0: 0032 9f9c 3506 c3bf 80ba 914c 1dbc 943f
000000e0: 0000 0000 0000 f03f 0000 0000 0000 0000
000000f0: 6fed ac0e 01b7 3ec0 9d41 368b ccde e7bf
00000100: 0032 9f9c 3506 c3bf 80ba 914c 1dbc 943f
00000110: 0000 0000 0000 f03f 0000 0000 0000 0000
00000120: d32b e679 0ddd 3ec0 c9b3 d1a0 eb38 e7bf
00000130: 0067 27e5 564c c1bf b0f0 5969 ada9 b03f
00000140: 0000 0000 0000 f03f 0000 0000 0000 0000
00000150: a17a b027 a6ff 3ec0 b375 a6f3 b523 e5bf
00000160: 0067 27e5 564c c1bf b0f0 5969 ada9 b03f
00000170: 0000 0000 0000 f03f 0000 0000 0000 0000
00000180: 6fc9 7ad5 3e22 3fc0 9d37 7b46 800e e3bf
00000190: 0067 27e5 564c c1bf a8f0 5969 ada9 b03f
000001a0: 0000 0000 0000 f03f 0000 0000 0000 0000
000001b0: 3d18 4583 d744 3fc0 88f9 4f99 4af9 e0bf
000001c0: 0067 27e5 564c c1bf b4f0 5969 ada9 b03f
000001d0: 0000 0000 0000 f03f 0000 0000 0000 0000
000001e0: 0b67 0f31 7067 3fc0 e376 49d8 29c8 ddbf
000001f0: 0067 27e5 564c c1bf b0f0 5969 ada9 b03f
00000200: 0000 0000 0000 f03f 0000 0000 0000 0000
00000210: d9b5 d9de 088a 3fc0 b7fa f27d be9d d9bf
00000220: 0012 eacb 9dec b8bf 8c3e 61b7 4436 bd3f
00000230: 0000 0000 0000 f03f 0000 0000 0000 0000
00000240: eb9f a57c f5a2 3fc0 14ab 1a50 2d50 d2bf
00000250: 0011 eacb 9dec b8bf 8c3e 61b7 4436 bd3f
00000260: 0000 0000 0000 f03f 0000 0000 0000 0000
00000270: fc89 711a e2bb 3fc0 e2b6 8444 3805 c6bf
00000280: 0012 eacb 9dec b8bf 903e 61b7 4436 bd3f
00000290: 0000 0000 0000 f03f 0000 0000 0000 0000
000002a0: 0e74 3db8 ced4 3fc0 685e 50a3 57a8 adbf
000002b0: 0012 eacb 9dec b8bf 883e 61b7 4436 bd3f
000002c0: 0000 0000 0000 f03f 0000 0000 0000 0000
000002d0: 205e 0956 bbed 3fc0 a81e 72cb 31c4 ac3f
000002e0: 0012 eacb 9dec b8bf 883e 61b7 4436 bd3f
000002f0: 0000 0000 0000 f03f 0000 0000 0000 0000
00000300: 19a4 eaf9 5303 40c0 ee26 8dce 2ecc c53f
00000310: 00d8 70fd be15 aebf 74fe c845 60aa c13f
00000320: 0000 0000 0000 f03f 0000 0000 0000 0000
00000330: 4f00 aa69 d90a 40c0 b112 2b8a 47bb d33f
00000340: 00dc 70fd be15 aebf 74fe c845 60aa c13f
00000350: 0000 0000 0000 f03f 0000 0000 0000 0000
00000360: 865c 69d9 5e12 40c0 eb91 0fad 7790 dc3f
00000370: 00d8 70fd be15 aebf 72fe c845 60aa c13f
00000380: 0000 0000 0000 f03f 0000 0000 0000 0000
00000390: bcb8 2849 e419 40c0 9208 fae7 d3b2 e23f
000003a0: 00fc 73ee 272c b23f 002a 19b8 f5e9 c03f
000003b0: 0000 0000 0000 f03f 0000 0000 0000 0000
000003c0: be7e 3135 ce10 40c0 1253 0056 51ed e63f
000003d0: 00fe 73ee 272c b23f fc29 19b8 f5e9 c03f
000003e0: 0000 0000 0000 f03f 0000 0000 0000 0000
000003f0: bf44 3a21 b807 40c0 919d 06c4 ce27 eb3f
00000400: 007f cc21 eb87 c23f 1058 d3c6 fb18 a43f
00000410: 0000 0000 0000 f03f 0000 0000 0000 0000
00000420: 80f0 306c 60ea 3fc0 12d3 7380 5e69 ec3f
00000430: 0033 77ec 470d c33f 006e fd8c e40a 93bf
00000440: 0000 0000 0000 f03f 0000 0000 0000 0000
00000450: 1a02 58dc 45c4 3fc0 a2e7 0b5c 07d1 eb3f
00000460: 8033 77ec 470d c33f 206e fd8c e40a 93bf
00000470: 0000 0000 0000 f03f 0000 0000 0000 0000
00000480: b313 7f4c 2b9e 3fc0 31fc a337 b038 eb3f
00000490: 8036 a39d aadc c13f e06a b760 012b acbf
000004a0: 0000 0000 0000 f03f 0000 0000 0000 0000
000004b0: 46cd 43f7 717a 3fc0 8385 9821 0076 e93f
000004c0: 8036 a39d aadc c13f d06a b760 012b acbf
000004d0: 0000 0000 0000 f03f 0000 0000 0000 0000
000004e0: d986 08a2 b856 3fc0 d60e 8d0b 50b3 e73f
000004f0: 8036 a39d aadc c13f e06a b760 012b acbf
00000500: 0000 0000 0000 f03f 0000 0000 0000 0000
00000510: 6c40 cd4c ff32 3fc0 2898 81f5 9ff0 e53f
00000520: 00a5 3095 2c29 be3f 10ad bdee 6cc4 b7bf
00000530: 0000 0000 0000 f03f 0000 0000 0000 0000
00000540: c70f 3820 d614 3fc0 86e2 a957 12f8 e23f
00000550: 00a5 3095 2c29 be3f 18ad bdee 6cc4 b7bf
00000560: 0000 0000 0000 f03f 0000 0000 0000 0000
00000570: 22df a2f3 acf6 3ec0 c659 a473 09ff df3f
00000580: 00a5 3095 2c29 be3f 14ad bdee 6cc4 b7bf
00000590: 0000 0000 0000 f03f 0000 0000 0000 0000
000005a0: 7dae 0dc7 83d8 3ec0 81ee f437 ee0d da3f
000005b0: 00a6 3095 2c29 be3f 14ad bdee 6cc4 b7bf
000005c0: 0000 0000 0000 f03f 0000 0000 0000 0000
000005d0: d77d 789a 5aba 3ec0 3c83 45fc d21c d43f
000005e0: 00a5 3095 2c29 be3f 14ad bdee 6cc4 b7bf
000005f0: 0000 0000 0000 f03f 0000 0000 0000 0000
00000600: 324d e36d 319c 3ec0 ee2f 2c81 6f57 cc3f
00000610: 00a5 3095 2c29 be3f 14ad bdee 6cc4 b7bf
00000620: 0000 0000 0000 f03f 0000 0000 0000 0000
00000630: 8d1c 4e41 087e 3ec0 6459 cd09 3975 c03f
00000640: 00ea 1201 b769 bc3f d084 2997 dad4 b9bf
00000650: 0000 0000 0000 f03f 0000 0000 0000 0000
00000660: a309 4d8a 9e61 3ec0 e0b7 c4f1 5d56 9c3f
00000670: 00ea 1201 b769 bc3f d084 2997 dad4 b9bf
00000680: 0000 0000 0000 f03f 0000 0000 0000 0000
00000690: b9f6 4bd3 3445 3ec0 d856 b81a 43bf b2bf
000006a0: 00ea 1201 b769 bc3f d084 2997 dad4 b9bf
000006b0: 0000 0000 0000 f03f 0000 0000 0000 0000
000006c0: cfe3 4a1c cb28 3ec0 d4ed f0d8 0e4a c6bf
000006d0: 00ea 1201 b769 bc3f d084 2997 dad4 b9bf
000006e0: 0000 0000 0000 f03f 0000 0000 0000 0000
000006f0: e5d0 4965 610c 3ec0 1ed8 4212 3e9a d1bf
00000700: 002d 328b a7dd b43f 941c cbf2 3d1e c0bf
00000710: 0000 0000 0000 f03f 0000 0000 0000 0000
00000720: b89e bebd 83f7 3dc0 6866 a80b 5da9 d9bf
00000730: 002e 328b a7dd b43f 981c cbf2 3d1e c0bf
00000740: 0000 0000 0000 f03f 0000 0000 0000 0000
00000750: 8a6c 3316 a6e2 3dc0 5afa 8602 3edc e0bf
00000760: 002d 328b a7dd b43f 901c cbf2 3d1e c0bf
00000770: 0000 0000 0000 f03f 0000 0000 0000 0000
00000780: 5d3a a86e c8cd 3dc0 7ec1 397f cde3 e4bf
00000790: 002e 328b a7dd b43f 981c cbf2 3d1e c0bf
000007a0: 0000 0000 0000 f03f 0000 0000 0000 0000
000007b0: 2f08 1dc7 eab8 3dc0 a488 ecfb 5ceb e8bf
000007c0: 002d 328b a7dd b43f 941c cbf2 3d1e c0bf
000007d0: 0000 0000 0000 f03f 0000 0000 0000 0000
000007e0: 02d6 911f 0da4 3dc0 c94f 9f78 ecf2 ecbf
000007f0: 002d 328b a7dd b43f 8c1c cbf2 3d1e c0bf
