data/online/npz-valid/b06/b06-489/b06-489z-01.npz (npz, 29370 bytes, 1 tensors)

x f8 [598, 6]
0	0xc0370a8a847eba05	-23.04117611020958
1	0xbffbd242ea5e2a86	-1.7388333468431099
2	0x0000000000000000	0.0
3	0x3fc3333333333330	0.1499999999999999
4	0x3ff0000000000000	1.0
5	0x0000000000000000	0.0
6	0xc0370a8a847eba05	-23.04117611020958
7	0xbff96bdc83f7c420	-1.58883334684311
8	0x0000000000000000	0.0
9	0x3fc3333333333338	0.15000000000000013
10	0x3ff0000000000000	1.0
11	0x0000000000000000	0.0
12	0xc0370a8a847eba05	-23.04117611020958
13	0xbff705761d915db9	-1.4388333468431098
14	0xbf7daf62af566000	-0.007247338760315358
15	0x3fc32d75aaa9d3f0	0.1498248179738364
16	0x3ff0000000000000	1.0
17	0x0000000000000000	0.0
18	0xc0370c657aa9af6b	-23.048423448969896
19	0xbff49fc7683c233b	-1.2890085288692734
20	0x3f8e4711ffa50800	0.014783993353038483
21	0x3fc31b44b96a4510	0.1492696671817062
22	0x3ff0000000000000	1.0
23	0x0000000000000000	0.0
24	0xc037089c9869baca	-23.033639455616857
25	0xbff23c5ed10eda99	-1.1397388616875672
26	0x3f8e4711ffa50000	0.01478399335303493
27	0x3fc31b44b96a4510	0.1492696671817062
28	0x3ff0000000000000	1.0
29	0x0000000000000000	0.0
30	0xc03704d3b629c62a	-23.018855462263822
31	0xbfefb1ec73c323ee	-0.990469194505861
32	0x3f8e4711ffa50800	0.014783993353038483
33	0x3fc31b44b96a4514	0.1492696671817063
34	0x3ff0000000000000	1.0
35	0x0000000000000000	0.0
36	0xc037010ad3e9d189	-23.004071468910784
37	0xbfeaeb1b456892a9	-0.8411995273241547
38	0xbf9fdf34e1d47400	-0.03112490299564641
39	0x3fc2c838afdf6f40	0.14673527324236524
40	0x3ff0000000000000	1.0
41	0x0000000000000000	0.0
42	0xc0370902a12246a6	-23.03519637190643
43	0xbfe6390d1970b6d9	-0.6944642540817895
44	0xbf87c16390617800	-0.011599328845644408
45	0x3fc3247b6c8d6004	0.1495508461036935
46	0x3ff0000000000000	1.0
47	0x0000000000000000	0.0
48	0xc0370bfacd9452d5	-23.046795700752075
49	0xbfe16fee3e4d5ed8	-0.544913407978096
50	0xbf98caa8168ae400	-0.02421057355488543
51	0x3fc2f2c10c2a7ec4	0.14803326696436703
52	0x3ff0000000000000	1.0
53	0x0000000000000000	0.0
54	0xc037122d7799f58e	-23.07100627430696
55	0xbfd9667bf6857e4e	-0.3968801410137289
56	0xbf98caa8168ae000	-0.024210573554881876
57	0x3fc2f2c10c2a7ec2	0.14803326696436697
58	0x3ff0000000000000	1.0
59	0x0000000000000000	0.0
60	0xc0371860219f9846	-23.095216847861842
61	0xbfcfda36e0e07dda	-0.24884687404936195
62	0xbfa695c4c7ce3a00	-0.044111394300774265
63	0x3fc259dc24c2f1e5	0.14336730761523522
64	0x3ff0000000000000	1.0
65	0x0000000000000000	0.0
66	0xc03723ab04037f63	-23.139328242162616
67	0xbfbb00b5783b17ea	-0.10547956643412673
68	0xbfa695c4c7ce3c00	-0.04411139430077782
69	0x3fc259dc24c2f1e5	0.14336730761523522
70	0x3ff0000000000000	1.0
71	0x0000000000000000	0.0
72	0xc0372ef5e6676681	-23.183439636463394
73	0x3fa36605a29597c0	0.03788774118110849
74	0x3f894895e0070800	0.012345477008128825
75	0x3fc322863e56c9a6	0.1494911007299155
76	0x3ff0000000000000	1.0
77	0x0000000000000000	0.0
78	0xc0372bccd3ab65a0	-23.171094159455265
79	0x3fc7fc07a6fc2f96	0.187378841911024
80	0xbf85fba676547000	-0.010733890997066453
81	0x3fc32699616ce0f0	0.14961545235724527
82	0x3ff0000000000000	1.0
83	0x0000000000000000	0.0
84	0xc0372e8c487a302e	-23.18182805045233
85	0x3fd5915084348843	0.33699429426826927
86	0xbf85fba676546800	-0.0107338909970629
87	0x3fc32699616ce0f0	0.14961545235724527
88	0x3ff0000000000000	1.0
89	0x0000000000000000	0.0
90	0xc037314bbd48fabb	-23.192561941449394
91	0x3fdf249d34eaf8bb	0.48660974662551454
92	0xbf85fba676547000	-0.010733890997066453
93	0x3fc32699616ce0ee	0.14961545235724522
94	0x3ff0000000000000	1.0
95	0x0000000000000000	0.0
96	0xc037340b3217c549	-23.20329583244646
97	0x3fe45bf4f2d0b499	0.6362251989827598
98	0xbf86686a0ba34800	-0.010941341858060838
99	0x3fc3261b518c00d8	0.14960042459279665
100	0x3ff0000000000000	1.0
101	0x0000000000000000	0.0
102	0xc03736d83f5939b2	-23.21423717430452
103	0x3fe9257bc733b4cf	0.7858256235755564
104	0xbf86686a0ba34800	-0.010941341858060838
105	0x3fc3261b518c00d8	0.14960042459279665
106	0x3ff0000000000000	1.0
107	0x0000000000000000	0.0
108	0xc03739a54c9aae1b	-23.225178516162583
109	0x3fedef029b96b505	0.9354260481683531
110	0x3f930890ca674400	0.018587362626764303
111	0x3fc30d5139c303ac	0.148843911365501
112	0x3ff0000000000000	1.0
113	0x0000000000000000	0.0
114	0xc03734e32868144a	-23.20659115353582
115	0x3ff1592b7503baf8	1.084269959533854
116	0x3f930890ca674400	0.018587362626764303
117	0x3fc30d5139c303b0	0.14884391136550112
118	0x3ff0000000000000	1.0
119	0x0000000000000000	0.0
120	0xc037302104357a79	-23.188003790909054
121	0x3ff3bad59c3c1b6e	1.2331138708993552
122	0xbf87307810320000	-0.01132291602539226
123	0x3fc3252d1c6b43d0	0.14957202804228453
124	0x3ff0000000000000	1.0
125	0x0000000000000000	0.0
126	0xc0373307133780b9	-23.199326706934446
127	0x3ff61f7b3fc983e8	1.3826858989416397
128	0xbf8730781031f800	-0.011322916025388707
129	0x3fc3252d1c6b43d0	0.14957202804228453
130	0x3ff0000000000000	1.0
131	0x0000000000000000	0.0
132	0xc03735ed223986f8	-23.210649622959835
133	0x3ff88420e356ec62	1.5322579269839243
134	0xbf87307810320000	-0.01132291602539226
135	0x3fc3252d1c6b43d0	0.14957202804228453
136	0x3ff0000000000000	1.0
137	0x0000000000000000	0.0
138	0xc03738d3313b8d38	-23.221972538985227
139	0x3ffae8c686e454dc	1.6818299550262088
140	0xbf8470505a5b6800	-0.009979846723059183
141	0x3fc3284f2af14308	0.1496676406555013
142	0x3ff0000000000000	1.0
143	0x0000000000000000	0.0
144	0xc0373b613b46d8a5	-23.231952385708286
145	0x3ffd4dd06c427d3d	1.8314975956817101
146	0xbf8470505a5b6800	-0.009979846723059183
147	0x3fc3284f2af14300	0.1496676406555011
148	0x3ff0000000000000	1.0
149	0x0000000000000000	0.0
150	0xc0373def45522412	-23.241932232431346
151	0x3fffb2da51a0a59d	1.9811652363372112
152	0x3f92918e36365400	0.018133375223971626
153	0x3fc30f26e7ebf1e8	0.14889990162181665
154	0x3ff0000000000000	1.0
155	0x0000000000000000	0.0
156	0xc037394ae1c4967d	-23.223798857207374
157	0x40010a5f974f11ed	2.130065137959028
158	0x3f92918e36365000	0.018133375223968073
159	0x3fc30f26e7ebf1f0	0.14889990162181688
160	0x3ff0000000000000	1.0
161	0x0000000000000000	0.0
162	0xc03734a67e3708e9	-23.205665481983406
163	0x40023b5205cdd10c	2.2789650395808447
164	0x3f8c643113405000	0.013862975502014763
165	0x3fc31e29e0020640	0.14935801923643233
166	0x3ff0000000000000	1.0
167	0x0000000000000000	0.0
168	0xc0373119f814a0df	-23.19180250648139
169	0x40036d34a3cdf170	2.428323058817277
170	0xbf888db72968a000	-0.011989050818627334
171	0x3fc3237992b83b00	0.14952010788007186
172	0x3ff0000000000000	1.0
173	0x0000000000000000	0.0
174	0xc037342baef9cdf3	-23.20379155730002
175	0x40049f6c3cf97520	2.577843166697349
176	0xbf28187b9f100000	-0.0001838351159051399
177	0x3f62c818b98b6800	0.002292679110138529
178	0x0000000000000000	0.0
179	0x3ff0000000000000	1.0
180	0xc03661620fcc8837	-22.380402553019135
181	0x3fb98f2c55173c34	0.09984089925204459
182	0x0000000000000000	0.0
183	0x3fc3333333333333	0.15
184	0x3ff0000000000000	1.0
185	0x0000000000000000	0.0
186	0xc03661620fcc8837	-22.380402553019135
187	0x3fcffac95dbed14d	0.24984089925204458
188	0x0000000000000000	0.0
189	0x3fc3333333333333	0.15
190	0x3ff0000000000000	1.0
191	0x0000000000000000	0.0
192	0xc03661620fcc8837	-22.380402553019135
193	0x3fd996fe48790240	0.3998408992520446
194	0x0000000000000000	0.0
195	0x3fc3333333333334	0.15000000000000002
196	0x3ff0000000000000	1.0
197	0x0000000000000000	0.0
198	0xc03661620fcc8837	-22.380402553019135
199	0x3fe1984bf1094ded	0.5498408992520446
200	0x0000000000000000	0.0
201	0x3fc3333333333334	0.15000000000000002
202	0x3ff0000000000000	1.0
203	0x0000000000000000	0.0
204	0xc03661620fcc8837	-22.380402553019135
205	0x3fe66518bdd61aba	0.6998408992520446
206	0x0000000000000000	0.0
207	0x3fc3333333333334	0.15000000000000002
208	0x3ff0000000000000	1.0
209	0x0000000000000000	0.0
210	0xc03661620fcc8837	-22.380402553019135
211	0x3feb31e58aa2e787	0.8498408992520446
212	0x0000000000000000	0.0
213	0x3fc3333333333334	0.15000000000000002
214	0x3ff0000000000000	1.0
215	0x0000000000000000	0.0
216	0xc03661620fcc8837	-22.380402553019135
217	0x3feffeb2576fb454	0.9998408992520447
218	0x0000000000000000	0.0
219	0x3fc3333333333330	0.1499999999999999
220	0x3ff0000000000000	1.0
221	0x0000000000000000	0.0
222	0xc03661620fcc8837	-22.380402553019135
223	0x3ff265bf921e4090	1.1498408992520446
224	0x3f7cbcfd1adf8000	0.007016171160984186
225	0x3fc32dd1f81bf1f0	0.14983582129197215
226	0x3ff0000000000000	1.0
227	0x0000000000000000	0.0
228	0xc0365f963ffada3f	-22.37338638185815
229	0x3ff4cb79d121bece	1.2996767205440167
230	0xbf6028ac60348000	-0.0019725195612778634
231	0x3fc332c666534990	0.14998702999453117
232	0x3ff0000000000000	1.0
233	0x0000000000000000	0.0
234	0xc0366017855ddbe3	-22.37535890141943
235	0x3ff731d29dec2800	1.449663750538548
236	0xbf6028ac60346000	-0.0019725195612743107
237	0x3fc332c666534990	0.14998702999453117
238	0x3ff0000000000000	1.0
239	0x0000000000000000	0.0
240	0xc0366098cac0dd86	-22.377331420980703
241	0x3ff9982b6ab69132	1.599650780533079
242	0xbf6028ac60348000	-0.0019725195612778634
243	0x3fc332c666534990	0.14998702999453117
244	0x3ff0000000000000	1.0
245	0x0000000000000000	0.0
246	0xc036611a1023df2a	-22.37930394054198
247	0x3ffbfe843780fa64	1.7496378105276102
248	0xbf403d32801c8000	-0.0004955765327601114
249	0x3fc3332c55265c00	0.14999918134409995
250	0x3ff0000000000000	1.0
251	0x0000000000000000	0.0
252	0xc036613a8a88df63	-22.37979951707474
253	0x3ffe64e9c225c5e4	1.8996369918717102
254	0xbf403d32801c8000	-0.0004955765327601114
255	0x3fc3332c55265c00	0.14999918134409995
