data/online/npz-eval/b07/b07-542/b07-542z-05.npz (npz, 43106 bytes, 1 tensors)

x f8 [883, 6]
-54.08679406097852 0.6934001655801213 0.06092076990801587 0.13707173229303826 1.0 0.0 -54.0258732910705 0.8304718978731596
0.04442894191156199 0.1432692190270436 1.0 0.0 -53.98144434915894 0.9737411169002032 0.04442894191156199 0.1432692190270436
1.0 0.0 -53.93701540724738 1.1170103359272467 0.04442894191156199 0.14326921902704348 1.0 0.0
-53.89258646533582 1.2602795549542902 0.04442894191156199 0.1432692190270437 1.0 0.0 -53.848157523424256 1.403548773981334
0.027312868365306997 0.14749239716561457 1.0 0.0 -53.82084465505895 1.5510411711469485 0.027312868365306997 0.14749239716561457
1.0 0.0 -53.79353178669364 1.698533568312563 0.027312868365306997 0.1474923971656148 1.0 0.0
-53.766218918328335 1.8460259654781779 0.027312868365306997 0.14749239716561457 1.0 0.0 -53.73890604996303 1.9935183626437925
0.027312868365306997 0.14749239716561457 1.0 0.0 -53.71159318159772 2.141010759809407 0.06835409063309328 0.13352047893009722
1.0 0.0 -53.64323909096463 2.2745312387395042 0.06835409063310038 0.13352047893009766 1.0 0.0
-53.57488500033153 2.408051717669602 0.1471692501627615 -0.029003651606820835 1.0 0.0 -53.427715750168765 2.379048066062781
0.11190212477908545 -0.09988951131088042 1.0 0.0 -53.31581362538968 2.2791585547519007 0.07391812543847465 -0.1305224529790272
1.0 0.0 -53.241895499951205 2.1486361017728735 0.07391812543846754 -0.1305224529790272 1.0 0.0
-53.16797737451274 2.0181136487938462 0.07391812543847465 -0.1305224529790272 1.0 0.0 -53.09405924907426 1.887591195814819
0.07391812543846754 -0.1305224529790272 1.0 0.0 -53.020141123635796 1.7570687428357918 0.07391812543847465 -0.1305224529790272
1.0 0.0 -52.94622299819732 1.6265462898567646 0.09561405132348 -0.11557661177552658 1.0 0.0
-52.85060894687384 1.510969678081238 0.09561405132348 -0.11557661177552658 1.0 0.0 -52.75499489555036 1.3953930663057115
0.09561405132348 -0.11557661177552658 1.0 0.0 -52.65938084422688 1.2798164545301849 0.09158847435500661 0.11879205093490919
1.0 0.0 -52.567792369871874 1.398608505465094 0.09158847435500661 0.11879205093490919 1.0 0.0
-52.47620389551687 1.5174005564000033 0.09147203338666543 0.11888173580541372 1.0 0.0 -52.3847318621302 1.636282292205417
0.09147203338667254 0.11888173580541372 1.0 0.0 -52.29325982874353 1.7551640280108307 0.09147203338666543 0.11888173580541372
1.0 0.0 -52.201787795356864 1.8740457638162444 0.09147203338667254 0.11888173580541372 1.0 0.0
-52.11031576197019 1.9929274996216582 0.09147203338666543 0.11888173580541395 1.0 0.0 -52.018843728583526 2.111809235427072
0.09147203338667254 0.1188817358054135 1.0 0.0 -51.927371695196854 2.2306909712324856 0.09147203338666543 0.11888173580541395
1.0 0.0 -51.83589966181019 2.3495727070378996 0.1104578502858331 0.10148430080673831 1.0 0.0
-51.725441811524355 2.451057007844638 0.1104578502858331 0.10148430080673831 1.0 0.0 -51.61498396123852 2.552541308651376
0.1104578502858331 0.10148430080673831 1.0 0.0 -51.50452611095269 2.6540256094581145 0.1104578502858331 0.10148430080673831
1.0 0.0 -51.394068260666856 2.755509910264853 0.14826164823404753 0.02277023633875208 1.0 0.0
-51.24580661243281 2.778280146603605 0.12558558455710056 -0.08202597729653638 1.0 0.0 -51.12022102787571 2.6962541693070685
0.12558558455709345 -0.08202597729653682 1.0 0.0 -50.994635443318614 2.6142281920105317 0.08395597473647598 -0.12430363754149809
1.0 0.0 -50.91067946858214 2.4899245544690336 0.08395597473647598 -0.12430363754149765 1.0 0.0
-50.82672349384566 2.365620916927536 0.022652877760378942 -0.14827962479441714 1.0 0.0 -50.80407061608528 2.217341292133119
0.022652877760386048 -0.14827962479441759 1.0 0.0 -50.7814177383249 2.0690616673387012 0.022652877760378942 -0.14827962479441736
00000000: e4b1 5a11 1c0b 4bc0 b5a4 468b 5530 e63f
00000010: 00dc cdd4 0131 af3f 1ccc b307 918b c13f
00000020: 0000 0000 0000 f03f 0000 0000 0000 0000
00000030: 6d7e e5d0 4f03 4bc0 bc97 33cd 3993 ea3f
00000040: 0018 03e9 63bf a63f 7c4f 1f51 a556 c23f
00000050: 0000 0000 0000 f03f 0000 0000 0000 0000
00000060: a73d ebf7 9ffd 4ac0 9b6b 7b21 e328 ef3f
00000070: 0018 03e9 63bf a63f 7c4f 1f51 a556 c23f
00000080: 0000 0000 0000 f03f 0000 0000 0000 0000
00000090: e1fc f01e f0f7 4ac0 bd9f e13a 46df f13f
000000a0: 0018 03e9 63bf a63f 784f 1f51 a556 c23f
000000b0: 0000 0000 0000 f03f 0000 0000 0000 0000
000000c0: 1bbc f645 40f2 4ac0 ac89 05e5 1a2a f43f
000000d0: 0018 03e9 63bf a63f 804f 1f51 a556 c23f
000000e0: 0000 0000 0000 f03f 0000 0000 0000 0000
000000f0: 557b fc6c 90ec 4ac0 9c73 298f ef74 f63f
00000100: 0048 8e91 e7f7 9b3f 1813 1ee7 07e1 c23f
00000110: 0000 0000 0000 f03f 0000 0000 0000 0000
00000120: 8c49 0a70 11e9 4ac0 ff35 0d8c 10d1 f83f
00000130: 0048 8e91 e7f7 9b3f 1813 1ee7 07e1 c23f
00000140: 0000 0000 0000 f03f 0000 0000 0000 0000
00000150: c317 1873 92e5 4ac0 62f8 f088 312d fb3f
00000160: 0048 8e91 e7f7 9b3f 2013 1ee7 07e1 c23f
00000170: 0000 0000 0000 f03f 0000 0000 0000 0000
00000180: fae5 2576 13e2 4ac0 c6ba d485 5289 fd3f
00000190: 0048 8e91 e7f7 9b3f 1813 1ee7 07e1 c23f
000001a0: 0000 0000 0000 f03f 0000 0000 0000 0000
000001b0: 31b4 3379 94de 4ac0 297d b882 73e5 ff3f
000001c0: 0048 8e91 e7f7 9b3f 1813 1ee7 07e1 c23f
000001d0: 0000 0000 0000 f03f 0000 0000 0000 0000
000001e0: 6882 417c 15db 4ac0 c61f ce3f ca20 0140
000001f0: 0024 d157 a77f b13f 60ee 2cf5 3217 c13f
00000200: 0000 0000 0000 f03f 0000 0000 0000 0000
00000210: d699 95a8 55d2 4ac0 acee 206f 3d32 0240
00000220: 0026 d157 a77f b13f 70ee 2cf5 3217 c13f
00000230: 0000 0000 0000 f03f 0000 0000 0000 0000
00000240: 43b1 e9d4 95c9 4ac0 93bd 739e b043 0340
00000250: 0084 3626 71d6 c23f 80a7 761c 22b3 9dbf
00000260: 0000 0000 0000 f03f 0000 0000 0000 0000
00000270: bf7a c363 bfb6 4ac0 44d0 3a5a 4a08 0340
00000280: 0072 471e 9ea5 bc3f e02c 4be8 5b92 b9bf
00000290: 0000 0000 0000 f03f 0000 0000 0000 0000
000002a0: 0657 b494 6ca8 4ac0 dd76 f87a b73b 0240
000002b0: 0002 575b 4cec b23f b024 78b1 f5b4 c0bf
000002c0: 0000 0000 0000 f03f 0000 0000 0000 0000
000002d0: 85ab 866e f69e 4ac0 92f4 e01f 6830 0140
000002e0: 0000 575b 4cec b23f b024 78b1 f5b4 c0bf
000002f0: 0000 0000 0000 f03f 0000 0000 0000 0000
00000300: 0500 5948 8095 4ac0 4772 c9c4 1825 0040
00000310: 0002 575b 4cec b23f b024 78b1 f5b4 c0bf
00000320: 0000 0000 0000 f03f 0000 0000 0000 0000
00000330: 8454 2b22 0a8c 4ac0 f8df 63d3 9233 fe3f
00000340: 0000 575b 4cec b23f b024 78b1 f5b4 c0bf
00000350: 0000 0000 0000 f03f 0000 0000 0000 0000
00000360: 04a9 fdfb 9382 4ac0 62db 341d f41c fc3f
00000370: 0002 575b 4cec b23f b024 78b1 f5b4 c0bf
00000380: 0000 0000 0000 f03f 0000 0000 0000 0000
00000390: 83fd cfd5 1d79 4ac0 ccd6 0567 5506 fa3f
000003a0: 00f0 7897 297a b83f e024 c2c7 6d96 bdbf
000003b0: 0000 0000 0000 f03f 0000 0000 0000 0000
000003c0: 0b41 04c1 e06c 4ac0 7eb4 898a ee2c f83f
000003d0: 00f0 7897 297a b83f e024 c2c7 6d96 bdbf
000003e0: 0000 0000 0000 f03f 0000 0000 0000 0000
000003f0: 9384 38ac a360 4ac0 3092 0dae 8753 f63f
00000400: 00f0 7897 297a b83f e024 c2c7 6d96 bdbf
00000410: 0000 0000 0000 f03f 0000 0000 0000 0000
00000420: 1bc8 6c97 6654 4ac0 e26f 91d1 207a f43f
00000430: 0098 0b9e 5772 b73f a04a cae5 2769 be3f
00000440: 0000 0000 0000 f03f 0000 0000 0000 0000
00000450: 4fc2 9d6b ad48 4ac0 8c14 ee4f b360 f63f
00000460: 0098 0b9e 5772 b73f a04a cae5 2769 be3f
00000470: 0000 0000 0000 f03f 0000 0000 0000 0000
00000480: 83bc ce3f f43c 4ac0 36b9 4ace 4547 f83f
00000490: 00f4 e40f b66a b73f 303f 608f 086f be3f
000004a0: 0000 0000 0000 f03f 0000 0000 0000 0000
000004b0: 09ca c6e4 3e31 4ac0 29bd 4057 362e fa3f
000004c0: 00f6 e40f b66a b73f 303f 608f 086f be3f
000004d0: 0000 0000 0000 f03f 0000 0000 0000 0000
000004e0: 8ed7 be89 8925 4ac0 1cc1 36e0 2615 fc3f
000004f0: 00f4 e40f b66a b73f 303f 608f 086f be3f
00000500: 0000 0000 0000 f03f 0000 0000 0000 0000
00000510: 14e5 b62e d419 4ac0 0fc5 2c69 17fc fd3f
00000520: 00f6 e40f b66a b73f 303f 608f 086f be3f
00000530: 0000 0000 0000 f03f 0000 0000 0000 0000
00000540: 99f2 aed3 1e0e 4ac0 02c9 22f2 07e3 ff3f
00000550: 00f4 e40f b66a b73f 403f 608f 086f be3f
00000560: 0000 0000 0000 f03f 0000 0000 0000 0000
00000570: 1f00 a778 6902 4ac0 7b66 8c3d fce4 0040
00000580: 00f6 e40f b66a b73f 203f 608f 086f be3f
00000590: 0000 0000 0000 f03f 0000 0000 0000 0000
000005a0: a40d 9f1d b4f6 49c0 7468 0782 74d8 0140
000005b0: 00f4 e40f b66a b73f 403f 608f 086f be3f
000005c0: 0000 0000 0000 f03f 0000 0000 0000 0000
000005d0: 2a1b 97c2 feea 49c0 6e6a 82c6 eccb 0240
000005e0: 006a 9036 f746 bc3f e0b9 0509 e0fa b93f
000005f0: 0000 0000 0000 f03f 0000 0000 0000 0000
00000600: f5d2 fb46 dbdc 49c0 3d98 cac6 c39b 0340
00000610: 006a 9036 f746 bc3f e0b9 0509 e0fa b93f
00000620: 0000 0000 0000 f03f 0000 0000 0000 0000
00000630: c08a 60cb b7ce 49c0 0cc6 12c7 9a6b 0440
00000640: 006a 9036 f746 bc3f e0b9 0509 e0fa b93f
00000650: 0000 0000 0000 f03f 0000 0000 0000 0000
00000660: 8b42 c54f 94c0 49c0 dbf3 5ac7 713b 0540
00000670: 006a 9036 f746 bc3f e0b9 0509 e0fa b93f
00000680: 0000 0000 0000 f03f 0000 0000 0000 0000
00000690: 56fa 29d4 70b2 49c0 aa21 a3c7 480b 0640
000006a0: 0049 35d9 3cfa c23f 80a9 96b1 1451 973f
000006b0: 0000 0000 0000 f03f 0000 0000 0000 0000
000006c0: 0dc5 5097 769f 49c0 fd4e 06f1 ea39 0640
000006d0: 00ca 423d 3013 c03f 603b e989 a7ff b4bf
000006e0: 0000 0000 0000 f03f 0000 0000 0000 0000
000006f0: 4382 1367 638f 49c0 2205 b7b4 ed91 0540
00000700: 00c9 423d 3013 c03f 803b e989 a7ff b4bf
00000710: 0000 0000 0000 f03f 0000 0000 0000 0000
00000720: 7a3f d636 507f 49c0 46bb 6778 f0e9 0440
00000730: 0006 cc85 237e b53f 00bb 03fa 5cd2 bfbf
00000740: 0000 0000 0000 f03f 0000 0000 0000 0000
00000750: 7759 1325 9174 49c0 6e9d 9790 5deb 0340
00000760: 0006 cc85 237e b53f e0ba 03fa 5cd2 bfbf
00000770: 0000 0000 0000 f03f 0000 0000 0000 0000
00000780: 7473 5013 d269 49c0 977f c7a8 caec 0240
00000790: 0080 90e4 5032 973f b0dc 93a5 d3fa c2bf
000007a0: 0000 0000 0000 f03f 0000 0000 0000 0000
000007b0: 64e1 33c9 eb66 49c0 cc41 6e6e 1dbd 0140
000007c0: 0088 90e4 5032 973f c0dc 93a5 d3fa c2bf
000007d0: 0000 0000 0000 f03f 0000 0000 0000 0000
000007e0: 534f 177f 0564 49c0 0004 1534 708d 0040
000007f0: 0080 90e4 5032 973f b8dc 93a5 d3fa c2bf
