data/online/npz-eval/b07/b07-542/b07-542z-03.npz (npz, 31402 bytes, 1 tensors)

x f8 [639, 6]
-28.168277607442583 0.3227901877797821 -0.01094634574673492 0.14960005853873487 1.0 0.0 -28.179223953189318 0.47239024631851695
-0.010946345746738473 0.14960005853873487 1.0 0.0 -28.190170298936057 0.6219903048572518 -0.003148681912470863 0.14996694903282548
1.0 0.0 -28.193318980848527 0.7719572538900773 0.008078152422562823 0.14978232022985172 1.0 0.0
-28.185240828425965 0.921739574119929 0.00807815242255927 0.14978232022985183 1.0 0.0 -28.177162676003405 1.0715218943497808
0.008078152422562823 0.14978232022985183 1.0 0.0 -28.169084523580842 1.2213042145796327 0.00807815242255927 0.1497823202298516
1.0 0.0 -28.161006371158283 1.3710865348094843 0.008078152422562823 0.14978232022985205 1.0 0.0
-28.15292821873572 1.5208688550393363 0.008078152422562823 0.1497823202298516 1.0 0.0 -28.144850066313158 1.670651175269188
0.0017644551027622413 0.14998962196828924 1.0 0.0 -28.143085611210395 1.8206407972374772 0.0017644551027622413 0.14998962196828947
1.0 0.0 -28.141321156107633 1.9706304192057666 0.00015878067105745686 0.14999991596230466 1.0 0.0
-28.141162375436576 2.1206303351680713 0.00015878067105390414 0.14999991596230489 1.0 0.0 -28.14100359476552 2.270630251130376
0.00015878067105745686 0.14999991596230489 1.0 0.0 -28.140844814094464 2.420630167092681 -0.010438577983705954 0.14963634615185617
1.0 0.0 -28.15128339207817 2.5702665132445373 -0.010438577983709507 0.14963634615185573 1.0 0.0
-28.16172197006188 2.719902859396393 -0.006555637380703416 0.09397464155331825 0.0 1.0 -29.041536997668203 2.197999825737958
0.008808303292720865 -0.14974115597624937 1.0 0.0 -29.032728694375482 2.0482586697617085 0.14615627427907185 -0.033739346301624895
1.0 0.0 -28.88657242009641 2.0145193234600836 0.14615627427907185 -0.03373934630162445 1.0 0.0
-28.74041614581734 1.980779977158459 0.1461562742790683 -0.033739346301624895 1.0 0.0 -28.59425987153827 1.9470406308568342
0.14615627427907185 -0.03373934630162467 1.0 0.0 -28.4481035972592 1.9133012845552095 0.14615627427907185 -0.03373934630162467
1.0 0.0 -28.301947322980126 1.8795619382535849 0.14615627427907185 -0.03373934630162467 1.0 0.0
-28.155791048701055 1.8458225919519602 0.13981019082665824 -0.054342529762732905 1.0 0.0 -28.015980857874396 1.7914800621892273
0.13981019082665824 -0.05434252976273313 1.0 0.0 -27.876170667047738 1.7371375324264942 0.1492774391010272 -0.014705311130306153
1.0 0.0 -27.72689322794671 1.722432221296188 0.1492774391010272 -0.014705311130306375 1.0 0.0
-27.577615788845684 1.7077269101658816 0.061984673045408556 -0.006106106240381992 0.0 1.0 -27.138750747387114 0.552595290470735
0.013261475814431378 0.14941262750926787 1.0 0.0 -27.125489271572683 0.7020079179800028 0.013261475814431378 0.14941262750926787
1.0 0.0 -27.11222779575825 0.8514205454892707 0.013261475814434931 0.14941262750926776 1.0 0.0
-27.098966319943816 1.0008331729985385 0.013261475814431378 0.14941262750926798 1.0 0.0 -27.085704844129385 1.1502458005078064
0.013261475814431378 0.14941262750926776 1.0 0.0 -27.072443368314953 1.2996584280170742 0.013261475814431378 0.14941262750926798
1.0 0.0 -27.059181892500522 1.4490710555263422 0.013261475814434931 0.14941262750926798 1.0 0.0
-27.045920416686087 1.5984836830356102 0.013261475814431378 0.14941262750926776 1.0 0.0 -27.032658940871656 1.747896310544878
0.013261475814431378 0.14941262750926776 1.0 0.0 -27.019397465057224 1.8973089380541457 0.013261475814431378 0.14941262750926798
1.0 0.0 -27.006135989242793 2.0467215655634137 0.04782688677371283 0.14217098473856904 1.0 0.0
-26.95830910246908 2.1888925503019827 0.11693281662265775 0.0939506061539368 1.0 0.0 -26.841376285846422 2.2828431564559195
0.1169328166226542 0.0939506061539368 1.0 0.0 -26.72444346922377 2.3767937626098563 0.11024713823489662 -0.1017131678349239
00000000: 729d c43d 142b 3cc0 9cf7 fe2c 98a8 d43f
00000010: 0088 f1a7 096b 86bf 96a7 733f 1826 c33f
00000020: 0000 0000 0000 f03f 0000 0000 0000 0000
00000030: a39b f99e e12d 3cc0 67cb b84c a43b de3f
00000040: 0090 f1a7 096b 86bf 96a7 733f 1826 c33f
00000050: 0000 0000 0000 f03f 0000 0000 0000 0000
00000060: d599 2e00 af30 3cc0 994f 3936 58e7 e33f
00000070: 00c0 ddba 43cb 69bf 58d7 c9f2 1d32 c33f
00000080: 0000 0000 0000 f03f 0000 0000 0000 0000
00000090: c370 4c5a 7d31 3cc0 6fc5 ebb2 dfb3 e83f
000000a0: 0070 bc43 478b 803f c4fe 732b 112c c33f
000000b0: 0000 0000 0000 f03f 0000 0000 0000 0000
000000c0: 35f9 63f1 6b2f 3cc0 20c5 c8fd e37e ed3f
000000d0: 0068 bc43 478b 803f c8fe 732b 112c c33f
000000e0: 0000 0000 0000 f03f 0000 0000 0000 0000
000000f0: a881 7b88 5a2d 3cc0 69e2 5224 f424 f13f
00000100: 0070 bc43 478b 803f c8fe 732b 112c c33f
00000110: 0000 0000 0000 f03f 0000 0000 0000 0000
00000120: 1a0a 931f 492b 3cc0 4262 c149 768a f33f
00000130: 0068 bc43 478b 803f c0fe 732b 112c c33f
00000140: 0000 0000 0000 f03f 0000 0000 0000 0000
00000150: 8d92 aab6 3729 3cc0 1ae2 2f6f f8ef f53f
00000160: 0070 bc43 478b 803f d0fe 732b 112c c33f
00000170: 0000 0000 0000 f03f 0000 0000 0000 0000
00000180: ff1a c24d 2627 3cc0 f461 9e94 7a55 f83f
00000190: 0070 bc43 478b 803f c0fe 732b 112c c33f
000001a0: 0000 0000 0000 f03f 0000 0000 0000 0000
000001b0: 71a3 d9e4 1425 3cc0 cce1 0cba fcba fa3f
000001c0: 0040 8b3d a9e8 5c3f 28ee 8b24 dc32 c33f
000001d0: 0000 0000 0000 f03f 0000 0000 0000 0000
000001e0: 44ad 3442 a124 3cc0 915f 9e3e 5821 fd3f
000001f0: 0040 8b3d a9e8 5c3f 30ee 8b24 dc32 c33f
00000200: 0000 0000 0000 f03f 0000 0000 0000 0000
00000210: 17b7 8f9f 2d24 3cc0 57dd 2fc3 b387 ff3f
00000220: 0000 3094 cbcf 243f 08fd ba7e 3233 c33f
00000230: 0000 0000 0000 f03f 0000 0000 0000 0000
00000240: ffec a937 2324 3cc0 7c9e 8309 0df7 0040
00000250: 0000 2e94 cbcf 243f 10fd ba7e 3233 c33f
00000260: 0000 0000 0000 f03f 0000 0000 0000 0000
00000270: e822 c4cf 1824 3cc0 4d4e 6f31 402a 0240
00000280: 0000 3094 cbcf 243f 10fd ba7e 3233 c33f
00000290: 0000 0000 0000 f03f 0000 0000 0000 0000
000002a0: d058 de67 0e24 3cc0 1efe 5a59 735d 0340
000002b0: 0040 7438 d260 85bf b0f0 81a6 4827 c33f
000002c0: 0000 0000 0000 f03f 0000 0000 0000 0000
000002d0: 5867 2582 ba26 3cc0 291d c3e3 e78f 0440
000002e0: 0048 7438 d260 85bf a0f0 81a6 4827 c33f
000002f0: 0000 0000 0000 f03f 0000 0000 0000 0000
00000300: e175 6c9c 6629 3cc0 333c 2b6e 5cc2 0540
00000310: 0010 7982 15da 7abf 80f4 1fdc b80e b83f
00000320: 0000 0000 0000 0000 0000 0000 0000 f03f
00000330: 188f 2e2b a20a 3dc0 0d44 c1ee 8095 0140
00000340: 0098 9a74 160a 823f c040 e4db b72a c3bf
00000350: 0000 0000 0000 f03f 0000 0000 0000 0000
00000360: c5fb 5fe8 6008 3dc0 0100 0371 d562 0040
00000370: 0021 11b1 3fb5 c23f 4065 e899 4846 a1bf
00000380: 0000 0000 0000 f03f 0000 0000 0000 0000
00000390: 83d9 fd68 f6e2 3cc0 6c5e 9b4e bc1d 0040
000003a0: 0021 11b1 3fb5 c23f 0065 e899 4846 a1bf
000003b0: 0000 0000 0000 f03f 0000 0000 0000 0000
000003c0: 41b7 9be9 8bbd 3cc0 b079 6758 46b1 ff3f
000003d0: 8020 11b1 3fb5 c23f 4065 e899 4846 a1bf
000003e0: 0000 0000 0000 f03f 0000 0000 0000 0000
000003f0: 0095 396a 2198 3cc0 8636 9813 1427 ff3f
00000400: 0021 11b1 3fb5 c23f 2065 e899 4846 a1bf
00000410: 0000 0000 0000 f03f 0000 0000 0000 0000
00000420: be72 d7ea b672 3cc0 5df3 c8ce e19c fe3f
00000430: 0021 11b1 3fb5 c23f 2065 e899 4846 a1bf
00000440: 0000 0000 0000 f03f 0000 0000 0000 0000
00000450: 7c50 756b 4c4d 3cc0 34b0 f989 af12 fe3f
00000460: 0021 11b1 3fb5 c23f 2065 e899 4846 a1bf
00000470: 0000 0000 0000 f03f 0000 0000 0000 0000
00000480: 3a2e 13ec e127 3cc0 0b6d 2a45 7d88 fd3f
00000490: 00bf 9fe2 4ce5 c13f c0c6 39b8 c8d2 abbf
000004a0: 0000 0000 0000 f03f 0000 0000 0000 0000
000004b0: bcee 4d52 1704 3cc0 d59e 68ff e6a9 fc3f
000004c0: 00bf 9fe2 4ce5 c13f e0c6 39b8 c8d2 abbf
000004d0: 0000 0000 0000 f03f 0000 0000 0000 0000
000004e0: 3eaf 88b8 4ce0 3bc0 9ed0 a6b9 50cb fb3f
000004f0: 001a 7ceb 851b c33f 00af 0e73 d11d 8ebf
00000500: 0000 0000 0000 f03f 0000 0000 0000 0000
00000510: 0ab7 b1ac 15ba 3bc0 40b3 c016 158f fb3f
00000520: 001a 7ceb 851b c33f 80af 0e73 d11d 8ebf
00000530: 0000 0000 0000 f03f 0000 0000 0000 0000
00000540: d6be daa0 de93 3bc0 e195 da73 d952 fb3f
00000550: 00a4 2a7f 74bc af3f 00c5 bb69 b702 79bf
00000560: 0000 0000 0000 0000 0000 0000 0000 f03f
00000570: be52 422b 8523 3bc0 8ada 8f51 dcae e13f
00000580: 0080 5b27 d528 8b3f 8c80 61f6 f31f c33f
00000590: 0000 0000 0000 f03f 0000 0000 0000 0000
000005a0: 4e67 9d10 2020 3bc0 ad3a 284f d976 e63f
000005b0: 0080 5b27 d528 8b3f 8c80 61f6 f31f c33f
000005c0: 0000 0000 0000 f03f 0000 0000 0000 0000
000005d0: de7b f8f5 ba1c 3bc0 d09a c04c d63e eb3f
000005e0: 0088 5b27 d528 8b3f 8880 61f6 f31f c33f
000005f0: 0000 0000 0000 f03f 0000 0000 0000 0000
00000600: 6d90 53db 5519 3bc0 797d 2ca5 6903 f03f
00000610: 0080 5b27 d528 8b3f 9080 61f6 f31f c33f
00000620: 0000 0000 0000 f03f 0000 0000 0000 0000
00000630: fda4 aec0 f015 3bc0 8bad f823 6867 f23f
00000640: 0080 5b27 d528 8b3f 8880 61f6 f31f c33f
00000650: 0000 0000 0000 f03f 0000 0000 0000 0000
00000660: 8db9 09a6 8b12 3bc0 9cdd c4a2 66cb f43f
00000670: 0080 5b27 d528 8b3f 9080 61f6 f31f c33f
00000680: 0000 0000 0000 f03f 0000 0000 0000 0000
00000690: 1dce 648b 260f 3bc0 ae0d 9121 652f f73f
000006a0: 0088 5b27 d528 8b3f 9080 61f6 f31f c33f
000006b0: 0000 0000 0000 f03f 0000 0000 0000 0000
000006c0: ace2 bf70 c10b 3bc0 c03d 5da0 6393 f93f
000006d0: 0080 5b27 d528 8b3f 8880 61f6 f31f c33f
000006e0: 0000 0000 0000 f03f 0000 0000 0000 0000
000006f0: 3cf7 1a56 5c08 3bc0 d16d 291f 62f7 fb3f
00000700: 0080 5b27 d528 8b3f 8880 61f6 f31f c33f
00000710: 0000 0000 0000 f03f 0000 0000 0000 0000
00000720: cc0b 763b f704 3bc0 e29d f59d 605b fe3f
00000730: 0080 5b27 d528 8b3f 9080 61f6 f31f c33f
00000740: 0000 0000 0000 f03f 0000 0000 0000 0000
00000750: 5c20 d120 9201 3bc0 fae6 608e af5f 0040
00000760: 000c 2005 c47c a83f e035 f2a8 a832 c23f
00000770: 0000 0000 0000 f03f 0000 0000 0000 0000
00000780: 5690 cebe 53f5 3ac0 580a f018 da82 0140
00000790: 0036 391f 4fef bd3f 60db de9c 250d b83f
000007a0: 0000 0000 0000 f03f 0000 0000 0000 0000
000007b0: 2057 af6f 64d7 3ac0 3301 d745 4343 0240
000007c0: 0035 391f 4fef bd3f 60db de9c 250d b83f
000007d0: 0000 0000 0000 f03f 0000 0000 0000 0000
000007e0: eb1d 9020 75b9 3ac0 0ef8 bd72 ac03 0340
000007f0: 004c 320d 2839 bc3f 406e 6cc9 df09 babf
