data/online/npz-valid/b07/b07-587/b07-587z-06.npz (npz, 34274 bytes, 1 tensors)

x f8 [700, 6]
000000 15 17 89 43 d3 70 33 c0 ba 70 e8 53 62 da f0 bf
       -19.44072362992218 -1.0533164289145547
000010 00 18 a4 22 85 4e 9c 3f c0 64 6d 6c 03 df c2 bf
       0.027643280257528602 -0.1474308280401484
000020 00 00 00 00 00 00 f0 3f 00 00 00 00 00 00 00 00
       1.0 0.0
000030 0f 6e 40 a2 bf 69 33 c0 52 1d 76 c1 42 36 f3 bf
       -19.41308034966465 -1.200747256954703
000040 00 14 a4 22 85 4e 9c 3f c0 64 6d 6c 03 df c2 bf
       0.02764328025752505 -0.1474308280401484
000050 00 00 00 00 00 00 f0 3f 00 00 00 00 00 00 00 00
       1.0 0.0
000060 0a c5 f7 00 ac 62 33 c0 ea c9 03 2f 23 92 f5 bf
       -19.385437069407125 -1.3481780849948515
000070 00 18 a4 22 85 4e 9c 3f c0 64 6d 6c 03 df c2 bf
       0.027643280257528602 -0.1474308280401484
000080 00 00 00 00 00 00 f0 3f 00 00 00 00 00 00 00 00
       1.0 0.0
000090 04 1c af 5f 98 5b 33 c0 82 76 91 9c 03 ee f7 bf
       -19.357793789149596 -1.4956089130349999
0000a0 00 9e 49 b5 76 2f a1 3f 58 32 ec ea 8f b6 c2 bf
       0.03356524432166097 -0.1461963555415362
0000b0 00 00 00 00 00 00 f0 3f 00 00 00 00 00 00 00 00
       1.0 0.0
0000c0 35 77 54 a4 00 53 33 c0 cd fc ee 99 d5 44 fa bf
       -19.324228544827935 -1.641805268576536
0000d0 00 d0 e9 92 51 c8 7d 3f d8 9c 92 00 6c 2d c3 bf
       0.007271116874665751 -0.14982366588558338
0000e0 00 00 00 00 00 00 f0 3f 00 00 00 00 00 00 00 00
       1.0 0.0
0000f0 98 48 3b 1f 24 51 33 c0 68 50 01 1a 83 aa fc bf
       -19.31695742795327 -1.7916289344621195
000100 00 e0 e9 92 51 c8 7d 3f d8 9c 92 00 6c 2d c3 bf
       0.007271116874669303 -0.14982366588558338
000110 00 00 00 00 00 00 f0 3f 00 00 00 00 00 00 00 00
       1.0 0.0
000120 fa 19 22 9a 47 4f 33 c0 03 a4 13 9a 30 10 ff bf
       -19.3096863110786 -1.9414526003477028
000130 00 d0 e9 92 51 c8 7d 3f d8 9c 92 00 6c 2d c3 bf
       0.007271116874665751 -0.14982366588558338
000140 00 00 00 00 00 00 f0 3f 00 00 00 00 00 00 00 00
       1.0 0.0
000150 5d eb 08 15 6b 4d 33 c0 cf fb 12 0d ef ba 00 c0
       -19.302415194203935 -2.091276266233286
000160 00 e0 e9 92 51 c8 7d 3f e0 9c 92 00 6c 2d c3 bf
       0.007271116874669303 -0.1498236658855836
000170 00 00 00 00 00 00 f0 3f 00 00 00 00 00 00 00 00
       1.0 0.0
000180 bf bc ef 8f 8e 4b 33 c0 9d 25 1c cd c5 ed 01 c0
       -19.295144077329265 -2.24109993211887
000190 00 f8 bd 95 72 55 a8 bf b0 95 55 38 f4 35 c2 bf
       -0.047526913432179185 -0.14227154493998517
0001a0 00 00 00 00 00 00 f0 3f 00 00 00 00 00 00 00 00
       1.0 0.0
0001b0 bb 9b 3a 49 b9 57 33 c0 f8 7e a1 10 25 11 03 c0
       -19.342670990761444 -2.383371477058855
0001c0 00 31 c7 b4 0b 1f c3 bf 00 af 79 42 7c ca 8b 3f
       -0.14938494040541883 0.013569803980508777
0001d0 00 00 00 00 00 00 f0 3f 00 00 00 00 00 00 00 00
       1.0 0.0
0001e0 1d 2a a4 60 f7 7d 33 c0 49 05 5f 94 5a f5 02 c0
       -19.492055931166863 -2.369801673078346
0001f0 00 be 0f 0d 1a 09 ae bf 80 07 ff 79 b8 ab c1 3f
       -0.05866319093172123 0.1380529971775637
000200 00 00 00 00 00 00 f0 3f 00 00 00 00 00 00 00 00
       1.0 0.0
000210 fc b1 aa ed fb 8c 33 c0 d1 14 bf 0c 9f da 01 c0
       -19.550719122098585 -2.2317486759007825
000220 00 be 0f 0d 1a 09 ae bf 90 07 ff 79 b8 ab c1 3f
       -0.05866319093172123 0.13805299717756414
000230 00 00 00 00 00 00 f0 3f 00 00 00 00 00 00 00 00
       1.0 0.0
000240 db 39 b1 7a 00 9c 33 c0 58 24 1f 85 e3 bf 00 c0
       -19.609382313030306 -2.0936956787232184
000250 00 be 0f 0d 1a 09 ae bf 88 07 ff 79 b8 ab c1 3f
       -0.05866319093172123 0.13805299717756392
000260 00 00 00 00 00 00 f0 3f 00 00 00 00 00 00 00 00
       1.0 0.0
000270 ba c1 b7 07 05 ab 33 c0 bf 67 fe fa 4f 4a ff bf
       -19.668045503962027 -1.9556426815456545
000280 00 f0 21 d6 96 b0 7e bf 80 e6 46 72 10 2d c3 3f
       -0.007492627339271252 0.14981275157861162
000290 00 00 00 00 00 00 f0 3f 00 00 00 00 00 00 00 00
       1.0 0.0
0002a0 d9 23 25 11 f0 ac 33 c0 ef 8a b5 ec ad e4 fc bf
       -19.6755381313013 -1.8058299299670428
0002b0 00 00 22 d6 96 b0 7e bf 78 e6 46 72 10 2d c3 3f
       -0.007492627339274804 0.1498127515786114
0002c0 00 00 00 00 00 00 f0 3f 00 00 00 00 00 00 00 00
       1.0 0.0
0002d0 f9 85 92 1a db ae 33 c0 20 ae 6c de 0b 7f fa bf
       -19.683030758640573 -1.6560171783884314
0002e0 00 f0 21 d6 96 b0 7e bf 80 e6 46 72 10 2d c3 3f
       -0.007492627339271252 0.14981275157861162
0002f0 00 00 00 00 00 00 f0 3f 00 00 00 00 00 00 00 00
       1.0 0.0
000300 18 e8 ff 23 c6 b0 33 c0 50 d1 23 d0 69 19 f8 bf
       -19.690523385979844 -1.5062044268098198
000310 00 e8 ca 68 55 b4 87 3f 50 e9 9c 9b 8b 24 c3 3f
       0.011574427853123126 0.14955277536666722
000320 00 00 00 00 00 00 f0 3f 00 00 00 00 00 00 00 00
       1.0 0.0
000330 bb ce 52 99 cf ad 33 c0 26 34 b0 5c d8 b4 f5 bf
       -19.67894895812672 -1.3566516514431526
000340 00 e8 ca 68 55 b4 87 3f 50 e9 9c 9b 8b 24 c3 3f
       0.011574427853123126 0.14955277536666722
000350 00 00 00 00 00 00 f0 3f 00 00 00 00 00 00 00 00
       1.0 0.0
000360 5e b5 a5 0e d9 aa 33 c0 fc 96 3c e9 46 50 f3 bf
       -19.667374530273598 -1.2070988760764854
000370 00 e8 ca 68 55 b4 87 3f 58 e9 9c 9b 8b 24 c3 3f
       0.011574427853123126 0.14955277536666745
000380 00 00 00 00 00 00 f0 3f 00 00 00 00 00 00 00 00
       1.0 0.0
000390 01 9c f8 83 e2 a7 33 c0 d1 f9 c8 75 b5 eb f0 bf
       -19.655800102420475 -1.057546100709818
0003a0 00 e8 ca 68 55 b4 87 3f 4c e9 9c 9b 8b 24 c3 3f
       0.011574427853123126 0.1495527753666671
0003b0 00 00 00 00 00 00 f0 3f 00 00 00 00 00 00 00 00
       1.0 0.0
0003c0 a4 82 4b f9 eb a4 33 c0 4f b9 aa 04 48 0e ed bf
       -19.644225674567352 -0.9079933253431508
0003d0 00 e8 ca 68 55 b4 87 3f 50 e9 9c 9b 8b 24 c3 3f
       0.011574427853123126 0.14955277536666722
0003e0 00 00 00 00 00 00 f0 3f 00 00 00 00 00 00 00 00
       1.0 0.0
0003f0 47 69 9e 6e f5 a1 33 c0 fb 7e c3 1d 25 45 e8 bf
       -19.63265124671423 -0.7584405499764836
000400 00 e8 ca 68 55 b4 87 3f 58 e9 9c 9b 8b 24 c3 3f
       0.011574427853123126 0.14955277536666745
000410 00 00 00 00 00 00 f0 3f 00 00 00 00 00 00 00 00
       1.0 0.0
000420 ea 4f f1 e3 fe 9e 33 c0 a5 44 dc 36 02 7c e3 bf
       -19.621076818861106 -0.6088877746098161
000430 00 e8 ca 68 55 b4 87 3f 54 e9 9c 9b 8b 24 c3 3f
       0.011574427853123126 0.14955277536666733
000440 00 00 00 00 00 00 f0 3f 00 00 00 00 00 00 00 00
       1.0 0.0
000450 8d 36 44 59 08 9c 33 c0 a0 14 ea 9f be 65 dd bf
       -19.609502391007982 -0.4593349992431488
000460 00 e8 ca 68 55 b4 87 3f 48 e9 9c 9b 8b 24 c3 3f
       0.011574427853123126 0.149552775366667
000470 00 00 00 00 00 00 f0 3f 00 00 00 00 00 00 00 00
       1.0 0.0
000480 30 1d 97 ce 11 99 33 c0 fc 9f 1b d2 78 d3 d3 bf
       -19.59792796315486 -0.3097822238764818
000490 00 e8 ca 68 55 b4 87 3f 50 e9 9c 9b 8b 24 c3 3f
       0.011574427853123126 0.14955277536666722
0004a0 00 00 00 00 00 00 f0 3f 00 00 00 00 00 00 00 00
       1.0 0.0
0004b0 d3 03 ea 43 1b 96 33 c0 a8 56 9a 08 66 82 c4 bf
       -19.586353535301736 -0.16022944850981458
0004c0 00 e8 ca 68 55 b4 87 3f 50 e9 9c 9b 8b 24 c3 3f
       0.011574427853123126 0.14955277536666722
0004d0 00 00 00 00 00 00 f0 3f 00 00 00 00 00 00 00 00
       1.0 0.0
0004e0 76 ea 3c b9 24 93 33 c0 80 d5 d6 cf a6 dd 85 bf
       -19.574779107448613 -0.010676673143147353
0004f0 00 e8 ca 68 55 b4 87 3f 58 e9 9c 9b 8b 24 c3 3f
       0.011574427853123126 0.14955277536666745
000500 00 00 00 00 00 00 f0 3f 00 00 00 00 00 00 00 00
       1.0 0.0
000510 19 d1 8f 2e 2e 90 33 c0 00 7c 9f 2e b1 c6 c1 3f
       -19.56320467959549 0.1388761022235201
000520 00 c0 7e 35 6c 41 6f 3f 4e f0 9e 16 9c 31 c3 3f
       0.0038153756576875253 0.14995146851095104
000530 00 00 00 00 00 00 f0 3f 00 00 00 00 00 00 00 00
       1.0 0.0
000540 23 25 2e 23 34 8f 33 c0 27 36 9f a2 26 7c d2 3f
       -19.559389303937802 0.28882757073447113
000550 00 a0 7e 35 6c 41 6f 3f 4e f0 9e 16 9c 31 c3 3f
       0.0038153756576839726 0.14995146851095104
000560 00 00 00 00 00 00 f0 3f 00 00 00 00 00 00 00 00
       1.0 0.0
000570 2e 79 cc 17 3a 8e 33 c0 4e ae ee ad f4 14 dc 3f
       -19.55557392828012 0.43877903924542216
000580 00 c0 7e 35 6c 41 6f 3f 4c f0 9e 16 9c 31 c3 3f
       0.0038153756576875253 0.14995146851095098
000590 00 00 00 00 00 00 f0 3f 00 00 00 00 00 00 00 00
       1.0 0.0
0005a0 38 cd 6a 0c 40 8d 33 c0 3a 13 9f 5c e1 d6 e2 3f
       -19.55175855262243 0.5887305077563731
0005b0 00 c0 7e 35 6c 41 6f 3f 50 f0 9e 16 9c 31 c3 3f
       0.0038153756576875253 0.1499514685109511
0005c0 00 00 00 00 00 00 f0 3f 00 00 00 00 00 00 00 00
       1.0 0.0
0005d0 42 21 09 01 46 8c 33 c0 4e cf 46 62 48 a3 e7 3f
       -19.547943176964743 0.7386819762673242
0005e0 00 a0 7e 35 6c 41 6f 3f 4c f0 9e 16 9c 31 c3 3f
       0.0038153756576839726 0.14995146851095098
0005f0 00 00 00 00 00 00 f0 3f 00 00 00 00 00 00 00 00
       1.0 0.0
000600 4d 75 a7 f5 4b 8b 33 c0 61 8b ee 67 af 6f ec 3f
       -19.54412780130706 0.8886334447782752
000610 00 c0 7e 35 6c 41 6f 3f 4c f0 9e 16 9c 31 c3 3f
       0.0038153756576875253 0.14995146851095098
000620 00 00 00 00 00 00 f0 3f 00 00 00 00 00 00 00 00
       1.0 0.0
000630 57 c9 45 ea 51 8a 33 c0 ba 23 cb 36 0b 9e f0 3f
       -19.540312425649372 1.0385849132892262
000640 00 78 e7 61 36 a3 a8 bf d8 e2 73 14 6a 2f c2 3f
       -0.048120212031548704 0.14207197188058873
000650 00 00 00 00 00 00 f0 3f 00 00 00 00 00 00 00 00
       1.0 0.0
000660 13 bd 76 85 a3 96 33 c0 15 a0 59 79 f8 e3 f2 3f
       -19.58843263768092 1.180656885169815
000670 00 78 e7 61 36 a3 a8 bf d8 e2 73 14 6a 2f c2 3f
       -0.048120212031548704 0.14207197188058873
000680 00 00 00 00 00 00 f0 3f 00 00 00 00 00 00 00 00
       1.0 0.0
000690 cf b0 a7 20 f5 a2 33 c0 70 1c e8 bb e5 29 f5 3f
       -19.63655284971247 1.3227288570504037
0006a0 00 78 e7 61 36 a3 a8 bf e0 e2 73 14 6a 2f c2 3f
       -0.048120212031548704 0.14207197188058895
0006b0 00 00 00 00 00 00 f0 3f 00 00 00 00 00 00 00 00
       1.0 0.0
0006c0 8b a4 d8 bb 46 af 33 c0 cc 98 76 fe d2 6f f7 3f
       -19.684673061744018 1.4648008289309926
0006d0 00 54 e7 2a b0 0f c2 bf 40 00 cc cb 2b 0e aa 3f
       -0.1411037644853934 0.050889366748379405
0006e0 00 00 00 00 00 00 f0 3f 00 00 00 00 00 00 00 00
       1.0 0.0
0006f0 33 73 2e 1c 66 d3 33 c0 ce f8 d4 5c 44 40 f8 3f
       -19.82577682622941 1.515690195679372
000700 00 dc 9f 04 22 e6 b6 bf 90 ba cd 71 45 d3 be bf
       -0.08944904911901119 -0.12041124370964895
000710 00 00 00 00 00 00 f0 3f 00 00 00 00 00 00 00 00
       1.0 0.0
000720 0f 13 33 3e 4c ea 33 c0 25 1d b8 05 10 53 f6 3f
       -19.915225875348423 1.395278951969723
000730 00 dd 9f 04 22 e6 b6 bf 90 ba cd 71 45 d3 be bf
       -0.08944904911901475 -0.12041124370964895
000740 00 00 00 00 00 00 f0 3f 00 00 00 00 00 00 00 00
       1.0 0.0
000750 ec b2 37 60 32 01 34 c0 7c 41 9b ae db 65 f4 3f
       -20.004674924467437 1.2748677082600741
000760 00 70 67 ac aa c2 91 bf d0 67 59 5d 3b 12 c3 bf
       -0.017344157002170846 -0.1489938932234609
000770 00 00 00 00 00 00 f0 3f 00 00 00 00 00 00 00 00
       1.0 0.0
000780 c8 cc e2 0a a3 05 34 c0 82 14 f0 42 94 03 f2 3f
       -20.022019081469608 1.1258738150366132
000790 00 7a 5a 87 f7 25 a0 3f f8 eb 3c 89 51 c5 c2 bf
       0.031539664528498434 -0.146646682749491
0007a0 00 00 00 00 00 00 f0 3f 00 00 00 00 00 00 00 00
       1.0 0.0
0007b0 8b 1f 1f 0f 90 fd 33 c0 06 ee 90 23 d4 55 ef 3f
       -19.99047941694111 0.9792271322871222
0007c0 00 78 5a 87 f7 25 a0 3f f8 eb 3c 89 51 c5 c2 bf
       0.03153966452849488 -0.146646682749491
0007d0 00 00 00 00 00 00 f0 3f 00 00 00 00 00 00 00 00
       1.0 0.0
0007e0 4f 72 5b 13 7d f5 33 c0 08 b3 41 c1 7f a4 ea 3f
       -19.958939752412615 0.8325804495376312
0007f0 00 72 92 00 a4 94 b0 3f 68 5c a0 db 63 51 c1 bf
       0.0647680760761844 -0.13529632781930734
