data/online/npz-valid/b07/b07-587/b07-587z-03.npz (npz, 38714 bytes, 1 tensors)

x f8 [791, 6]
0	0xc032bdbdf69b55ba	-18.741179860042145
1	0xc001132edc311f0c	-2.134366722344458
2	0xbfb7d5c21afcb600	-0.09310544165483492
3	0xbfbe1b7bec31bd20	-0.11760687366926392
4	0x3ff0000000000000	1.0
5	0x0000000000000000	0.0
6	0xc032d593b8b65270	-18.83428530169698
7	0xc002040abb92acf5	-2.251973596013722
8	0xbf8f43817b68e800	-0.015265475824993047
9	0x3fc319ae1db68600	0.14922119570569237
10	0x3ff0000000000000	1.0
11	0x0000000000000000	0.0
12	0xc032d97c28e5bf8d	-18.849550777521973
13	0xc000d26fd9b74495	-2.1027524003080296
14	0xbf8f43817b68f000	-0.0152654758249966
15	0x3fc319ae1db685f8	0.14922119570569214
16	0x3ff0000000000000	1.0
17	0x0000000000000000	0.0
18	0xc032dd6499152cab	-18.86481625334697
19	0xbfff41a9efb7b86b	-1.9535312046023374
20	0xbf8f43817b68e800	-0.015265475824993047
21	0x3fc319ae1db68600	0.14922119570569237
22	0x3ff0000000000000	1.0
23	0x0000000000000000	0.0
24	0xc032e14d094499c8	-18.880081729171962
25	0xbffcde742c00e7ab	-1.804310008896645
26	0xbf8f43817b68e800	-0.015265475824993047
27	0x3fc319ae1db685f8	0.14922119570569214
28	0x3ff0000000000000	1.0
29	0x0000000000000000	0.0
30	0xc032e535797406e5	-18.895347204996956
31	0xbffa7b3e684a16ec	-1.655088813190953
32	0xbf8f43817b68f000	-0.0152654758249966
33	0x3fc319ae1db68600	0.14922119570569237
34	0x3ff0000000000000	1.0
35	0x0000000000000000	0.0
36	0xc032e91de9a37403	-18.910612680821952
37	0xbff81808a493462c	-1.5058676174852605
38	0xbf8f43817b68e800	-0.015265475824993047
39	0x3fc319ae1db68600	0.14922119570569237
40	0x3ff0000000000000	1.0
41	0x0000000000000000	0.0
42	0xc032ed0659d2e120	-18.925878156646945
43	0xbff5b4d2e0dc756c	-1.3566464217795682
44	0xbf8f43817b68e800	-0.015265475824993047
45	0x3fc319ae1db685f8	0.14922119570569214
46	0x3ff0000000000000	1.0
47	0x0000000000000000	0.0
48	0xc032f0eeca024e3d	-18.941143632471938
49	0xbff3519d1d25a4ad	-1.207425226073876
50	0x3f85b3b637782800	0.010596679275312937
51	0x3fc326eb6d77f720	0.14962523312709042
52	0x3ff0000000000000	1.0
53	0x0000000000000000	0.0
54	0xc032ee38533b5f38	-18.930546953196625
55	0xbff0ecbfaf76a5c9	-1.0577999929467856
56	0x3f85b3b637782800	0.010596679275312937
57	0x3fc326eb6d77f71c	0.1496252331270903
58	0x3ff0000000000000	1.0
59	0x0000000000000000	0.0
60	0xc032eb81dc747033	-18.919950273921312
61	0xbfed0fc4838f4dcb	-0.9081747598196953
62	0x3f85b3b637782800	0.010596679275312937
63	0x3fc326eb6d77f71c	0.1496252331270903
64	0x3ff0000000000000	1.0
65	0x0000000000000000	0.0
66	0xc032e8cb65ad812e	-18.909353594646
67	0xbfe84609a8315004	-0.758549526692605
68	0x3f85b3b637783000	0.01059667927531649
69	0x3fc326eb6d77f720	0.14962523312709042
70	0x3ff0000000000000	1.0
71	0x0000000000000000	0.0
72	0xc032e614eee69228	-18.898756915370683
73	0xbfe37c4eccd3523c	-0.6089242935655146
74	0x3f85b3b637782800	0.010596679275312937
75	0x3fc326eb6d77f71c	0.1496252331270903
76	0x3ff0000000000000	1.0
77	0x0000000000000000	0.0
78	0xc032e35e781fa323	-18.88816023609537
79	0xbfdd6527e2eaa8ea	-0.4592990604384243
80	0x3fa449ae3375fc00	0.039624637395711204
81	0x3fc28499d00b9c2a	0.14467165621246753
82	0x3ff0000000000000	1.0
83	0x0000000000000000	0.0
84	0xc032d939a105e825	-18.84853559869966
85	0xbfd422dafae4dad5	-0.31462740422595675
86	0x3fa449ae3375fc00	0.039624637395711204
87	0x3fc28499d00b9c2a	0.14467165621246753
88	0x3ff0000000000000	1.0
89	0x0000000000000000	0.0
90	0xc032cf14c9ec2d27	-18.808910961303948
91	0xbfc5c11c25be1980	-0.16995574801348923
92	0x3fb68d2dcdc54200	0.08809171937651428
93	0x3fbf14948b640030	0.12140777972308636
94	0x3ff0000000000000	1.0
95	0x0000000000000000	0.0
96	0xc032b8879c1e67e5	-18.720819241927433
97	0xbfa8db47803065a0	-0.048547968290402865
98	0x3fc2cca18c94ba80	0.1468698440962335
99	0x3f9f3716b1d91e34	0.030483584027278535
100	0x3ff0000000000000	1.0
101	0x0000000000000000	0.0
102	0xc03292ee59053e70	-18.5739493978312
103	0xbf927f784e87ad0c	-0.01806438426312433
104	0x3fbe8c460fbe6f00	0.11932790645954228
105	0xbfb744841d90f106	-0.09088922235327254
106	0x3ff0000000000000	1.0
107	0x0000000000000000	0.0
108	0xc032746212f58001	-18.454621491371658
109	0xbfbbe4623132dc49	-0.10895360661639687
110	0x3fb2f801ece71100	0.07409679445033035
111	0xbfc0b1a389d27928	-0.13042110662076678
112	0x3ff0000000000000	1.0
113	0x0000000000000000	0.0
114	0xc032616a110898f0	-18.380524696921327
115	0xbfcea3d4a26be74c	-0.23937471323716364
116	0x3fb2f801ece71100	0.07409679445033035
117	0xbfc0b1a389d27928	-0.13042110662076678
118	0x3ff0000000000000	1.0
119	0x0000000000000000	0.0
120	0xc0324e720f1bb1df	-18.306427902470997
121	0xbfd7aabc161f303a	-0.3697958198579304
122	0x3f722d7f8276f000	0.00443792160461598
123	0xbf7ffed4e79f8840	-0.007811385783471236
124	0x0000000000000000	0.0
125	0x3ff0000000000000	1.0
126	0xc032dddd9b06b462	-18.866662682663794
127	0xbff2fdd5bc1e60af	-1.186971411551024
128	0x3fc332b669b0b180	0.14998512421278676
129	0x3f614e29d6418600	0.0021124665382081798
130	0x3ff0000000000000	1.0
131	0x0000000000000000	0.0
132	0xc032b7782e3352ff	-18.716677558451007
133	0xbff2f52ea7333fec	-1.1848589450128157
134	0x3fc332b669b0b180	0.14998512421278676
135	0x3f614e29d6418600	0.0021124665382081798
136	0x3ff0000000000000	1.0
137	0x0000000000000000	0.0
138	0xc0329112c15ff19c	-18.56669243423822
139	0xbff2ec8792481f29	-1.1827464784746076
140	0x3fc29f8a38003980	0.14549377188127366
141	0x3f60c980327acc00	0.0020492080546659075
142	0x0000000000000000	0.0
143	0x3ff0000000000000	1.0
144	0xc031390be454f604	-17.22283770632022
145	0xbff2e422d22ee1c3	-1.1806972704199417
146	0xbfb769b35eae2800	-0.09145661412745199
147	0xbfbe6fcf94af34b0	-0.11889359836569002
148	0x3ff0000000000000	1.0
149	0x0000000000000000	0.0
150	0xc031507597b3a42c	-17.314294320447672
151	0xbff4cb1fcb79d50e	-1.2995908687856317
152	0xbfb769b35eae2900	-0.09145661412745554
153	0xbfbe6fcf94af34c0	-0.11889359836569025
154	0x3ff0000000000000	1.0
155	0x0000000000000000	0.0
156	0xc03167df4b125255	-17.405750934575128
157	0xbff6b21cc4c4c85a	-1.418484467151322
158	0xbfc2ec1baab53800	-0.1478304465803717
159	0xbf9a079c70613cc0	-0.02541965900337284
160	0x3ff0000000000000	1.0
161	0x0000000000000000	0.0
162	0xc0318db78267bcc5	-17.5535813811555
163	0xbff71a3b36864d4d	-1.4439041261546948
164	0xbfc23e4cfd5dad00	-0.1425262677324568
165	0x3fa7f09911337320	0.046757491445282406
166	0x3ff0000000000000	1.0
167	0x0000000000000000	0.0
168	0xc031b2341c62781f	-17.696107648887956
169	0xbff65ab66dfcb1b4	-1.3971466347094124
170	0xbfbc1e7e54a99c00	-0.1098402935691496
171	0x3fba26a8a3e21c10	0.10215238572173768
172	0x3ff0000000000000	1.0
173	0x0000000000000000	0.0
174	0xc031ce529ab721bb	-17.805947942457106
175	0xbff4b84be3be8ff3	-1.2949942489876747
176	0xbfb328a4ac958400	-0.07483891690709754
177	0x3fc0a3bb2e28ad80	0.12999667886593258
178	0x3ff0000000000000	1.0
179	0x0000000000000000	0.0
180	0xc031e17b3f63b73f	-17.880786859364203
181	0xbff2a3d47df97a43	-1.164997570121742
182	0xbfb328a4ac958500	-0.0748389169071011
183	0x3fc0a3bb2e28ad80	0.12999667886593258
184	0x3ff0000000000000	1.0
185	0x0000000000000000	0.0
186	0xc031f4a3e4104cc4	-17.955625776271305
187	0xbff08f5d18346493	-1.0350008912558095
188	0xbf9a9e5487018400	-0.02599460672388787
189	0x3fc2e8d4ae2d4da8	0.14773043160185506
190	0x3ff0000000000000	1.0
191	0x0000000000000000	0.0
192	0xc031fb4b79320d25	-17.981620382995192
193	0xbfec648504dd75bc	-0.8872704596539545
194	0xbf9a9e5487018400	-0.02599460672388787
195	0x3fc2e8d4ae2d4da4	0.14773043160185495
196	0x3ff0000000000000	1.0
197	0x0000000000000000	0.0
198	0xc03201f30e53cd86	-18.00761498971908
199	0xbfe7aa4fd9522253	-0.7395400280520995
200	0xbf9a9e5487018800	-0.025994606723891422
201	0x3fc2e8d4ae2d4da4	0.14773043160185495
202	0x3ff0000000000000	1.0
203	0x0000000000000000	0.0
204	0xc032089aa3758de8	-18.03360959644297
205	0xbfe2f01aadc6ceea	-0.5918095964502446
206	0xbf9a9e5487018400	-0.02599460672388787
207	0x3fc2e8d4ae2d4da8	0.14773043160185506
208	0x3ff0000000000000	1.0
209	0x0000000000000000	0.0
210	0xc0320f4238974e49	-18.05960420316686
211	0xbfdc6bcb0476f700	-0.4440791648483895
212	0x3fa073a44c29e800	0.03213227681858655
213	0x3fc2c119d9e6483c	0.14651797427774393
214	0x3ff0000000000000	1.0
215	0x0000000000000000	0.0
216	0xc032070866713955	-18.027471926348273
217	0xbfd30b3e1783d2e2	-0.29756119057064556
218	0x3fba75b23f03fa00	0.10335840261902973
219	0x3fbbd42b9b015e26	0.10870621237096909
220	0x3ff0000000000000	1.0
221	0x0000000000000000	0.0
222	0xc031ec92b432355b	-17.924113523729243
223	0xbfc82c666186f6b1	-0.18885497819967648
224	0x3fc32ff1c2e2ec80	0.14990064636171851
225	0xbf765bbf7a67c040	-0.005458591424471193
226	0x3ff0000000000000	1.0
227	0x0000000000000000	0.0
228	0xc031c632d0ac6f82	-17.774212877367525
229	0xbfc8df445d5a34b3	-0.19431356962414767
230	0x3fbc467179d23900	0.1104498789229389
231	0xbfb9fb7196250512	-0.10149297633781298
232	0x3ff0000000000000	1.0
233	0x0000000000000000	0.0
234	0xc031a9ec5f329d49	-17.663762998444586
235	0xbfd2ee7e94365b9e	-0.29580654596196065
236	0x3fb5232bd4a86600	0.08256792013016678
237	0xbfc00788e654ea48	-0.12522994276680977
238	0x3ff0000000000000	1.0
239	0x0000000000000000	0.0
240	0xc03194c9335df4e3	-17.58119507831442
241	0xbfdaf2430760d0c2	-0.4210364887287704
242	0x3fb5232bd4a86600	0.08256792013016678
243	0xbfc00788e654ea4c	-0.12522994276680988
244	0x3ff0000000000000	1.0
245	0x0000000000000000	0.0
246	0xc0317fa607894c7d	-17.498627158184252
247	0xbfe17b03bd45a2f4	-0.5462664314955803
248	0x3fb5232bd4a86600	0.08256792013016678
249	0xbfc00788e654ea48	-0.12522994276680977
250	0x3ff0000000000000	1.0
251	0x0000000000000000	0.0
252	0xc0316a82dbb4a417	-17.416059238054086
253	0xbfe57ce5f6dadd86	-0.6714963742623901
254	0x3fb5232bd4a86600	0.08256792013016678
255	0xbfc00788e654ea48	-0.12522994276680977
