data/online/npz-train/b08/b08-667/b08-667z-01.npz (npz, 32266 bytes, 1 tensors)

x f8 [658, 6]
0	0xc02f4ab8d193bdd5	-15.645941304478507
1	0xbfde2259b816bec8	-0.47084658601214047
2	0xbfb165a9462c7800	-0.06795747721886869
3	0x3fc11dd3f6971b24	0.13372277775325714
4	0x3ff0000000000000	1.0
5	0x0000000000000000	0.0
6	0xc02f6d84242016c5	-15.713898781697376
7	0xbfd5936fbccb3136	-0.33712380825888333
8	0xbfb165a9462c7780	-0.06795747721886691
9	0x3fc11dd3f6971b26	0.1337227777532572
10	0x3ff0000000000000	1.0
11	0x0000000000000000	0.0
12	0xc02f904f76ac6fb4	-15.781856258916243
13	0xbfca090b82ff4746	-0.20340103050562613
14	0xbf9b8cea90e6d800	-0.026904740423297824
15	0x3fc2e37cff8f3bee	0.14756739119044887
16	0x3ff0000000000000	1.0
17	0x0000000000000000	0.0
18	0xc02f9e15ebf4e320	-15.80876099933954
19	0xbfac963a0dc02d60	-0.055833639315177264
20	0xbf9b8cea90e6d800	-0.026904740423297824
21	0x3fc2e37cff8f3bee	0.14756739119044887
22	0x3ff0000000000000	1.0
23	0x0000000000000000	0.0
24	0xc02fabdc613d568c	-15.835665739762838
25	0x3fb77bdcf83e612c	0.09173375187527161
26	0xbf9b8cea90e6d800	-0.026904740423297824
27	0x3fc2e37cff8f3bee	0.14756739119044887
28	0x3ff0000000000000	1.0
29	0x0000000000000000	0.0
30	0xc02fb9a2d685c9f8	-15.862570480186136
31	0x3fcea16b7bae6c84	0.23930114306572048
32	0xbf9b8cea90e6d800	-0.026904740423297824
33	0x3fc2e37cff8f3bee	0.14756739119044887
34	0x3ff0000000000000	1.0
35	0x0000000000000000	0.0
36	0xc02fc7694bce3d64	-15.889475220609434
37	0x3fd8c2743d9ed439	0.38686853425616935
38	0xbf9b8cea90e6d800	-0.026904740423297824
39	0x3fc2e37cff8f3bee	0.14756739119044887
40	0x3ff0000000000000	1.0
41	0x0000000000000000	0.0
42	0xc02fd52fc116b0d0	-15.916379961032732
43	0x3fe11a195eb33918	0.5344359254466182
44	0xbf9b8cea90e6d800	-0.026904740423297824
45	0x3fc2e37cff8f3bf0	0.14756739119044893
46	0x3ff0000000000000	1.0
47	0x0000000000000000	0.0
48	0xc02fe2f6365f243c	-15.94328470145603
49	0x3fe5d2f89e970814	0.6820033166370671
50	0xbf9b8cea90e6d800	-0.026904740423297824
51	0x3fc2e37cff8f3be8	0.1475673911904487
52	0x3ff0000000000000	1.0
53	0x0000000000000000	0.0
54	0xc02ff0bcaba797a8	-15.970189441879327
55	0x3fea8bd7de7ad70e	0.8295707078275159
56	0xbf9b8cea90e6d800	-0.026904740423297824
57	0x3fc2e37cff8f3bf0	0.14756739119044893
58	0x3ff0000000000000	1.0
59	0x0000000000000000	0.0
60	0xc02ffe8320f00b14	-15.997094182302625
61	0x3fef44b71e5ea60a	0.9771380990179648
62	0xbf9b8cea90e6d800	-0.026904740423297824
63	0x3fc2e37cff8f3bf0	0.14756739119044893
64	0x3ff0000000000000	1.0
65	0x0000000000000000	0.0
66	0xc0300624cb1c3f40	-16.023998922725923
67	0x3ff1fecb2f213a83	1.1247054902084137
68	0xbf9ccfe9908a2400	-0.028136872717855255
69	0x3fc2dbf3e3ec72e8	0.14733742360194602
70	0x3ff0000000000000	1.0
71	0x0000000000000000	0.0
72	0xc0300d58c58061c9	-16.052135795443778
73	0x3ff45a49ab9ec8e0	1.2720429138103597
74	0xbf9ccfe9908a2000	-0.028136872717851702
75	0x3fc2dbf3e3ec72e8	0.14733742360194602
76	0x3ff0000000000000	1.0
77	0x0000000000000000	0.0
78	0xc030148cbfe48451	-16.08027266816163
79	0x3ff6b5c8281c573d	1.4193803374123057
80	0x3f95d06030566400	0.021302702856335287
81	0x3fc3016140746638	0.1484796108932629
82	0x3ff0000000000000	1.0
83	0x0000000000000000	0.0
84	0xc0300f18a7d86eb8	-16.058969965305295
85	0x3ff915f4502ae404	1.5678599483055686
86	0xbfb3c3fd35099d00	-0.07720930619108302
87	0x3fc0760fe0049208	0.1286029666745352
88	0x3ff0000000000000	1.0
89	0x0000000000000000	0.0
90	0xc03022dca50d7855	-16.136179271496378
91	0x3ffb24b64c2b7645	1.6964629149801038
92	0xbfb3c3fd35099d00	-0.07720930619108302
93	0x3fc0760fe0049200	0.12860296667453497
94	0x3ff0000000000000	1.0
95	0x0000000000000000	0.0
96	0xc03036a0a24281f2	-16.21338857768746
97	0x3ffd3378482c0885	1.8250658816546388
98	0xbfa52100b4ac0600	-0.04126741605251638
99	0x3fc275870307c218	0.14421165130581026
100	0x3ff0000000000000	1.0
101	0x0000000000000000	0.0
102	0xc0304131229cd7f5	-16.254655993739977
103	0x3fff8229288d00c8	1.969277532960449
104	0xbfa52100b4ac0400	-0.04126741605251283
105	0x3fc275870307c210	0.14421165130581004
106	0x3ff0000000000000	1.0
107	0x0000000000000000	0.0
108	0xc0304bc1a2f72df7	-16.29592340979249
109	0x4000e86d0476fc85	2.113489184266259
110	0xbfa52100b4ac0600	-0.04126741605251638
111	0x3fc275870307c220	0.14421165130581048
112	0x3ff0000000000000	1.0
113	0x0000000000000000	0.0
114	0xc0305652235183fa	-16.337190825845006
115	0x40020fc574a778a7	2.2577008355720696
116	0xbfa52100b4ac0600	-0.04126741605251638
117	0x3fc275870307c210	0.14421165130581004
118	0x3ff0000000000000	1.0
119	0x0000000000000000	0.0
120	0xc03060e2a3abd9fd	-16.378458241897523
121	0x4003371de4d7f4c8	2.4019124868778796
122	0xbf89d812a838a000	-0.012619157561019279
123	0x3fa69412d2387b40	0.04409846130533035
124	0x0000000000000000	0.0
125	0x3ff0000000000000	1.0
126	0xc030cfb89a96103a	-16.81141058124215
127	0xbfd046a2f273949a	-0.25431131054785683
128	0x3fc3160fa9728480	0.14911075376315708
129	0x3f90b34db44433e8	0.016308988692845278
130	0x3ff0000000000000	1.0
131	0x0000000000000000	0.0
132	0xc030a98c7b432b31	-16.662299827478993
133	0xbfce76dc2e5ea2b7	-0.23800232185501155
134	0x3fc3160fa9728480	0.14911075376315708
135	0x3f90b34db44433e8	0.016308988692845278
136	0x3ff0000000000000	1.0
137	0x0000000000000000	0.0
138	0xc03083605bf04628	-16.513189073715836
139	0xbfcc607277d61c3a	-0.22169333316216627
140	0x3fc332145ee16980	0.14996580727422426
141	0xbf6a3c56efaad480	-0.003202600285784174
142	0x3ff0000000000000	1.0
143	0x0000000000000000	0.0
144	0xc0305cfc33328355	-16.36322326644161
145	0xbfccc963d394c78c	-0.22489593344795045
146	0x3fc332145ee16900	0.1499658072742207
147	0xbf6a3c56efaad480	-0.003202600285784174
148	0x3ff0000000000000	1.0
149	0x0000000000000000	0.0
150	0xc03036980a74c083	-16.21325745916739
151	0xbfcd32552f5372de	-0.22809853373373462
152	0x3fc332145ee16980	0.14996580727422426
153	0xbf6a3c56efaad480	-0.003202600285784174
154	0x3ff0000000000000	1.0
155	0x0000000000000000	0.0
156	0xc0301033e1b6fdb0	-16.063291651893167
157	0xbfcd9b468b121e30	-0.2313011340195188
158	0x3fc332145ee16980	0.14996580727422426
159	0xbf6a3c56efaad440	-0.0032026002857841462
160	0x3ff0000000000000	1.0
161	0x0000000000000000	0.0
162	0xc02fd39f71f275ba	-15.913325844618942
163	0xbfce0437e6d0c981	-0.23450373430530294
164	0x3fc332145ee16940	0.14996580727422248
165	0xbf6a3c56efaad480	-0.003202600285784174
166	0x3ff0000000000000	1.0
167	0x0000000000000000	0.0
168	0xc02f86d72076f015	-15.76336003734472
169	0xbfce6d29428f74d3	-0.23770633459108712
170	0x3fc332145ee16980	0.14996580727422426
171	0xbf6a3c56efaad480	-0.003202600285784174
172	0x3ff0000000000000	1.0
173	0x0000000000000000	0.0
174	0xc02f3a0ecefb6a6f	-15.613394230070496
175	0xbfced61a9e4e2025	-0.2409089348768713
176	0x3fc2de635759de00	0.14741174473941498
177	0x3f9c692658baec20	0.027744864621791376
178	0x3ff0000000000000	1.0
179	0x0000000000000000	0.0
180	0xc02eee95419e02f7	-15.46598248533108
181	0xbfcb48f5d336c2a1	-0.2131640702550799
182	0x3fc2de635759de00	0.14741174473941498
183	0x3f9c692658baec20	0.027744864621791376
184	0x3ff0000000000000	1.0
185	0x0000000000000000	0.0
186	0xc02ea31bb4409b7f	-15.318570740591666
187	0xbfc7bbd1081f651d	-0.18541920563328854
188	0x3fc32b919ab04080	0.14976711323879854
189	0x3f811c9b70628900	0.008355345122542435
190	0x3ff0000000000000	1.0
191	0x0000000000000000	0.0
192	0xc02e566d6dd5da7d	-15.168803627352867
193	0xbfc6aa0751193c8d	-0.1770638605107461
194	0x3fc32b919ab04080	0.14976711323879854
195	0x3f811c9b70628910	0.008355345122542462
196	0x3ff0000000000000	1.0
197	0x0000000000000000	0.0
198	0xc02e09bf276b197b	-15.019036514114068
199	0xbfc5983d9a1313fc	-0.16870851538820364
200	0x3fc32b919ab040c0	0.14976711323880032
201	0x3f811c9b70628900	0.008355345122542435
202	0x3ff0000000000000	1.0
203	0x0000000000000000	0.0
204	0xc02dbd10e1005878	-14.869269400875268
205	0xbfc48673e30ceb6c	-0.1603531702656612
206	0x3fc32b919ab04080	0.14976711323879854
207	0x3f811c9b70628910	0.008355345122542462
208	0x3ff0000000000000	1.0
209	0x0000000000000000	0.0
210	0xc02d70629a959776	-14.71950228763647
211	0xbfc374aa2c06c2db	-0.15199782514311874
212	0x3fc32b919ab04080	0.14976711323879854
213	0x3f811c9b70628900	0.008355345122542435
214	0x3ff0000000000000	1.0
215	0x0000000000000000	0.0
216	0xc02d23b4542ad674	-14.569735174397671
217	0xbfc262e075009a4b	-0.1436424800205763
218	0x3fc32b919ab04080	0.14976711323879854
219	0x3f811c9b70628910	0.008355345122542462
220	0x3ff0000000000000	1.0
221	0x0000000000000000	0.0
222	0xc02cd7060dc01572	-14.419968061158873
223	0xbfc15116bdfa71ba	-0.13528713489803385
224	0x3fc32825167a5980	0.14966262433581434
225	0x3f81198d0a610bd0	0.008349515799755652
226	0x0000000000000000	0.0
227	0x3ff0000000000000	1.0
228	0xc02c184501a12893	-14.047401476786296
229	0xbfddba01851979c6	-0.4644779014396615
230	0xbfad33aebbacac00	-0.05703493157337647
231	0x3fc1c205eeaabb74	0.13873361734064427
232	0x3ff0000000000000	1.0
233	0x0000000000000000	0.0
234	0xc02c3578b05cd53f	-14.104436408359673
235	0xbfd4d8fe8dc41c0c	-0.32574428409901723
236	0xbfad33aebbacab00	-0.05703493157337469
237	0x3fc1c205eeaabb76	0.13873361734064432
238	0x3ff0000000000000	1.0
239	0x0000000000000000	0.0
240	0xc02c52ac5f1881ea	-14.161471339933048
241	0xbfc7eff72cdd7ca2	-0.1870106667583729
242	0xbfad33aebbacac00	-0.05703493157337647
243	0x3fc1c205eeaabb74	0.13873361734064427
244	0x3ff0000000000000	1.0
245	0x0000000000000000	0.0
246	0xc02c6fe00dd42e96	-14.218506271506424
247	0xbfa8b7c4f8cb04b8	-0.048277049417728646
248	0xbfad33aebbacac00	-0.05703493157337647
249	0x3fc1c205eeaabb76	0.13873361734064432
250	0x3ff0000000000000	1.0
251	0x0000000000000000	0.0
252	0xc02c8d13bc8fdb42	-14.2755412030798
253	0x3fb7282960eff490	0.09045656792291568
254	0xbfad33aebbacac00	-0.05703493157337647
255	0x3fc1c205eeaabb78	0.13873361734064438
