data/online/npz-eval/b03/b03-199/b03-199z-06.npz (npz, 32274 bytes, 1 tensors)

x f8 [658, 6]
00000000: e4ac 7d08 a771 30c0 e409 da16 ca5f e1bf
00000010: 002c b75a cfb3 9fbf 6c6e a56e 5ec9 c23f
00000020: 0000 0000 0000 f03f 0000 0000 0000 0000
00000030: af5a 54fc 9379 30c0 925c 61f6 e45a d9bf
00000040: 0028 b75a cfb3 9fbf 6a6e a56e 5ec9 c23f
00000050: 0000 0000 0000 f03f 0000 0000 0000 0000
00000060: 7908 2bf0 8081 30c0 ba4a 1d7e 6bec cfbf
00000070: 002c b75a cfb3 9fbf 6c6e a56e 5ec9 c23f
00000080: 0000 0000 0000 f03f 0000 0000 0000 0000
00000090: 44b6 01e4 6d89 30c0 9cb8 ef1e 1a46 babf
000000a0: 0028 b75a cfb3 9fbf 6a6e a56e 5ec9 c23f
000000b0: 0000 0000 0000 f03f 0000 0000 0000 0000
000000c0: 0e64 d8d7 5a91 30c0 7048 b67c 4599 a63f
000000d0: 002c b75a cfb3 9fbf 6c6e a56e 5ec9 c23f
000000e0: 0000 0000 0000 f03f 0000 0000 0000 0000
000000f0: d911 afcb 4799 30c0 8800 d3cd af6f c83f
00000100: 002c b75a cfb3 9fbf 6c6e a56e 5ec9 c23f
00000110: 0000 0000 0000 f03f 0000 0000 0000 0000
00000120: a4bf 85bf 34a1 30c0 7a37 3c1e 879c d53f
00000130: 0078 6b9e 29df 90bf 98e9 bc5b 7515 c33f
00000140: 0000 0000 0000 f03f 0000 0000 0000 0000
00000150: 825a ed89 6ca5 30c0 46ac 1acc 4127 df3f
00000160: 007c 6b9e 29df 90bf 94e9 bc5b 7515 c33f
00000170: 0000 0000 0000 f03f 0000 0000 0000 0000
00000180: 61f5 5454 a4a9 30c0 8890 fc3c fe58 e43f
00000190: 0000 b088 948b 75bf c8dc d14c 2d30 c33f
000001a0: 0000 0000 0000 f03f 0000 0000 0000 0000
000001b0: 6180 9d0d fdaa 30c0 ba07 3190 0925 e93f
000001c0: 00f0 af88 948b 75bf c8dc d14c 2d30 c33f
000001d0: 0000 0000 0000 f03f 0000 0000 0000 0000
000001e0: 600b e6c6 55ac 30c0 ec7e 65e3 14f1 ed3f
000001f0: 00d4 2ed4 bd44 9b3f a87b 95dc 1fe5 c23f
00000200: 0000 0000 0000 f03f 0000 0000 0000 0000
00000210: abff 7097 84a5 30c0 eb6e 456d 2e55 f13f
00000220: 00d8 2ed4 bd44 9b3f a87b 95dc 1fe5 c23f
00000230: 0000 0000 0000 f03f 0000 0000 0000 0000
00000240: f5f3 fb67 b39e 30c0 601e d868 d2b1 f33f
00000250: 0020 57ea 76f6 b23f 6840 6bb9 13b2 c03f
00000260: 0000 0000 0000 f03f 0000 0000 0000 0000
00000270: d59c 11f1 bc8b 30c0 6d86 05e0 14c8 f53f
00000280: 0020 57ea 76f6 b23f 6840 6bb9 13b2 c03f
00000290: 0000 0000 0000 f03f 0000 0000 0000 0000
000002a0: b545 277a c678 30c0 7aee 3257 57de f73f
000002b0: 80da e19b 8605 c13f 205a 256f 09c4 b13f
000002c0: 0000 0000 0000 f03f 0000 0000 0000 0000
000002d0: 0082 ef6c bb56 30c0 1c44 25ee 97fa f83f
000002e0: 803b 6177 39a9 c23f 4069 978e b211 a23f
000002f0: 0000 0000 0000 f03f 0000 0000 0000 0000
00000300: 89bf 00fa 6831 30c0 66ff 9982 258b f93f
00000310: 00f8 0e01 303b c13f 8017 7f41 2ef0 b0bf
00000320: 0000 0000 0000 f03f 0000 0000 0000 0000
00000330: 99a1 fe99 f20e 30c0 ee0d 829e 227c f83f
00000340: 00f8 0e01 303b c13f 7017 7f41 2ef0 b0bf
00000350: 0000 0000 0000 f03f 0000 0000 0000 0000
00000360: 5207 f973 f8d8 2fc0 771c 6aba 1f6d f73f
00000370: 006f 60f8 1de7 b03f 208c fd78 693d c1bf
00000380: 0000 0000 0000 f03f 0000 0000 0000 0000
00000390: 7446 0838 2ab7 2fc0 f36a 4a8b 7245 f53f
000003a0: 006f 60f8 1de7 b03f 188c fd78 693d c1bf
000003b0: 0000 0000 0000 f03f 0000 0000 0000 0000
000003c0: 9685 17fc 5b95 2fc0 70b9 2a5c c51d f33f
000003d0: 806e 60f8 1de7 b03f 208c fd78 693d c1bf
000003e0: 0000 0000 0000 f03f 0000 0000 0000 0000
000003f0: b9c4 26c0 8d73 2fc0 ec07 0b2d 18f6 f03f
00000400: 00e0 1c28 dac1 86bf a804 a9d6 b125 c3bf
00000410: 0000 0000 0000 f03f 0000 0000 0000 0000
00000420: f1cb b036 3e79 2fc0 aece 6be4 c322 ed3f
00000430: 00b8 7a79 c66c 78bf b03c 6211 e58c b4bf
00000440: 0000 0000 0000 0000 0000 0000 0000 f03f
00000450: 085b aca8 553f 31c0 d95d 941b 9d41 e43f
00000460: 8029 9bfa b916 c33f e0d7 4ea8 5b82 90bf
00000470: 0000 0000 0000 f03f 0000 0000 0000 0000
00000480: b524 b734 2819 31c0 1ae7 513e 8abd e33f
00000490: 80c5 d6de 0423 c23f 60e0 d75c bf33 a9bf
000004a0: 0000 0000 0000 f03f 0000 0000 0000 0000
000004b0: 2a77 f92a e2f4 30c0 1469 8448 4e2a e23f
000004c0: 80c5 d6de 0423 c23f 60e0 d75c bf33 a9bf
000004d0: 0000 0000 0000 f03f 0000 0000 0000 0000
000004e0: 9fc9 3b21 9cd0 30c0 0eeb b652 1297 e03f
000004f0: 80f9 28b9 c681 c23f 48f1 b99f c172 a4bf
00000500: 0000 0000 0000 f03f 0000 0000 0000 0000
00000510: ac77 c993 98ab 30c0 f397 7671 cc9f de3f
00000520: 00fa 28b9 c681 c23f 48f1 b99f c172 a4bf
00000530: 0000 0000 0000 f03f 0000 0000 0000 0000
00000540: b825 5706 9586 30c0 ca59 7f3d 7411 dc3f
00000550: 80f9 28b9 c681 c23f 48f1 b99f c172 a4bf
00000560: 0000 0000 0000 f03f 0000 0000 0000 0000
00000570: c5d3 e478 9161 30c0 a11b 8809 1c83 d93f
00000580: 80f9 28b9 c681 c23f 48f1 b99f c172 a4bf
00000590: 0000 0000 0000 f03f 0000 0000 0000 0000
000005a0: d281 72eb 8d3c 30c0 78dd 90d5 c3f4 d63f
000005b0: 006c 7f16 7eef bf3f 5475 3d27 c352 b5bf
000005c0: 0000 0000 0000 f03f 0000 0000 0000 0000
000005d0: 6602 5c6d 9e1c 30c0 2380 c10b 13a0 d13f
000005e0: 006d 7f16 7eef bf3f 5675 3d27 c352 b5bf
000005f0: 0000 0000 0000 f03f 0000 0000 0000 0000
00000600: f205 8bde 5df9 2fc0 9b45 e483 c496 c83f
00000610: 802e 4608 1964 bc3f fd93 3deb 06db b9bf
00000620: 0000 0000 0000 f03f 0000 0000 0000 0000
00000630: 9579 7aac 95c0 2fc0 39f7 8a1c 8252 b73f
00000640: 802e 4608 1964 bc3f fd93 3deb 06db b9bf
00000650: 0000 0000 0000 f03f 0000 0000 0000 0000
00000660: 38ed 697a cd87 2fc0 20e6 9475 2644 84bf
00000670: 802e 4608 1964 bc3f fa93 3deb 06db b9bf
00000680: 0000 0000 0000 f03f 0000 0000 0000 0000
00000690: db60 5948 054f 2fc0 be30 f0b9 8b63 bcbf
000006a0: 802e 4608 1964 bc3f 0094 3deb 06db b9bf
000006b0: 0000 0000 0000 f03f 0000 0000 0000 0000
000006c0: 7ed4 4816 3d16 2fc0 5fe2 9652 491f cbbf
000006d0: 802e 4608 1964 bc3f fa93 3deb 06db b9bf
000006e0: 0000 0000 0000 f03f 0000 0000 0000 0000
000006f0: 2148 38e4 74dd 2ec0 2ed6 1a64 6606 d4bf
00000700: 005c 27b8 a71f b03f e884 a481 eb6c c1bf
00000710: 0000 0000 0000 f03f 0000 0000 0000 0000
00000720: 69f9 c794 35bd 2ec0 a218 ed24 dcbc dcbf
00000730: 005c 27b8 a71f b03f e484 a481 eb6c c1bf
00000740: 0000 0000 0000 f03f 0000 0000 0000 0000
00000750: b1aa 5745 f69c 2ec0 8aad dff2 a8b9 e2bf
00000760: 005c 27b8 a71f b03f e884 a481 eb6c c1bf
00000770: 0000 0000 0000 f03f 0000 0000 0000 0000
00000780: f95b e7f5 b67c 2ec0 c4ce 48d3 e314 e7bf
00000790: 0038 2750 2e17 87bf 0c96 d8ac 4b25 c33f
000007a0: 0000 0000 0000 f03f 0000 0000 0000 0000
000007b0: c765 7bc1 7c82 2ec0 41a9 12e8 904b e2bf
000007c0: 0038 2750 2e17 87bf 0c96 d8ac 4b25 c33f
000007d0: 0000 0000 0000 f03f 0000 0000 0000 0000
000007e0: 956f 0f8d 4288 2ec0 7c07 b9f9 7b04 dbbf
000007f0: 0034 2750 2e17 87bf 0c96 d8ac 4b25 c33f
-16.44395497387167 -0.5429430433580902 -0.030959358131251946 0.14677029040000222 1.0 0.0 -16.47491433200292 -0.39617275295808796
-0.030959358131248393 0.14677029040000217 1.0 0.0 -16.50587369013417 -0.2494024625580858 -0.030959358131251946 0.14677029040000222
1.0 0.0 -16.53683304826542 -0.10263217215808357 -0.030959358131248393 0.14677029040000217 1.0 0.0
-16.56779240639667 0.0441381182419186 -0.030959358131251946 0.14677029040000222 1.0 0.0 -16.598751764527922 0.19090840864192082
-0.030959358131251946 0.14677029040000222 1.0 0.0 -16.629711122659174 0.33767869904192305 -0.016476297659089312 0.14909235934630938
1.0 0.0 -16.646187420318263 0.4867710583882324 -0.016476297659092864 0.14909235934630927 1.0 0.0
-16.662663717977356 0.6358634177345417 -0.005260067187009554 0.14990774394002515 1.0 0.0 -16.667923785164366 0.7857711616745668
-0.005260067187006001 0.14990774394002515 1.0 0.0 -16.67318385235137 0.935678905614592 0.026629415584199734 0.14761732359599233
1.0 0.0 -16.646554436767172 1.0832962292105843 0.026629415584203286 0.14761732359599233 1.0 0.0
-16.61992502118297 1.2309135528065767 0.07407325001906884 0.13043448022517912 1.0 0.0 -16.5458517711639 1.3613480330317558
0.07407325001906884 0.13043448022517912 1.0 0.0 -16.47177852114483 1.491782513256935 0.1329811345237495 0.06939753497622592
1.0 0.0 -16.33879738662108 1.5611800482331608 0.14578932122318733 0.03529127112024577 1.0 0.0
-16.193008065397894 1.5964713193534066 0.13461875964816272 -0.06616486643824082 1.0 0.0 -16.05838930574973 1.5303064529151658
0.13461875964816272 -0.0661648664382406 1.0 0.0 -15.923770546101569 1.4641415864769252 0.06602656663784146 -0.13468664558158228
1.0 0.0 -15.857743979463727 1.3294549408953429 0.06602656663784146 -0.13468664558158205 1.0 0.0
-15.791717412825886 1.1947682953137608 0.06602656663783968 -0.13468664558158228 1.0 0.0 -15.725690846188046 1.0600816497321786
-0.011111931180138868 -0.14958785039383327 1.0 0.0 -15.736802777368185 0.9104937993383453 -0.005963111201408466 -0.08027488397987059
0.0 1.0 -17.247400800780298 0.633009485117266 0.14913105713487695 -0.016122276447013806 1.0 0.0
-17.09826974364542 0.6168872086702522 0.14169369583900604 -0.04922292717304866 1.0 0.0 -16.956576047806415 0.5676642814972035
0.14169369583900604 -0.04922292717304866 1.0 0.0 -16.81488235196741 0.5184413543241548 0.1445854572393266 -0.03993802141937636
1.0 0.0 -16.670296894728082 0.4785033329047785 0.14458545723933014 -0.03993802141937636 1.0 0.0
-16.525711437488752 0.4385653114854021 0.1445854572393266 -0.03993802141937636 1.0 0.0 -16.381125980249426 0.39862729006602576
0.1445854572393266 -0.03993802141937636 1.0 0.0 -16.2365405230101 0.3586892686466494 0.12474811600934288 -0.08329410274514731
1.0 0.0 -16.111792407000756 0.2753951659015021 0.12474811600934643 -0.08329410274514734 1.0 0.0
-15.98704429099141 0.19210106315635475 0.11090237094884436 -0.10099833720376235 1.0 0.0 -15.876141920042565 0.0911027259525924
0.11090237094884436 -0.10099833720376235 1.0 0.0 -15.765239549093721 -0.009895611251169945 0.11090237094884436 -0.1009983372037623
1.0 0.0 -15.654337178144877 -0.11089394845493225 0.11090237094884436 -0.10099833720376239 1.0 0.0
-15.543434807196032 -0.21189228565869464 0.11090237094884436 -0.1009983372037623 1.0 0.0 -15.432532436247188 -0.31289062286245695
0.06298301931325057 -0.13613647299010911 1.0 0.0 -15.369549416933937 -0.44902709585256606 0.06298301931325057 -0.136136472990109
1.0 0.0 -15.306566397620687 -0.5851635688426751 0.06298301931325057 -0.13613647299010911 1.0 0.0
-15.243583378307436 -0.7213000418327842 -0.011274682828027238 0.14957567157505058 1.0 0.0 -15.254858061135463 -0.5717243702577336
-0.011274682828027238 0.14957567157505058 1.0 0.0 -15.26613274396349 -0.422148698682683 -0.011274682828025462 0.14957567157505058
