data/online/npz-eval/b04/b04-229/b04-229z-03.npz (npz, 43666 bytes, 1 tensors)

x f8 [894, 6]
00000000: 85d7 e371 c72c 40c0 8947 c178 8af0 e0bf
00000010: 0010 9cf9 3949 a7bf 38e8 8c1f d24b c23f
00000020: 0000 0000 0000 f03f 0000 0000 0000 0000
00000030: 893e 62c0 9932 40c0 f61a bce1 2bbb d8bf
00000040: 0010 9cf9 3949 a7bf 3ae8 8c1f d24b c23f
00000050: 0000 0000 0000 f03f 0000 0000 0000 0000
00000060: 8da5 e00e 6c38 40c0 b24d eba3 852a cfbf
00000070: 0010 9cf9 3949 a7bf 3ae8 8c1f d24b c23f
00000080: 0000 0000 0000 f03f 0000 0000 0000 0000
00000090: 910c 5f5d 3e3e 40c0 f0ca bc08 67bd b9bf
000000a0: 0014 9cf9 3949 a7bf 38e8 8c1f d24b c23f
000000b0: 0000 0000 0000 f03f 0000 0000 0000 0000
000000c0: 9673 ddab 1044 40c0 000b ba6c 7ab4 a53f
000000d0: 0010 9cf9 3949 a7bf 38e8 8c1f d24b c23f
000000e0: 0000 0000 0000 f03f 0000 0000 0000 0000
000000f0: 9ada 5bfa e249 40c0 f86a bbba f0b8 c73f
00000100: 0000 f8c8 342b 223f ae0f a8a9 3233 c33f
00000110: 0000 0000 0000 f03f 0000 0000 0000 0000
00000120: 5ca8 8e6f de49 40c0 53bd 31b2 1176 d53f
00000130: 0000 fcc8 342b 223f ae0f a8a9 3233 c33f
00000140: 0000 0000 0000 f03f 0000 0000 0000 0000
00000150: 1d76 c1e4 d949 40c0 2ac5 0507 ab0f df3f
00000160: 0000 f8c8 342b 223f ac0f a8a9 3233 c33f
00000170: 0000 0000 0000 f03f 0000 0000 0000 0000
00000180: df43 f459 d549 40c0 80e6 ec2d a254 e43f
00000190: 009c 0a56 2619 a63f 009d 5632 5563 c23f
000001a0: 0000 0000 0000 f03f 0000 0000 0000 0000
000001b0: 38c1 5e10 4f44 40c0 c08d 827a 77ed e83f
000001c0: 009c 0a56 2619 a63f 009d 5632 5563 c23f
000001d0: 0000 0000 0000 f03f 0000 0000 0000 0000
000001e0: 913e c9c6 c83e 40c0 0035 18c7 4c86 ed3f
000001f0: 009a 6a24 f2fd b23f 3811 4258 f3af c03f
00000200: 0000 0000 0000 f03f 0000 0000 0000 0000
00000210: 4409 b7cd 4935 40c0 a75c 94ce 24d9 f03f
00000220: 00d2 738d 108d c03f a0c6 b529 8f76 b33f
00000230: 0000 0000 0000 f03f 0000 0000 0000 0000
00000240: 7295 29bd bc24 40c0 11b9 2fc1 8d10 f23f
00000250: 00d1 738d 108d c03f b0c6 b529 8f76 b33f
00000260: 0000 0000 0000 f03f 0000 0000 0000 0000
00000270: a121 9cac 2f14 40c0 7c15 cbb3 f647 f33f
00000280: 002c 158a fb6b b63f 9044 0dc8 8f2c bfbf
00000290: 0000 0000 0000 f03f 0000 0000 0000 0000
000002a0: 0b17 d7ae f908 40c0 3341 4ab7 2d55 f13f
000002b0: 002e 158a fb6b b63f a044 0dc8 8f2c bfbf
000002c0: 0000 0000 0000 f03f 0000 0000 0000 0000
000002d0: e818 2462 87fb 3fc0 d2d9 9275 c9c4 ee3f
000002e0: 002d 158a fb6b b63f 9044 0dc8 8f2c bfbf
000002f0: 0000 0000 0000 f03f 0000 0000 0000 0000
00000300: bb03 9a66 1be5 3fc0 4031 917c 37df ea3f
00000310: 002d 158a fb6b b63f 9844 0dc8 8f2c bfbf
00000320: 0000 0000 0000 f03f 0000 0000 0000 0000
00000330: 8eee 0f6b afce 3fc0 ad88 8f83 a5f9 e63f
00000340: 8091 b947 6505 c33f 4061 1afb aeeb 94bf
00000350: 0000 0000 0000 f03f 0000 0000 0000 0000
00000360: 6b7b 80a0 a4a8 3fc0 a3b5 b60b 4852 e63f
00000370: 00ec 066b 1551 ac3f 5c51 2fe7 e6d8 c13f
00000380: 0000 0000 0000 f03f 0000 0000 0000 0000
00000390: f5f7 ca15 7c9a 3fc0 fa89 82c5 81c8 ea3f
000003a0: 00ee 066b 1551 ac3f 5c51 2fe7 e6d8 c13f
000003b0: 0000 0000 0000 f03f 0000 0000 0000 0000
000003c0: 7e74 158b 538c 3fc0 515e 4e7f bb3e ef3f
000003d0: 0082 9aad baf2 b73f 185c 0cba 7504 be3f
000003e0: 0000 0000 0000 f03f 0000 0000 0000 0000
000003f0: fcd9 67d0 6074 3fc0 eaf4 471b a57f f13f
00000400: 0082 9aad baf2 b73f 205c 0cba 7504 be3f
00000410: 0000 0000 0000 f03f 0000 0000 0000 0000
00000420: 7a3f ba15 6e5c 3fc0 acba e876 ec5f f33f
00000430: 004a 787b 4687 c03f 80a5 9118 338a b33f
00000440: 0000 0000 0000 f03f 0000 0000 0000 0000
00000450: e64e c388 5f3b 3fc0 04d5 71a8 8f98 f43f
00000460: 8058 07da 7bdd c23f 404b c804 7b8f 9c3f
00000470: 0000 0000 0000 f03f 0000 0000 0000 0000
00000480: 3540 0f91 a415 3fc0 31f6 8494 cd0a f53f
00000490: 8058 07da 7bdd c23f 004b c804 7b8f 9c3f
000004a0: 0000 0000 0000 f03f 0000 0000 0000 0000
000004b0: 8431 5b99 e9ef 3ec0 5d17 9880 0b7d f53f
000004c0: 8006 b6e0 c997 c23f 60ea e857 dc28 a3bf
000004d0: 0000 0000 0000 f03f 0000 0000 0000 0000
000004e0: 77c5 9905 baca 3ec0 0ad0 d89d c4e3 f43f
000004f0: 0006 b6e0 c997 c23f 80ea e857 dc28 a3bf
00000500: 0000 0000 0000 f03f 0000 0000 0000 0000
00000510: 6b59 d871 8aa5 3ec0 b688 19bb 7d4a f43f
00000520: 80c8 3035 8cc6 c03f f005 0327 a7ad b2bf
00000530: 0000 0000 0000 f03f 0000 0000 0000 0000
00000540: daf7 6d59 fd83 3ec0 5758 a948 a31f f33f
00000550: 80c8 3035 8cc6 c03f e005 0327 a7ad b2bf
00000560: 0000 0000 0000 f03f 0000 0000 0000 0000
00000570: 4996 0341 7062 3ec0 f927 39d6 c8f4 f13f
00000580: 00c8 3035 8cc6 c03f f005 0327 a7ad b2bf
00000590: 0000 0000 0000 f03f 0000 0000 0000 0000
000005a0: b934 9928 e340 3ec0 9af7 c863 eec9 f03f
000005b0: 00ed 3e8b 0e5e ba3f c033 5f89 92ea bbbf
000005c0: 0000 0000 0000 f03f 0000 0000 0000 0000
000005d0: ccf5 0d1a 8526 3ec0 bc08 6676 8a16 ee3f
000005e0: 00ed 3e8b 0e5e ba3f c033 5f89 92ea bbbf
000005f0: 0000 0000 0000 f03f 0000 0000 0000 0000
00000600: dfb6 820b 270c 3ec0 4422 3a25 3899 ea3f
00000610: 00ec 3e8b 0e5e ba3f c033 5f89 92ea bbbf
00000620: 0000 0000 0000 f03f 0000 0000 0000 0000
00000630: f377 f7fc c8f1 3dc0 cc3b 0ed4 e51b e73f
00000640: 0098 8506 dcf4 ad3f 8c38 c61f dead c1bf
00000650: 0000 0000 0000 f03f 0000 0000 0000 0000
00000660: 2735 f48e cee2 3dc0 a9ad 1c4c 6eb0 e23f
00000670: 0098 8506 dcf4 ad3f 8a38 c61f dead c1bf
00000680: 0000 0000 0000 f03f 0000 0000 0000 0000
00000690: 5bf2 f020 d4d3 3dc0 0d3f 5688 ed89 dc3f
000006a0: 0032 f931 0efc a13f 86ad f1ec 87aa c2bf
000006b0: 0000 0000 0000 f03f 0000 0000 0000 0000
000006c0: c2f5 d719 d6ca 3dc0 4a68 dd91 a934 d33f
000006d0: 0032 f931 0efc a13f 84ad f1ec 87aa c2bf
000006e0: 0000 0000 0000 f03f 0000 0000 0000 0000
000006f0: 29f9 be12 d8c1 3dc0 1023 c936 cbbe c33f
00000700: 0034 f931 0efc a13f 86ad f1ec 87aa c2bf
00000710: 0000 0000 0000 f03f 0000 0000 0000 0000
00000720: 8ffc a50b dab8 3dc0 a058 779d 3444 813f
00000730: 0088 1c46 be35 85bf 416a b88a 7827 c3bf
00000740: 0000 0000 0000 f03f 0000 0000 0000 0000
00000750: 20c0 6ec3 80bb 3dc0 b7f4 e040 3513 c2bf
00000760: 0088 1c46 be35 85bf 416a b88a 7827 c3bf
00000770: 0000 0000 0000 f03f 0000 0000 0000 0000
00000780: b183 377b 27be 3dc0 7caf cce5 569d d2bf
00000790: 0091 ca9a 0085 b3bf 84ac ae6e cf88 c0bf
000007a0: 0000 0000 0000 f03f 0000 0000 0000 0000
000007b0: 424e d27b acd1 3dc0 be05 249d bee1 dabf
000007c0: 8054 9fc7 1a2c c3bf 6000 0e85 2080 803f
000007d0: 0000 0000 0000 f03f 0000 0000 0000 0000
000007e0: eb8c 61b1 04f8 3dc0 bb95 fb98 bd5d dabf
000007f0: 0055 9fc7 1a2c c3bf 6000 0e85 2080 803f
-32.349836574793734 -0.5293629034515429 -0.04548054859154149 0.1429388670019891 1.0 0.0 -32.395317123385276 -0.3864240364495538
-0.04548054859154149 0.14293886700198916 1.0 0.0 -32.44079767197682 -0.24348516944756465 -0.04548054859154149 0.14293886700198916
1.0 0.0 -32.48627822056836 -0.1005463024455755 -0.0454805485915486 0.1429388670019891 1.0 0.0
-32.53175876915991 0.0423925645564136 -0.04548054859154149 0.1429388670019891 1.0 0.0 -32.57723931775145 0.1853314315584027
0.00013861674641191257 0.14999993595131172 1.0 0.0 -32.57710070100504 0.33533136750971443 0.000138616746419018 0.14999993595131172
1.0 0.0 -32.57696208425862 0.48533130346102615 0.00013861674641191257 0.14999993595131167 1.0 0.0
-32.576823467512206 0.6353312394123378 0.043160627368074245 0.14365639646459982 1.0 0.0 -32.53366284014413 0.7789876358769376
0.043160627368074245 0.14365639646459982 1.0 0.0 -32.49050221277606 0.9226440323415375 0.07418740643570487 0.13036958512760477
1.0 0.0 -32.41631480634035 1.0530136174691422 0.12930495173317524 0.07602782028495847 1.0 0.0
-32.28700985460718 1.1290414377541007 0.12930495173316814 0.07602782028495869 1.0 0.0 -32.15770490287401 1.2050692580390594
0.08758518334541066 -0.12177370676114863 1.0 0.0 -32.0701197195286 1.0832955512779108 0.08758518334541776 -0.12177370676114885
1.0 0.0 -31.98253453618318 0.9615218445167619 0.08758518334541421 -0.12177370676114863 1.0 0.0
-31.894949352837767 0.8397481377556133 0.08758518334541421 -0.12177370676114874 1.0 0.0 -31.807364169492352 0.7179744309944646
0.1486021614283679 -0.020430311275590585 1.0 0.0 -31.658762008063984 0.697544119718874 0.05530611926538853 0.13943182266542464
1.0 0.0 -31.603455888798596 0.8369759423842986 0.055306119265392084 0.13943182266542464 1.0 0.0
-31.548149769533204 0.9764077650497233 0.09354750383727861 0.11725555221742956 1.0 0.0 -31.454602265695925 1.0936633172671528
0.09354750383727861 0.11725555221742967 1.0 0.0 -31.361054761858647 1.2109188694845825 0.12912827519228642 0.0763275084479087
1.0 0.0 -31.23192648666636 1.2872463779324912 0.14738414903576214 0.027891084830183432 1.0 0.0
-31.084542337630598 1.3151374627626746 0.14738414903576214 0.02789108483018321 1.0 0.0 -30.937158188594836 1.3430285475928578
0.14525722000330532 -0.03742111752622601 1.0 0.0 -30.79190096859153 1.3056074300666318 0.14525722000330177 -0.03742111752622623
1.0 0.0 -30.64664374858823 1.2681863125404056 0.13105919453807147 -0.07296223356663467 1.0 0.0
-30.515584554050157 1.195224078973771 0.13105919453807147 -0.07296223356663445 1.0 0.0 -30.384525359512086 1.1222618454071365
0.1310591945380679 -0.07296223356663467 1.0 0.0 -30.253466164974018 1.0492996118405018 0.10299769305759199 -0.10904804090314624
1.0 0.0 -30.150468471916426 0.9402515709373556 0.10299769305759199 -0.10904804090314624 1.0 0.0
-30.047470778858834 0.8312035300342093 0.10299769305758844 -0.10904804090314624 1.0 0.0 -29.944473085801246 0.7221554891310631
0.05850875453579363 -0.13811852027396687 1.0 0.0 -29.885964331265452 0.5840369688570962 0.05850875453579363 -0.13811852027396682
1.0 0.0 -29.82745557672966 0.4459184485831294 0.035126155472060105 -0.14582919187101256 1.0 0.0
-29.792329421257598 0.30008925671211684 0.035126155472060105 -0.1458291918710125 1.0 0.0 -29.757203265785538 0.15426006484110433
0.03512615547206366 -0.14582919187101256 1.0 0.0 -29.722077110313474 0.008430872970091763 -0.010356413378364238 -0.14964205525832777
1.0 0.0 -29.73243352369184 -0.141211182288236 -0.010356413378364238 -0.14964205525832777 1.0 0.0
-29.742789937070203 -0.2908532375465638 -0.0762482049854647 -0.12917511848840857 1.0 0.0 -29.819038142055668 -0.42002835603497235
-0.14978346583544422 0.008056882915980335 1.0 0.0 -29.968821607891112 -0.411971473118992 -0.14978346583544777 0.008056882915980335
