data/online/npz-valid/b05/b05-444/b05-444z-05.npz (npz, 32730 bytes, 1 tensors)

x f8 [666, 6]
-26.38976762898318 -0.4484032991864838 0.10316169718661783 -0.10889290258587458 1.0 0.0 -26.28660593179656 -0.5572962017723584
0.08017304358005006 -0.12677650840400856 1.0 0.0 -26.20643288821651 -0.684072710176367 0.08017304358004651 -0.12677650840400856
1.0 0.0 -26.126259844636465 -0.8108492185803755 0.08017304358005006 -0.12677650840400867 1.0 0.0
-26.046086801056415 -0.9376257269843842 0.08017304358004651 -0.12677650840400845 1.0 0.0 -25.96591375747637 -1.0644022353883926
0.08017304358005006 -0.12677650840400867 1.0 0.0 -25.88574071389632 -1.1911787437924013 0.08017304358004651 -0.12677650840400867
1.0 0.0 -25.80556767031627 -1.31795525219641 0.08017304358005006 -0.12677650840400845 1.0 0.0
-25.72539462673622 -1.4447317606004184 0.05113992087835939 -0.141013150069613 1.0 0.0 -25.674254705857862 -1.5857449106700314
0.05113992087835939 -0.14101315006961324 1.0 0.0 -25.623114784979503 -1.7267580607396447 0.05113992087835584 -0.141013150069613
1.0 0.0 -25.571974864101147 -1.8677712108092577 0.05113992087835939 -0.141013150069613 1.0 0.0
-25.520834943222788 -2.0087843608788707 -0.017129175913783712 -0.1490187616795775 1.0 0.0 -25.53796411913657 -2.157803122558448
-0.01712917591378016 -0.14901876167957706 1.0 0.0 -25.55509329505035 -2.3068218842380253 -0.06274083852029833 0.1362482557017506
1.0 0.0 -25.61783413357065 -2.1705736285362747 -0.06274083852030188 0.13624825570175103 1.0 0.0
-25.68057497209095 -2.0343253728345236 -0.06274083852029833 0.1362482557017506 1.0 0.0 -25.74331581061125 -1.898077117132773
-0.06274083852030188 0.13624825570175103 1.0 0.0 -25.806056649131552 -1.761828861431022 -0.06274083852029833 0.1362482557017506
1.0 0.0 -25.86879748765185 -1.6255806057292714 -0.06274083852030188 0.1362482557017508 1.0 0.0
-25.931538326172152 -1.4893323500275206 -0.06274083852029833 0.1362482557017508 1.0 0.0 -25.99427916469245 -1.3530840943257698
-0.06274083852029833 0.1362482557017508 1.0 0.0 -26.05702000321275 -1.216835838624019 -0.06274083852030188 0.1362482557017506
1.0 0.0 -26.11976084173305 -1.0805875829222684 -0.06274083852029833 0.13624825570175103 1.0 0.0
-26.18250168025335 -0.9443393272205174 -0.06274083852030188 0.1362482557017508 1.0 0.0 -26.24524251877365 -0.8080910715187666
-0.06274083852029833 0.1362482557017506 1.0 0.0 -26.30798335729395 -0.671842815817016 -0.04552008200359836 0.14292628216806635
1.0 0.0 -26.353503439297548 -0.5289165336489496 -0.04552008200359836 0.1429262821680664 1.0 0.0
-26.399023521301146 -0.38599025148088323 -0.04552008200359836 0.1429262821680663 1.0 0.0 -26.444543603304744 -0.24306396931281693
-0.022607242170060715 0.1482865894188148 1.0 0.0 -26.467150845474805 -0.09477737989400212 -0.022607242170064268 0.1482865894188148
1.0 0.0 -26.48975808764487 0.053509209524812695 0.010094574690768354 0.14965994641791266 1.0 0.0
-26.4796635129541 0.20316915594272536 0.010094574690768354 0.14965994641791266 1.0 0.0 -26.469568938263333 0.352829102360638
0.06353400318341684 0.13588020620932784 1.0 0.0 -26.406034935079916 0.48870930856996586 0.06353400318341684 0.13588020620932784
1.0 0.0 -26.3425009318965 0.6245895147792937 0.12804155687058127 0.07813680127928024 1.0 0.0
-26.214459375025918 0.7027263160585739 0.14797852552624136 0.02454294161423376 1.0 0.0 -26.066480849499676 0.7272692576728077
0.14845698302577048 -0.021459827373174423 1.0 0.0 -25.918023866473906 0.7058094302996333 0.14845698302576693 -0.021459827373174423
1.0 0.0 -25.76956688344814 0.6843496029264589 0.11974926273145314 -0.09033334974013307 1.0 0.0
-25.649817620716686 0.5940162531863258 0.1197492627314567 -0.09033334974013296 1.0 0.0 -25.53006835798523 0.5036829034461928
0.11974926273145314 -0.09033334974013307 1.0 0.0 -25.410319095253776 0.41334955370605975 0.11974926273145314 -0.09033334974013302
00000000: b085 b3cf c763 3ac0 362a 5bc0 a3b2 dcbf
00000010: 00cb 9d13 ce68 ba3f c872 5fbf 67e0 bbbf
00000020: 0000 0000 0000 f03f 0000 0000 0000 0000
00000030: e5e7 9f01 5f49 3ac0 7483 19d8 5ed5 e1bf
00000040: 0075 3278 3886 b43f 4c86 bf6e 363a c0bf
00000050: 0000 0000 0000 f03f 0000 0000 0000 0000
00000060: 70b5 27c9 d834 3ac0 0765 c973 ece3 e5bf
00000070: 0074 3278 3886 b43f 4c86 bf6e 363a c0bf
00000080: 0000 0000 0000 f03f 0000 0000 0000 0000
00000090: fc82 af90 5220 3ac0 9a46 790f 7af2 e9bf
000000a0: 0075 3278 3886 b43f 5086 bf6e 363a c0bf
000000b0: 0000 0000 0000 f03f 0000 0000 0000 0000
000000c0: 8750 3758 cc0b 3ac0 2e28 29ab 0701 eebf
000000d0: 0074 3278 3886 b43f 4886 bf6e 363a c0bf
000000e0: 0000 0000 0000 f03f 0000 0000 0000 0000
000000f0: 131e bf1f 46f7 39c0 e084 6ca3 ca07 f1bf
00000100: 0075 3278 3886 b43f 5086 bf6e 363a c0bf
00000110: 0000 0000 0000 f03f 0000 0000 0000 0000
00000120: 9eeb 46e7 bfe2 39c0 aa75 4471 110f f3bf
00000130: 0074 3278 3886 b43f 5086 bf6e 363a c0bf
00000140: 0000 0000 0000 f03f 0000 0000 0000 0000
00000150: 2ab9 ceae 39ce 39c0 7466 1c3f 5816 f5bf
00000160: 0075 3278 3886 b43f 4886 bf6e 363a c0bf
00000170: 0000 0000 0000 f03f 0000 0000 0000 0000
00000180: b586 5676 b3b9 39c0 3d57 f40c 9f1d f7bf
00000190: 009a 62ff 022f aa3f 486e ed09 b80c c2bf
000001a0: 0000 0000 0000 f03f 0000 0000 0000 0000
000001b0: 68d5 d6f4 9bac 39c0 0605 320e 365f f9bf
000001c0: 009a 62ff 022f aa3f 506e ed09 b80c c2bf
000001d0: 0000 0000 0000 f03f 0000 0000 0000 0000
000001e0: 1b24 5773 849f 39c0 d0b2 6f0f cda0 fbbf
000001f0: 0098 62ff 022f aa3f 486e ed09 b80c c2bf
00000200: 0000 0000 0000 f03f 0000 0000 0000 0000
00000210: cf72 d7f1 6c92 39c0 9960 ad10 64e2 fdbf
00000220: 009a 62ff 022f aa3f 486e ed09 b80c c2bf
00000230: 0000 0000 0000 f03f 0000 0000 0000 0000
00000240: 82c1 5770 5585 39c0 3187 f588 fd11 00c0
00000250: 00b4 6d89 4f8a 91bf f0bc f3f9 0b13 c3bf
00000260: 0000 0000 0000 f03f 0000 0000 0000 0000
00000270: ef1c 3a04 b889 39c0 00c3 9448 2e43 01c0
00000280: 00b0 6d89 4f8a 91bf e0bc f3f9 0b13 c3bf
00000290: 0000 0000 0000 f03f 0000 0000 0000 0000
000002a0: 5b78 1c98 1a8e 39c0 cefe 3308 5f74 02c0
000002b0: 007c 9199 c80f b0bf e022 3035 9570 c13f
000002c0: 0000 0000 0000 f03f 0000 0000 0000 0000
000002d0: d709 b660 2a9e 39c0 a0fc e0b4 555d 01c0
000002e0: 007d 9199 c80f b0bf f022 3035 9570 c13f
000002f0: 0000 0000 0000 f03f 0000 0000 0000 0000
00000300: 549b 4f29 3aae 39c0 71fa 8d61 4c46 00c0
00000310: 007c 9199 c80f b0bf e022 3035 9570 c13f
00000320: 0000 0000 0000 f03f 0000 0000 0000 0000
00000330: d02c e9f1 49be 39c0 86f0 751c 865e febf
00000340: 007d 9199 c80f b0bf f022 3035 9570 c13f
00000350: 0000 0000 0000 f03f 0000 0000 0000 0000
00000360: 4dbe 82ba 59ce 39c0 28ec cf75 7330 fcbf
00000370: 007c 9199 c80f b0bf e022 3035 9570 c13f
00000380: 0000 0000 0000 f03f 0000 0000 0000 0000
00000390: c94f 1c83 69de 39c0 cce7 29cf 6002 fabf
000003a0: 007d 9199 c80f b0bf e822 3035 9570 c13f
000003b0: 0000 0000 0000 f03f 0000 0000 0000 0000
000003c0: 46e1 b54b 79ee 39c0 6fe3 8328 4ed4 f7bf
000003d0: 007c 9199 c80f b0bf e822 3035 9570 c13f
000003e0: 0000 0000 0000 f03f 0000 0000 0000 0000
000003f0: c272 4f14 89fe 39c0 12df dd81 3ba6 f5bf
00000400: 007c 9199 c80f b0bf e822 3035 9570 c13f
00000410: 0000 0000 0000 f03f 0000 0000 0000 0000
00000420: 3e04 e9dc 980e 3ac0 b5da 37db 2878 f3bf
00000430: 007d 9199 c80f b0bf e022 3035 9570 c13f
00000440: 0000 0000 0000 f03f 0000 0000 0000 0000
00000450: bb95 82a5 a81e 3ac0 59d6 9134 164a f1bf
00000460: 007c 9199 c80f b0bf f022 3035 9570 c13f
00000470: 0000 0000 0000 f03f 0000 0000 0000 0000
00000480: 3727 1c6e b82e 3ac0 f6a3 d71b 0738 eebf
00000490: 007d 9199 c80f b0bf e822 3035 9570 c13f
000004a0: 0000 0000 0000 f03f 0000 0000 0000 0000
000004b0: b4b8 b536 c83e 3ac0 3c9b 8bce e1db e9bf
000004c0: 007c 9199 c80f b0bf e022 3035 9570 c13f
000004d0: 0000 0000 0000 f03f 0000 0000 0000 0000
000004e0: 304a 4fff d74e 3ac0 8492 3f81 bc7f e5bf
000004f0: 008c 087f 684e a7bf 904a d38d 684b c23f
00000500: 0000 0000 0000 f03f 0000 0000 0000 0000
00000510: 76ce 8e33 7f5a 3ac0 e0bf ca5d e2ec e0bf
00000520: 008c 087f 684e a7bf 924a d38d 684b c23f
00000530: 0000 0000 0000 f03f 0000 0000 0000 0000
00000540: bc52 ce67 2666 3ac0 77da ab74 10b4 d8bf
00000550: 008c 087f 684e a7bf 8e4a d38d 684b c23f
00000560: 0000 0000 0000 f03f 0000 0000 0000 0000
00000570: 02d7 0d9c cd71 3ac0 606a 845b b81c cfbf
00000580: 00b8 1757 5a26 97bf c19d fe11 0efb c23f
00000590: 0000 0000 0000 f03f 0000 0000 0000 0000
000005a0: f09c a332 9777 3ac0 3e99 0b93 5443 b8bf
000005b0: 00bc 1757 5a26 97bf c19d fe11 0efb c23f
000005c0: 0000 0000 0000 f03f 0000 0000 0000 0000
000005d0: df62 39c9 607d 3ac0 8844 e321 8f65 ab3f
000005e0: 00a0 4fe1 76ac 843f ff69 b19f 0e28 c33f
000005f0: 0000 0000 0000 f03f 0000 0000 0000 0000
00000600: eb38 5d3a cb7a 3ac0 213b 2a68 7201 ca3f
00000610: 00a0 4fe1 76ac 843f ff69 b19f 0e28 c33f
00000620: 0000 0000 0000 f03f 0000 0000 0000 0000
00000630: f70e 81ab 3578 3ac0 90d2 ed83 c094 d63f
00000640: 0053 dbb1 c343 b03f d8e0 ebc8 8564 c13f
00000650: 0000 0000 0000 f03f 0000 0000 0000 0000
00000660: a433 cfe7 f167 3ac0 fcc2 6368 0347 df3f
00000670: 0053 dbb1 c343 b03f d8e0 ebc8 8564 c13f
00000680: 0000 0000 0000 f03f 0000 0000 0000 0000
00000690: 5158 1d24 ae57 3ac0 b4d9 6c26 a3fc e33f
000006a0: 80df a46d aa63 c03f 90ca 1bfe c500 b43f
000006b0: 0000 0000 0000 f03f 0000 0000 0000 0000
000006c0: 920e 42cf e636 3ac0 0653 30e6 bb7c e63f
000006d0: 00a0 d2d7 f5f0 c23f c0b5 52ee c821 993f
000006e0: 0000 0000 0000 f03f 0000 0000 0000 0000
000006f0: 5269 92e3 0411 3ac0 b4e8 a22d ca45 e73f
00000700: 80b0 7a6f a300 c33f e07b fba2 90f9 95bf
00000710: 0000 0000 0000 f03f 0000 0000 0000 0000
00000720: f173 b39c 03eb 39c0 d50c 8ba8 fd95 e63f
00000730: 00b0 7a6f a300 c33f e07b fba2 90f9 95bf
00000740: 0000 0000 0000 f03f 0000 0000 0000 0000
00000750: 917e d455 02c5 39c0 f630 7323 31e6 e53f
00000760: 00d6 263f e3a7 be3f 803b df1e 1620 b7bf
00000770: 0000 0000 0000 f03f 0000 0000 0000 0000
00000780: bb57 9572 5aa6 39c0 8649 975f 2e02 e33f
00000790: 00d7 263f e3a7 be3f 783b df1e 1620 b7bf
000007a0: 0000 0000 0000 f03f 0000 0000 0000 0000
000007b0: e430 568f b287 39c0 1762 bb9b 2b1e e03f
000007c0: 00d6 263f e3a7 be3f 803b df1e 1620 b7bf
000007d0: 0000 0000 0000 f03f 0000 0000 0000 0000
000007e0: 0e0a 17ac 0a69 39c0 4ef5 beaf 5174 da3f
000007f0: 00d6 263f e3a7 be3f 7c3b df1e 1620 b7bf
