data/online/npz-eval/b05/b05-038/b05-038-09.npz (npz, 23362 bytes, 1 tensors)

x f8 [473, 6]
0	0xc0339f2ada0693fb	-19.621747614484757
1	0xbff3863eba81b50e	-1.2202746663491015
2	0xbf8e914a76d4a800	-0.014925557853150195
3	0xbfc31ace8a44e880	-0.1492555785314984
4	0x3ff0000000000000	1.0
5	0x0000000000000000	0.0
6	0xc033a2fd03556e90	-19.636673172337908
7	0xbff5e9988bca521e	-1.3695302448806
8	0xbfc0e0d71d6d8b00	-0.13186158120068825
9	0xbfb24df305261ce0	-0.07150191188530952
10	0x3ff0000000000000	1.0
11	0x0000000000000000	0.0
12	0xc033c4beb19049a6	-19.768534753538596
13	0xbff70e77bc1cb3ec	-1.4410321567659095
14	0xbfc0e0d71d6d8a80	-0.1318615812006847
15	0xbfb24df305261ce0	-0.07150191188530952
16	0x3ff0000000000000	1.0
17	0x0000000000000000	0.0
18	0xc033e6805fcb24bb	-19.90039633473928
19	0xbff83356ec6f15ba	-1.512534068651219
20	0xbfc0e0d71d6d8b00	-0.13186158120068825
21	0xbfb24df305261ce0	-0.07150191188530952
22	0x3ff0000000000000	1.0
23	0x0000000000000000	0.0
24	0xc03408420e05ffd1	-20.03225791593997
25	0xbff958361cc17788	-1.5840359805365285
26	0xbfc2f8965c8c9c80	-0.14821128386504157
27	0xbf97a66bf7b69ec0	-0.023095786089156745
28	0x3ff0000000000000	1.0
29	0x0000000000000000	0.0
30	0xc0342e333abf190a	-20.18046919980501
31	0xbff9b6cfcca05203	-1.6071317666256852
32	0xbfc32abee8cb1a00	-0.1497419964491229
33	0x3f8202972f206200	0.008794003606497292
34	0x3ff0000000000000	1.0
35	0x0000000000000000	0.0
36	0xc0345488b890af3e	-20.330211196254133
37	0xbff992ca9e42113f	-1.598337763019188
38	0xbfc32abee8cb1a00	-0.1497419964491229
39	0x3f8202972f206280	0.008794003606497514
40	0x3ff0000000000000	1.0
41	0x0000000000000000	0.0
42	0xc0347ade36624572	-20.479953192703256
43	0xbff96ec56fe3d07a	-1.5895437594126904
44	0xbfbe8b61eb032b00	-0.11931430804831322
45	0x3fb745af98e27900	0.09090707285438171
46	0x3ff0000000000000	1.0
47	0x0000000000000000	0.0
48	0xc0349969984d489d	-20.59926750075157
49	0xbff7fa6a7655a8ea	-1.4986366865583087
50	0xbfbe8b61eb032c00	-0.11931430804831678
51	0x3fb745af98e27900	0.09090707285438171
52	0x3ff0000000000000	1.0
53	0x0000000000000000	0.0
54	0xc034b7f4fa384bc9	-20.718581808799886
55	0xbff6860f7cc7815a	-1.407729613703927
56	0xbfbe8b61eb032b00	-0.11931430804831322
57	0x3fb745af98e27900	0.09090707285438171
58	0x3ff0000000000000	1.0
59	0x0000000000000000	0.0
60	0xc034d6805c234ef4	-20.8378961168482
61	0xbff511b4833959ca	-1.3168225408495453
62	0xbfbe8b61eb032c00	-0.11931430804831678
63	0x3fb745af98e27900	0.09090707285438171
64	0x3ff0000000000000	1.0
65	0x0000000000000000	0.0
66	0xc034f50bbe0e5220	-20.957210424896516
67	0xbff39d5989ab323a	-1.2259154679951636
68	0xbfab8f10ad7bb400	-0.0538258754512313
69	0x3fc1ebd842134110	0.14000991083458603
70	0x3ff0000000000000	1.0
71	0x0000000000000000	0.0
72	0xc03502d346650ffa	-21.011036300347747
73	0xbff15fde8168ca18	-1.0859055571605776
74	0xbfab8f10ad7bb200	-0.053825875451227745
75	0x3fc1ebd842134108	0.1400099108345858
76	0x3ff0000000000000	1.0
77	0x0000000000000000	0.0
78	0xc035109acebbcdd3	-21.064862175798975
79	0xbfee44c6f24cc3ee	-0.9458956463259918
80	0xbf96621de3be1800	-0.021858660722067214
81	0x3fc2febb39004a30	0.1483987835241165
82	0x3ff0000000000000	1.0
83	0x0000000000000000	0.0
84	0xc03516335634bd59	-21.086720836521042
85	0xbfe98518240cb162	-0.7974968628018753
86	0xbf96621de3be1400	-0.02185866072206366
87	0x3fc2febb39004a34	0.14839878352411662
88	0x3ff0000000000000	1.0
89	0x0000000000000000	0.0
90	0xc0351bcbddadacde	-21.108579497243106
91	0xbfe4c56955cc9ed5	-0.6490980792777586
92	0xbf96621de3be1800	-0.021858660722067214
93	0x3fc2febb39004a34	0.14839878352411662
94	0x3ff0000000000000	1.0
95	0x0000000000000000	0.0
96	0xc035216465269c64	-21.130438157965173
97	0xbfe005ba878c8c48	-0.500699295753642
98	0xbf96621de3be1800	-0.021858660722067214
99	0x3fc2febb39004a30	0.1483987835241165
100	0x3ff0000000000000	1.0
101	0x0000000000000000	0.0
102	0xc03526fcec9f8bea	-21.15229681868724
103	0xbfd68c177298f378	-0.3523005122295255
104	0xbf96621de3be1400	-0.02185866072206366
105	0x3fc2febb39004a34	0.14839878352411662
106	0x3ff0000000000000	1.0
107	0x0000000000000000	0.0
108	0xc0352c9574187b6f	-21.174155479409304
109	0xbfca1973ac319cbc	-0.2039017287054089
110	0xbf96621de3be1800	-0.021858660722067214
111	0x3fc2febb39004a30	0.1483987835241165
112	0x3ff0000000000000	1.0
113	0x0000000000000000	0.0
114	0xc035322dfb916af5	-21.19601414013137
115	0xbfac6ae1ccc54a30	-0.055502945181292396
116	0xbf96621de3be1800	-0.021858660722067214
117	0x3fc2febb39004a34	0.14839878352411662
118	0x3ff0000000000000	1.0
119	0x0000000000000000	0.0
120	0xc03537c6830a5a7b	-21.21787280085344
121	0x3fb7c8058b9def50	0.09289583834282422
122	0x3f8b23aaea132800	0.013251624363324055
123	0x3fc31ffb4b6a11b0	0.14941350157108735
124	0x3ff0000000000000	1.0
125	0x0000000000000000	0.0
126	0xc03534620dad1816	-21.204621176490114
127	0x3fcf03fe11390958	0.24230933991391157
128	0x3f8b23aaea133000	0.013251624363327608
129	0x3fc31ffb4b6a11b0	0.14941350157108735
130	0x3ff0000000000000	1.0
131	0x0000000000000000	0.0
132	0xc03530fd984fd5b0	-21.191369552126787
133	0x3fd911fcae518d84	0.3917228414849989
134	0x3f8b23aaea132800	0.013251624363324055
135	0x3fc31ffb4b6a11b0	0.14941350157108735
136	0x3ff0000000000000	1.0
137	0x0000000000000000	0.0
138	0xc0352d9922f2934b	-21.178117927763463
139	0x3fe150fd2a034b2e	0.5411363430560863
140	0x3f8b23aaea132800	0.013251624363324055
141	0x3fc31ffb4b6a11b0	0.14941350157108735
142	0x3ff0000000000000	1.0
143	0x0000000000000000	0.0
144	0xc0352a34ad9550e6	-21.16486630340014
145	0x3fe618fbfcddcf9a	0.6905498446271736
146	0x3f8b23aaea133000	0.013251624363327608
147	0x3fc31ffb4b6a11ac	0.14941350157108724
148	0x3ff0000000000000	1.0
149	0x0000000000000000	0.0
150	0xc03526d038380e80	-21.15161467903681
151	0x3feae0facfb85405	0.8399633461982609
152	0x3f8b23aaea132800	0.013251624363324055
153	0x3fc31ffb4b6a11b0	0.14941350157108735
154	0x3ff0000000000000	1.0
155	0x0000000000000000	0.0
156	0xc035236bc2dacc1b	-21.138363054673487
157	0x3fefa8f9a292d871	0.9893768477693482
158	0x3f8b23aaea132800	0.013251624363324055
159	0x3fc31ffb4b6a11b4	0.14941350157108746
160	0x3ff0000000000000	1.0
161	0x0000000000000000	0.0
162	0xc03520074d7d89b6	-21.125111430310163
163	0x3ff2387c3ab6ae6f	1.1387903493404357
164	0x3fa5439b6235ce00	0.04153142522673292
165	0x3fc2730b1211ba48	0.14413584120070966
166	0x3ff0000000000000	1.0
167	0x0000000000000000	0.0
168	0xc03515657fcc6ecf	-21.08358000508343
169	0x3ff486dd9cf8e5b8	1.2829261905411453
170	0x3fa5439b6235d000	0.041531425226736474
171	0x3fc2730b1211ba48	0.14413584120070966
172	0x3ff0000000000000	1.0
173	0x0000000000000000	0.0
174	0xc0350ac3b21b53e7	-21.042048579856694
175	0x3ff6d53eff3b1d01	1.427062031741855
176	0x3fa5439b6235ce00	0.04153142522673292
177	0x3fc2730b1211ba50	0.14413584120070988
178	0x3ff0000000000000	1.0
179	0x0000000000000000	0.0
180	0xc0350021e46a3900	-21.00051715462996
181	0x3ff923a0617d544b	1.5711978729425649
182	0x3fa5439b6235ce00	0.04153142522673292
183	0x3fc2730b1211ba48	0.14413584120070966
184	0x3ff0000000000000	1.0
185	0x0000000000000000	0.0
186	0xc034f58016b91e19	-20.958985729403228
187	0x3ffb7201c3bf8b94	1.7153337141432745
188	0x3fa5439b6235ce00	0.04153142522673292
189	0x3fc2730b1211ba48	0.14413584120070966
190	0x3ff0000000000000	1.0
191	0x0000000000000000	0.0
192	0xc034eade49080332	-20.917454304176495
193	0x3ffdc0632601c2dd	1.8594695553439842
194	0x3fa5439b6235d000	0.041531425226736474
195	0x3fc2730b1211ba48	0.14413584120070966
196	0x3ff0000000000000	1.0
197	0x0000000000000000	0.0
198	0xc034e03c7b56e84a	-20.87592287894976
199	0x400007624421fd13	2.003605396544694
200	0x3f70bf904bd6a000	0.004088939339830233
201	0x3f8d100c49c2d400	0.01419076538182118
202	0x0000000000000000	0.0
203	0x3ff0000000000000	1.0
204	0xc0352ac0112b2048	-21.16699321082004
205	0x3fda5aa4e788a4c5	0.411782480342094
206	0x3fc2721a33b53c80	0.14410712742617093
207	0x3fa550a6cfa99b38	0.041630947923116
208	0x3ff0000000000000	1.0
209	0x0000000000000000	0.0
210	0xc03505dbdcc3b5cf	-21.022886083393868
211	0x3fdd04b9c17dd82c	0.45341342826521003
212	0x3fc2721a33b53c80	0.14410712742617093
213	0x3fa550a6cfa99b38	0.041630947923116
214	0x3ff0000000000000	1.0
215	0x0000000000000000	0.0
216	0xc034e0f7a85c4b56	-20.878778955967697
217	0x3fdfaece9b730b93	0.49504437618832603
218	0x3fc2f17d45aebf80	0.14799466993781252
219	0x3f990837255e19b0	0.024445401817070056
220	0x3ff0000000000000	1.0
221	0x0000000000000000	0.0
222	0xc034bb14add0edd7	-20.730784286029884
223	0x3fe09fa906e47697	0.5194897780053961
224	0x3fc2f17d45aebf80	0.14799466993781252
225	0x3f990837255e19c0	0.02444540181707011
226	0x3ff0000000000000	1.0
227	0x0000000000000000	0.0
228	0xc0349531b3459058	-20.58278961609207
229	0x3fe167eac00f6765	0.5439351798224662
230	0x3fc331a5f4d10400	0.1499526448624522
231	0x3f6edfdecf911500	0.0037688590787491316
232	0x3ff0000000000000	1.0
233	0x0000000000000000	0.0
234	0xc0346ece675bee50	-20.43283697122962
235	0x3fe186ca9edef87a	0.5477040389012153
236	0x3fc331a5f4d10400	0.1499526448624522
237	0x3f6edfdecf911500	0.0037688590787491316
238	0x3ff0000000000000	1.0
239	0x0000000000000000	0.0
240	0xc034486b1b724c48	-20.282884326367167
241	0x3fe1a5aa7dae898f	0.5514728979799645
242	0x3fc331a5f4d10400	0.1499526448624522
243	0x3f6edfdecf911600	0.0037688590787492426
244	0x3ff0000000000000	1.0
245	0x0000000000000000	0.0
246	0xc0342207cf88aa40	-20.132931681504715
247	0x3fe1c48a5c7e1aa5	0.5552417570587137
248	0x3fc331a5f4d10380	0.14995264486244864
249	0x3f6edfdecf911500	0.0037688590787491316
250	0x3ff0000000000000	1.0
251	0x0000000000000000	0.0
252	0xc033fba4839f0839	-19.982979036642266
253	0x3fe1e36a3b4dabba	0.5590106161374628
254	0x3fc30180a0da1180	0.1484833512696575
255	0xbf95c9898a8381e0	-0.021276616172032692
