data/online/npz-train/b05/b05-411/b05-411z-05.npz (npz, 31114 bytes, 1 tensors)

x f8 [633, 6]
-15.590426527205725 0.6361960362251475 -0.14864886456154913 0.020087684400209138 1.0 0.0 -15.739075391767274 0.6562837206253567
-0.13951541361115183 0.05509491233234798 1.0 0.0 -15.878590805378426 0.7113786329577046 -0.1395154136111536 0.05509491233234798
1.0 0.0 -16.01810621898958 0.7664735452900526 -0.12332688444788431 0.08538430518765272 1.0 0.0
-16.141433103437464 0.8518578504777053 -0.08607611167576934 0.12284503652480494 1.0 0.0 -16.227509215113233 0.9747028870025103
-0.08607611167576579 0.12284503652480483 1.0 0.0 -16.313585326789 1.0975479235273151 -0.05386789667556613 0.13999374881669024
1.0 0.0 -16.367453223464565 1.2375416723440054 -0.05386789667556613 0.13999374881669024 1.0 0.0
-16.42132112014013 1.3775354211606956 -0.05386789667556613 0.13999374881669002 1.0 0.0 -16.475189016815698 1.5175291699773856
-0.05386789667556613 0.13999374881669024 1.0 0.0 -16.529056913491264 1.6575229187940759 -0.013045541860243759 0.14943163599978626
1.0 0.0 -16.542102455351507 1.8069545547938621 -0.013045541860247312 0.14943163599978604 1.0 0.0
-16.555147997211755 1.9563861907936482 -0.013045541860243759 0.14943163599978648 1.0 0.0 -16.568193539072 2.1058178267934347
0.07021627620116888 0.1325506490230861 1.0 0.0 -16.49797726287083 2.2383684758165208 0.14733255437028348 0.028162358259344433
1.0 0.0 -16.350644708500546 2.266530834075865 0.12449792842901886 -0.08366759119804579 1.0 0.0
-16.226146780071527 2.1828632428778194 0.08341735197966926 -0.12466573462142572 1.0 0.0 -16.142729428091858 2.0581975082563937
0.08341735197967282 -0.12466573462142527 1.0 0.0 -16.059312076112185 1.9335317736349684 0.08341735197967104 -0.12466573462142572
1.0 0.0 -15.975894724132514 1.8088660390135427 0.08341735197967104 -0.1246657346214255 1.0 0.0
-15.892477372152843 1.6842003043921172 0.05623460944005565 -0.13905994643003572 1.0 0.0 -15.836242762712788 1.5451403579620815
0.05623460944005565 -0.13905994643003572 1.0 0.0 -15.780008153272732 1.4060804115320458 0.05623460944005565 -0.13905994643003572
1.0 0.0 -15.723773543832676 1.26702046510201 0.05623460944005565 -0.13905994643003572 1.0 0.0
-15.66753893439262 1.1279605186719743 0.05623460944005565 -0.1390599464300356 1.0 0.0 -15.611304324952565 0.9889005722419387
-0.012447941813061192 0.14948260348488274 1.0 0.0 -15.623752266765626 1.1383831757268215 -0.012447941813059415 0.14948260348488263
1.0 0.0 -15.636200208578686 1.287865779211704 -0.012447941813061192 0.14948260348488263 1.0 0.0
-15.648648150391747 1.4373483826965867 -0.012447941813061192 0.14948260348488263 1.0 0.0 -15.661096092204808 1.5868309861814693
0.029086666052066334 0.1471528656125174 1.0 0.0 -15.632009426152742 1.7339838517939867 0.09172372330451672 0.11868765135074733
1.0 0.0 -15.540285702848225 1.852671503144734 0.13421134534509704 -0.06698742255572276 1.0 0.0
-15.406074357503128 1.7856840805890113 0.13421134534509882 -0.06698742255572276 1.0 0.0 -15.271863012158029 1.7186966580332885
0.13421134534509704 -0.06698742255572276 1.0 0.0 -15.137651666812932 1.6517092354775658 0.08545552871679796 -0.1232775430146642
1.0 0.0 -15.052196138096134 1.5284316924629016 0.08545552871679973 -0.12327754301466443 1.0 0.0
-14.966740609379334 1.4051541494482371 0.08545552871679796 -0.1232775430146642 1.0 0.0 -14.881285080662536 1.281876606433573
0.08545552871679796 -0.12327754301466443 1.0 0.0 -14.795829551945738 1.1585990634189085 0.08545552871679973 -0.1232775430146642
1.0 0.0 -14.710374023228939 1.0353215204042443 0.13140959336947056 0.0723292386968808 1.0 0.0
-14.578964429859468 1.107650759101125 0.00035562290762847226 0.1499995784405661 1.0 0.0 -14.57860880695184 1.2576503375416912
0.00035562290762847226 0.14999957844056633 1.0 0.0 -14.578253184044211 1.4076499159822575 0.00035562290762847226 0.1499995784405661
00000000: 3214 c262 4c2e 2fc0 a2d1 2dca b75b e43f
00000010: c08f f00d ed06 c3bf 807f 34ae dd91 943f
00000020: 0000 0000 0000 f03f 0000 0000 0000 0000
00000030: 71d6 f916 687a 2fc0 9e75 9fb7 4600 e53f
00000040: 40b8 5f1d a4db c1bf 906e 497d 6635 ac3f
00000050: 0000 0000 0000 f03f 0000 0000 0000 0000
00000060: 5255 6fa7 d6c1 2fc0 870c 741f 9dc3 e63f
00000070: 80b8 5f1d a4db c1bf 906e 497d 6635 ac3f
00000080: 0000 0000 0000 f03f 0000 0000 0000 0000
00000090: 1a6a f29b a204 30c0 70a3 4887 f386 e83f
000000a0: 00d6 6bc7 5992 bfbf 1866 5fee bedb b53f
000000b0: 0000 0000 0000 f03f 0000 0000 0000 0000
000000c0: f0d5 b9f5 3424 30c0 3390 1465 6b42 eb3f
000000d0: 0041 9d84 1509 b6bf 2897 59b6 c572 bf3f
000000e0: 0000 0000 0000 f03f 0000 0000 0000 0000
000000f0: 3173 3e0b 3e3a 30c0 18c3 df1b c430 ef3f
00000100: 0040 9d84 1509 b6bf 2097 59b6 c572 bf3f
00000110: 0000 0000 0000 f03f 0000 0000 0000 0000
00000120: 7110 c320 4750 30c0 fe7a 5569 8e8f f13f
00000130: 003e 0dad 9294 abbf a8f3 67ae 50eb c13f
00000140: 0000 0000 0000 f03f 0000 0000 0000 0000
00000150: 1097 196a 115e 30c0 7379 227f f8cc f33f
00000160: 003e 0dad 9294 abbf a8f3 67ae 50eb c13f
00000170: 0000 0000 0000 f03f 0000 0000 0000 0000
00000180: af1d 70b3 db6b 30c0 e877 ef94 620a f63f
00000190: 003e 0dad 9294 abbf a0f3 67ae 50eb c13f
000001a0: 0000 0000 0000 f03f 0000 0000 0000 0000
000001b0: 4ea4 c6fc a579 30c0 5c76 bcaa cc47 f83f
000001c0: 003e 0dad 9294 abbf a8f3 67ae 50eb c13f
000001d0: 0000 0000 0000 f03f 0000 0000 0000 0000
000001e0: ed2a 1d46 7087 30c0 d174 89c0 3685 fa3f
000001f0: 00d0 2ffd 9eb7 8abf 88ad cd6a 9320 c33f
00000200: 0000 0000 0000 f03f 0000 0000 0000 0000
00000210: e7d0 fc39 c78a 30c0 822a e32d 49e9 fc3f
00000220: 00d8 2ffd 9eb7 8abf 80ad cd6a 9320 c33f
00000230: 0000 0000 0000 f03f 0000 0000 0000 0000
00000240: e276 dc2d 1e8e 30c0 32e0 3c9b 5b4d ff3f
00000250: 00d0 2ffd 9eb7 8abf 90ad cd6a 9320 c33f
00000260: 0000 0000 0000 f03f 0000 0000 0000 0000
00000270: dc1c bc21 7591 30c0 f24a 4b04 b7d8 0040
00000280: 0051 eea1 b1f9 b13f c011 4f6f 6bf7 c03f
00000290: 0000 0000 0000 f03f 0000 0000 0000 0000
000002a0: 8b2e 1a70 7b7f 30c0 0e3c 40bb 2de8 0140
000002b0: 8008 540b cbdb c23f 80f8 cede 97d6 9c3f
000002c0: 0000 0000 0000 f03f 0000 0000 0000 0000
000002d0: 7a86 03da c359 30c0 ffd9 fdea da21 0240
000002e0: 00bb 05a3 18df bf3f a042 ee3f 3d6b b5bf
000002f0: 0000 0000 0000 f03f 0000 0000 0000 0000
00000300: bf80 60c1 e439 30c0 ea67 fe00 8176 0140
00000310: 00ee abee d65a b53f a07e 21f5 17ea bfbf
00000320: 0000 0000 0000 f03f 0000 0000 0000 0000
00000330: d1d4 71ea 8924 30c0 f55b 5541 3077 0040
00000340: 00ef abee d65a b53f 807e 21f5 17ea bfbf
00000350: 0000 0000 0000 f03f 0000 0000 0000 0000
00000360: e228 8313 2f0f 30c0 02a0 5803 bfef fe3f
00000370: 80ee abee d65a b53f a07e 21f5 17ea bfbf
00000380: 0000 0000 0000 f03f 0000 0000 0000 0000
00000390: e7f9 2879 a8f3 2fc0 1888 0684 1df1 fc3f
000003a0: 80ee abee d65a b53f 907e 21f5 17ea bfbf
000003b0: 0000 0000 0000 f03f 0000 0000 0000 0000
000003c0: 0aa2 4bcb f2c8 2fc0 2f70 b404 7cf2 fa3f
000003d0: 0091 e560 c8ca ac3f b0dd 0c61 b7cc c1bf
000003e0: 0000 0000 0000 f03f 0000 0000 0000 0000
000003f0: 79bc ea02 28ac 2fc0 79d4 9218 e5b8 f83f
00000400: 0091 e560 c8ca ac3f b0dd 0c61 b7cc c1bf
00000410: 0000 0000 0000 f03f 0000 0000 0000 0000
00000420: e8d6 893a 5d8f 2fc0 c338 712c 4e7f f63f
00000430: 0091 e560 c8ca ac3f b0dd 0c61 b7cc c1bf
00000440: 0000 0000 0000 f03f 0000 0000 0000 0000
00000450: 57f1 2872 9272 2fc0 0d9d 4f40 b745 f43f
00000460: 0091 e560 c8ca ac3f b0dd 0c61 b7cc c1bf
00000470: 0000 0000 0000 f03f 0000 0000 0000 0000
00000480: c60b c8a9 c755 2fc0 5701 2e54 200c f23f
00000490: 0091 e560 c8ca ac3f acdd 0c61 b7cc c1bf
000004a0: 0000 0000 0000 f03f 0000 0000 0000 0000
000004b0: 3526 67e1 fc38 2fc0 43cb 18d0 12a5 ef3f
000004c0: 00b8 ea77 4e7e 89bf cced a4f6 3e22 c33f
000004d0: 0000 0000 0000 f03f 0000 0000 0000 0000
000004e0: e320 0575 5c3f 2fc0 5b03 e146 d136 f23f
000004f0: 00b4 ea77 4e7e 89bf c8ed a4f6 3e22 c33f
00000500: 0000 0000 0000 f03f 0000 0000 0000 0000
00000510: 901b a308 bc45 2fc0 14a1 b525 199b f43f
00000520: 00b8 ea77 4e7e 89bf c8ed a4f6 3e22 c33f
00000530: 0000 0000 0000 f03f 0000 0000 0000 0000
00000540: 3e16 419c 1b4c 2fc0 cd3e 8a04 61ff f63f
00000550: 00b8 ea77 4e7e 89bf c8ed a4f6 3e22 c33f
00000560: 0000 0000 0000 f03f 0000 0000 0000 0000
00000570: ec10 df2f 7b52 2fc0 86dc 5ee3 a863 f93f
00000580: 00f0 c51d e5c8 9d3f d0c2 a8b4 e7d5 c23f
00000590: 0000 0000 0000 f03f 0000 0000 0000 0000
000005a0: f42d 50bd 9643 2fc0 e0f4 f3d9 65be fb3f
000005b0: 8039 dcb7 347b b73f 1092 fd5c 5062 be3f
000005c0: 0000 0000 0000 f03f 0000 0000 0000 0000
000005d0: 8175 e053 a014 2fc0 01ce c3df 8aa4 fd3f
000005e0: 8032 815d d62d c13f f0c2 1e75 1626 b1bf
000005f0: 0000 0000 0000 f03f 0000 0000 0000 0000
00000600: b770 6afa e8cf 2ec0 d2e1 7178 2992 fc3f
00000610: c032 815d d62d c13f f0c2 1e75 1626 b1bf
00000620: 0000 0000 0000 f03f 0000 0000 0000 0000
00000630: ec6b f4a0 318b 2ec0 a3f5 1f11 c87f fb3f
00000640: 8032 815d d62d c13f f0c2 1e75 1626 b1bf
00000650: 0000 0000 0000 f03f 0000 0000 0000 0000
00000660: 2267 7e47 7a46 2ec0 7409 cea9 666d fa3f
00000670: 80dd 19dd 69e0 b53f 8047 94f7 1d8f bfbf
00000680: 0000 0000 0000 f03f 0000 0000 0000 0000
00000690: 6733 c473 b91a 2ec0 fcc4 54ca 7474 f83f
000006a0: 00de 19dd 69e0 b53f 9047 94f7 1d8f bfbf
000006b0: 0000 0000 0000 f03f 0000 0000 0000 0000
000006c0: abff 09a0 f8ee 2dc0 8380 dbea 827b f63f
000006d0: 80dd 19dd 69e0 b53f 8047 94f7 1d8f bfbf
000006e0: 0000 0000 0000 f03f 0000 0000 0000 0000
000006f0: f0cb 4fcc 37c3 2dc0 0b3c 620b 9182 f43f
00000700: 80dd 19dd 69e0 b53f 9047 94f7 1d8f bfbf
00000710: 0000 0000 0000 f03f 0000 0000 0000 0000
00000720: 3598 95f8 7697 2dc0 92f7 e82b 9f89 f23f
00000730: 00de 19dd 69e0 b53f 8047 94f7 1d8f bfbf
00000740: 0000 0000 0000 f03f 0000 0000 0000 0000
00000750: 7964 db24 b66b 2dc0 1ab3 6f4c ad90 f03f
00000760: 4086 f390 07d2 c03f 0068 bf42 2b84 b23f
00000770: 0000 0000 0000 f03f 0000 0000 0000 0000
00000780: 6096 9706 6e28 2dc0 9aa9 9b00 f0b8 f13f
00000790: 0080 0ac2 5c4e 373f 4873 e8a9 2f33 c33f
000007a0: 0000 0000 0000 f03f 0000 0000 0000 0000
000007b0: 4b12 de69 3f28 2dc0 03b8 d8f5 551f f43f
000007c0: 0080 0ac2 5c4e 373f 5073 e8a9 2f33 c33f
000007d0: 0000 0000 0000 f03f 0000 0000 0000 0000
000007e0: 368e 24cd 1028 2dc0 6dc6 15eb bb85 f63f
000007f0: 0080 0ac2 5c4e 373f 4873 e8a9 2f33 c33f
