data/online/npz-eval/b07/b07-580/b07-580z-01.npz (npz, 16594 bytes, 1 tensors)

x f8 [330, 6]
-16.67522460237736 0.7867685157058962 0.08320502943378472 0.12480754415067674 1.0 0.0 -16.592019572943574 0.911576059856573
0.03278090876917972 0.14637421911069826 1.0 0.0 -16.559238664174394 1.0579502789672712 0.01332098633627865 0.1494073335650854
1.0 0.0 -16.545917677838116 1.2073576125323566 0.01332098633627865 0.14940733356508518 1.0 0.0
-16.532596691501837 1.3567649460974418 0.01332098633627865 0.1494073335650854 1.0 0.0 -16.51927570516556 1.5061722796625272
0.013320986336282203 0.1494073335650854 1.0 0.0 -16.505954718829276 1.6555796132276126 0.01332098633627865 0.14940733356508518
1.0 0.0 -16.492633732492997 1.8049869467926978 0.0443030696562694 0.14330819243515625 1.0 0.0
-16.448330662836728 1.948295139227854 0.0443030696562694 0.14330819243515602 1.0 0.0 -16.40402759318046 2.09160333166301
0.02740945402838335 0.0886620124275379 0.0 1.0 -16.743327830832246 1.143000787623777 0.08404640515563244 -0.12424251196919434
1.0 0.0 -16.659281425676614 1.0187582756545828 0.13005394258753356 -0.07473936056348496 1.0 0.0
-16.52922748308908 0.9440189150910978 0.13005394258753356 -0.07473936056348507 1.0 0.0 -16.399173540501547 0.8692795545276127
0.14510275532280303 0.03801565990129241 1.0 0.0 -16.254070785178744 0.9072952144289052 0.12373655030953046 0.08478954014202877
1.0 0.0 -16.130334234869213 0.9920847545709339 0.12373655030953401 0.08478954014202866 1.0 0.0
-16.00659768455968 1.0768742947129626 -0.034932062817567555 0.14587580672376577 1.0 0.0 -16.041529747377247 1.2227501014367284
-0.034932062817567555 0.14587580672376577 1.0 0.0 -16.076461810194814 1.3686259081604941 -0.03493206281757111 0.14587580672376577
1.0 0.0 -16.111393873012386 1.5145017148842599 -0.034932062817567555 0.14587580672376577 1.0 0.0
-16.146325935829953 1.6603775216080257 -0.034932062817567555 0.14587580672376577 1.0 0.0 -16.18125799864752 1.8062533283317914
0.1274630846775331 0.07907693750069011 1.0 0.0 -16.053794913969988 1.8853302658324815 0.1499476780579716 -0.003961545787071641
1.0 0.0 -15.903847235912016 1.88136872004541 0.14994767805796982 -0.003961545787071641 1.0 0.0
-15.753899557854046 1.8774071742583383 0.13835086626595228 0.057957206656813254 1.0 0.0 -15.615548691588094 1.9353643809151515
-0.11485858320421016 0.09647541585461927 1.0 0.0 -15.730407274792304 2.031839796769771 -0.11485858320420839 0.09647541585461905
1.0 0.0 -15.845265857996512 2.12831521262439 -0.11485858320421016 0.09647541585461905 1.0 0.0
-15.960124441200723 2.224790628479009 -0.11485858320421016 0.09647541585461905 1.0 0.0 -16.074983024404933 2.321266044333628
-0.1251638310411458 0.08266810387993218 1.0 0.0 -16.20014685544608 2.40393414821356 -0.12516383104114936 0.08266810387993218
1.0 0.0 -16.325310686487228 2.4866022520934923 -0.14711672181339708 0.029268928283760598 1.0 0.0
-16.472427408300625 2.515871180377253 -0.14517138538413477 -0.0003284038934050493 0.0 1.0 -15.407456811140193 1.483516929898222
0.002054601754045038 0.14998592804537458 1.0 0.0 -15.405402209386148 1.6335028579435966 0.0020546017540468142 0.14998592804537436
1.0 0.0 -15.403347607632101 1.783488785988971 0.07260367289942771 0.13125816805636448 1.0 0.0
-15.330743934732673 1.9147469540453355 0.09748209790948614 -0.11400544104193244 1.0 0.0 -15.233261836823187 1.800741513003403
0.09748209790948437 -0.11400544104193244 1.0 0.0 -15.135779738913703 1.6867360719614706 0.09748209790948614 -0.11400544104193222
1.0 0.0 -15.038297641004217 1.5727306309195384 0.09748209790948437 -0.11400544104193244 1.0 0.0
-14.940815543094732 1.458725189877606 0.04271526642307144 0.14378945028897672 1.0 0.0 -14.898100276671661 1.6025146401665826
0.042715266423069664 0.14378945028897672 1.0 0.0 -14.855385010248591 1.7463040904555593 0.04271526642307144 0.14378945028897672
00000000: 55aa 0085 dbac 30c0 5156 8f2a 352d e93f
00000010: 00e4 47c0 ec4c b53f e8d5 6b20 63f3 bf3f
00000020: 0000 0000 0000 f03f 0000 0000 0000 0000
00000030: 7162 4098 8e97 30c0 0ed1 9c8e a12b ed3f
00000040: 008e 31c6 a8c8 a03f 206c 07f2 63bc c23f
00000050: 0000 0000 0000 f03f 0000 0000 0000 0000
00000060: aa49 dd43 2a8f 30c0 0b56 8f45 5ded f03f
00000070: 0078 5185 0848 8b3f d0e8 b88d c71f c33f
00000080: 0000 0000 0000 f03f 0000 0000 0000 0000
00000090: 7b9f cc42 c18b 30c0 2573 4637 5651 f33f
000000a0: 0078 5185 0848 8b3f c8e8 b88d c71f c33f
000000b0: 0000 0000 0000 f03f 0000 0000 0000 0000
000000c0: 4cf5 bb41 5888 30c0 3e90 fd28 4fb5 f53f
000000d0: 0078 5185 0848 8b3f d0e8 b88d c71f c33f
000000e0: 0000 0000 0000 f03f 0000 0000 0000 0000
000000f0: 1d4b ab40 ef84 30c0 58ad b41a 4819 f83f
00000100: 0080 5185 0848 8b3f d0e8 b88d c71f c33f
00000110: 0000 0000 0000 f03f 0000 0000 0000 0000
00000120: eda0 9a3f 8681 30c0 72ca 6b0c 417d fa3f
00000130: 0078 5185 0848 8b3f c8e8 b88d c71f c33f
00000140: 0000 0000 0000 f03f 0000 0000 0000 0000
00000150: bef6 893e 1d7e 30c0 8be7 22fe 39e1 fc3f
00000160: 007a 9256 e4ae a63f e801 e13f ec57 c23f
00000170: 0000 0000 0000 f03f 0000 0000 0000 0000
00000180: 81ad 5ecc c572 30c0 c807 1f86 372c ff3f
00000190: 007a 9256 e4ae a63f e001 e13f ec57 c23f
000001a0: 0000 0000 0000 f03f 0000 0000 0000 0000
000001b0: 4464 335a 6e67 30c0 0294 0d87 9abb 0040
000001c0: 00cc 9c52 3911 9c3f 2019 c6bb 8db2 b63f
000001d0: 0000 0000 0000 0000 0000 0000 0000 f03f
000001e0: 91a1 93bb 4abe 30c0 8257 a231 bb49 f23f
000001f0: 0064 7db1 1084 b53f 603a ae75 5bce bfbf
00000200: 0000 0000 0000 f03f 0000 0000 0000 0000
00000210: 2d24 e2aa c6a8 30c0 dc73 477a d54c f03f
00000220: 808d 108b 9ba5 c03f 4018 5865 1e22 b3bf
00000230: 0000 0000 0000 f03f 0000 0000 0000 0000
00000240: 1203 cc73 7b87 30c0 b0e4 e327 6735 ee3f
00000250: 808d 108b 9ba5 c03f 4818 5865 1e22 b3bf
00000260: 0000 0000 0000 f03f 0000 0000 0000 0000
00000270: f7e1 b53c 3066 30c0 a7e1 385b 23d1 eb3f
00000280: 00e1 5522 ba92 c23f 0019 06e0 c976 a33f
00000290: 0000 0000 0000 f03f 0000 0000 0000 0000
000002a0: 3536 71c8 0a41 30c0 3743 39f9 8f08 ed3f
000002b0: 0038 e6d4 32ad bf3f c8f0 f36d c4b4 b53f
000002c0: 0000 0000 0000 f03f 0000 0000 0000 0000
000002d0: fd4f 9c95 5d21 30c0 50c1 f786 28bf ef3f
000002e0: 0039 e6d4 32ad bf3f c0f0 f36d c4b4 b53f
000002f0: 0000 0000 0000 f03f 0000 0000 0000 0000
00000300: c469 c762 b001 30c0 b41f 5b8a e03a f13f
00000310: 003c c486 9de2 a1bf 10fe 93f5 0eac c23f
00000320: 0000 0000 0000 f03f 0000 0000 0000 0000
00000330: e2cb 8ab1 a10a 30c0 769f 0d69 6290 f33f
00000340: 003c c486 9de2 a1bf 10fe 93f5 0eac c23f
00000350: 0000 0000 0000 f03f 0000 0000 0000 0000
00000360: 002e 4e00 9313 30c0 381f c047 e4e5 f53f
00000370: 003e c486 9de2 a1bf 10fe 93f5 0eac c23f
00000380: 0000 0000 0000 f03f 0000 0000 0000 0000
00000390: 1f90 114f 841c 30c0 fa9e 7226 663b f83f
000003a0: 003c c486 9de2 a1bf 10fe 93f5 0eac c23f
000003b0: 0000 0000 0000 f03f 0000 0000 0000 0000
000003c0: 3df2 d49d 7525 30c0 bc1e 2505 e890 fa3f
000003d0: 003c c486 9de2 a1bf 10fe 93f5 0eac c23f
000003e0: 0000 0000 0000 f03f 0000 0000 0000 0000
000003f0: 5b54 98ec 662e 30c0 7e9e d7e3 69e6 fc3f
00000400: 8092 11da b550 c03f c0ec 6edc 623e b43f
00000410: 0000 0000 0000 f03f 0000 0000 0000 0000
00000420: 3631 e480 c50d 30c0 4a8d 9e11 502a fe3f
00000430: 4060 af4a 7c31 c33f 00a3 8d59 fb39 70bf
00000440: 0000 0000 0000 f03f 0000 0000 0000 0000
00000450: eba4 9d10 c5ce 2fc0 a7ff 4416 161a fe3f
00000460: 0060 af4a 7c31 c33f 00a3 8d59 fb39 70bf
00000470: 0000 0000 0000 f03f 0000 0000 0000 0000
00000480: 6be7 721f ff81 2fc0 0472 eb1a dc09 fe3f
00000490: 0026 fe2e 7bb5 c13f 602a 5126 91ac ad3f
000004a0: 0000 0000 0000 f03f 0000 0000 0000 0000
000004b0: d3ee b632 293b 2fc0 57fb 1da4 40f7 fe3f
000004c0: 00e8 8642 5f67 bdbf d0ad f6e3 9cb2 b83f
000004d0: 0000 0000 0000 f03f 0000 0000 0000 0000
000004e0: a3fc 3bf1 f775 2fc0 1ab3 2e39 3541 0040
000004f0: 80e7 8642 5f67 bdbf c0ad f6e3 9cb2 b83f
00000500: 0000 0000 0000 f03f 0000 0000 0000 0000
00000510: 720a c1af c6b0 2fc0 8868 4e20 ca06 0140
00000520: 00e8 8642 5f67 bdbf c0ad f6e3 9cb2 b83f
00000530: 0000 0000 0000 f03f 0000 0000 0000 0000
00000540: 4218 466e 95eb 2fc0 f61d 6e07 5fcc 0140
00000550: 00e8 8642 5f67 bdbf c0ad f6e3 9cb2 b83f
00000560: 0000 0000 0000 f03f 0000 0000 0000 0000
00000570: 0993 6516 3213 30c0 64d3 8dee f391 0240
00000580: 805d 7b50 5e05 c0bf 002e 96a2 bc29 b53f
00000590: 0000 0000 0000 f03f 0000 0000 0000 0000
000005a0: c489 06d3 3c33 30c0 d484 a2d3 413b 0340
000005b0: 005e 7b50 5e05 c0bf 002e 96a2 bc29 b53f
000005c0: 0000 0000 0000 f03f 0000 0000 0000 0000
000005d0: 8080 a78f 4753 30c0 4436 b7b8 8fe4 0340
000005e0: 000f 7182 b8d4 c2bf 8025 1287 acf8 9d3f
000005f0: 0000 0000 0000 f03f 0000 0000 0000 0000
00000600: 9e62 ac00 f178 30c0 8f5a c511 8120 0440
00000610: 801a 45d8 f994 c2bf 00e0 67fb b385 35bf
00000620: 0000 0000 0000 0000 0000 0000 0000 f03f
00000630: 58c2 dc2d 9ed0 2ec0 5f9a 8f3f 7cbc f73f
00000640: 00b0 e0ea cfd4 603f f854 e827 bd32 c33f
00000650: 0000 0000 0000 f03f 0000 0000 0000 0000
00000660: 4d14 dee0 90cf 2ec0 fea4 8ce4 d322 fa3f
00000670: 00c0 e0ea cfd4 603f f054 e827 bd32 c33f
00000680: 0000 0000 0000 f03f 0000 0000 0000 0000
00000690: 4166 df93 83ce 2ec0 9caf 8989 2b89 fc3f
000006a0: 802a ac80 2796 b23f 4846 9151 11cd c03f
000006b0: 0000 0000 0000 f03f 0000 0000 0000 0000
000006c0: ec0d de44 57a9 2ec0 65d8 bbb3 cda2 fe3f
000006d0: 807a 7736 96f4 b83f 0056 d7e8 752f bdbf
000006e0: 0000 0000 0000 f03f 0000 0000 0000 0000
000006f0: f71e 7118 6e77 2ec0 0563 2e55 d6cf fc3f
00000700: 007a 7736 96f4 b83f 0056 d7e8 752f bdbf
00000710: 0000 0000 0000 f03f 0000 0000 0000 0000
00000720: 0330 04ec 8445 2ec0 a5ed a0f6 defc fa3f
00000730: 807a 7736 96f4 b83f f055 d7e8 752f bdbf
00000740: 0000 0000 0000 f03f 0000 0000 0000 0000
00000750: 0e41 97bf 9b13 2ec0 4678 1398 e729 f93f
00000760: 007a 7736 96f4 b83f 0056 d7e8 752f bdbf
00000770: 0000 0000 0000 f03f 0000 0000 0000 0000
00000780: 1a52 2a93 b2e1 2dc0 e602 8639 f056 f73f
00000790: 006f a780 c6de a53f e01f 4055 b167 c23f
000007a0: 0000 0000 0000 f03f 0000 0000 0000 0000
000007b0: abaa a9cc d3cb 2dc0 e206 2e64 e6a3 f93f
000007c0: 006e a780 c6de a53f e01f 4055 b167 c23f
000007d0: 0000 0000 0000 f03f 0000 0000 0000 0000
000007e0: 3d03 2906 f5b5 2dc0 de0a d68e dcf0 fb3f
000007f0: 006f a780 c6de a53f e01f 4055 b167 c23f
