data/online/npz-eval/b06/b06-484/b06-484z-03.npz (npz, 36314 bytes, 1 tensors)

x f8 [741, 6]
0	0xc03f38c514e7b510	-31.221757227486762
1	0x3fd224aeead0557f	0.2834889691451607
2	0xbfc28d3cebf02000	-0.1449352409401854
3	0xbfa3c9da9544668c	-0.0386493975840497
4	0x3ff0000000000000	1.0
5	0x0000000000000000	0.0
6	0xc03f5ddf8ebf9550	-31.366692468426947
7	0x3fcf56e7304f915b	0.244839571561111
8	0xbfc088516be17000	-0.12916009681327978
9	0x3fb386ab780b125e	0.07627364807837853
10	0x3ff0000000000000	1.0
11	0x0000000000000000	0.0
12	0xc03f7ef031975830	-31.495852565240227
13	0x3fd48d1e762a8d45	0.3211132196394895
14	0xbfbc1a87a8d9a100	-0.10977981445615015
15	0x3fba2aeb07055ddc	0.10221737786684265
16	0x3ff0000000000000	1.0
17	0x0000000000000000	0.0
18	0xc03f9b0ab94031d1	-31.605632379696377
19	0x3fdb17d937ebe4bc	0.4233305975063322
20	0xbfbc1a87a8d9a200	-0.1097798144561537
21	0x3fba2aeb07055dd8	0.1022173778668426
22	0x3ff0000000000000	1.0
23	0x0000000000000000	0.0
24	0xc03fb72540e90b73	-31.71541219415253
25	0x3fe0d149fcd69e19	0.5255479753731748
26	0xbfaccdba70311800	-0.05625708217171166
27	0x3fc1cc6b20aafb8c	0.13905085654365867
28	0x3ff0000000000000	1.0
29	0x0000000000000000	0.0
30	0xc03fc58c1e2123ff	-31.771669276324243
31	0x3fe54464c5015cfc	0.6645988319168334
32	0xbfaccdba70311a00	-0.05625708217171521
33	0x3fc1cc6b20aafb88	0.13905085654365856
34	0x3ff0000000000000	1.0
35	0x0000000000000000	0.0
36	0xc03fd3f2fb593c8c	-31.827926358495958
37	0x3fe9b77f8d2c1bde	0.803649688460492
38	0xbfa26c8f59472a00	-0.03598449673480175
39	0x3fc2a3ab206de018	0.1456197651239115
40	0x3ff0000000000000	1.0
41	0x0000000000000000	0.0
42	0xc03fdd294305e021	-31.86391085523076
43	0x3fee606a554793e4	0.9492694535844035
44	0xbfa26c8f59472800	-0.0359844967347982
45	0x3fc2a3ab206de018	0.1456197651239115
46	0x3ff0000000000000	1.0
47	0x0000000000000000	0.0
48	0xc03fe65f8ab283b5	-31.899895351965558
49	0x3ff184aa8eb185f5	1.094889218708315
50	0xbfa26c8f59472a00	-0.03598449673480175
51	0x3fc2a3ab206de018	0.1456197651239115
52	0x3ff0000000000000	1.0
53	0x0000000000000000	0.0
54	0xc03fef95d25f274a	-31.93587984870036
55	0x3ff3d91ff2bf41f8	1.2405089838322265
56	0x3f6f6e2ea457e000	0.003836718652333815
57	0x3fc33197852904a8	0.14995092393841003
58	0x3ff0000000000000	1.0
59	0x0000000000000000	0.0
60	0xc03fee9a60ea048b	-31.932043130048026
61	0x3ff63f52e364628d	1.3904599077706365
62	0x3f6f6e2ea4580000	0.0038367186523373675
63	0x3fc33197852904a8	0.14995092393841003
64	0x3ff0000000000000	1.0
65	0x0000000000000000	0.0
66	0xc03fed9eef74e1cb	-31.92820641139569
67	0x3ff8a585d4098322	1.5404108317090466
68	0x3fa4f07d4d799400	0.04089728899706557
69	0x3fc278fb2f315638	0.14431705288250085
70	0x3ff0000000000000	1.0
71	0x0000000000000000	0.0
72	0xc03fe326b0ce2501	-31.887309122398623
73	0x3ffaf4a539efade9	1.6847278845915474
74	0x3fa4f07d4d799400	0.04089728899706557
75	0x3fc278fb2f315638	0.14431705288250085
76	0x3ff0000000000000	1.0
77	0x0000000000000000	0.0
78	0xc03fd8ae72276837	-31.846411833401557
79	0x3ffd43c49fd5d8b0	1.8290449374740483
80	0x3fc0bd319514f880	0.13077373294249028
81	0x3fb2cf1a92c32cc0	0.07347265322748608
82	0x3ff0000000000000	1.0
83	0x0000000000000000	0.0
84	0xc03fb7340efd3e46	-31.715638100459067
85	0x3ffe70b649020b7c	1.9025175907015344
86	0x3fc1969888f18480	0.1374083203000147
87	0xbfaeccfebfb20900	-0.06015773859054896
88	0x3ff0000000000000	1.0
89	0x0000000000000000	0.0
90	0xc03f9406ddeb5b3d	-31.578229780159052
91	0x3ffd7a4e53047b34	1.8423598521109854
92	0x3fc312bf340ef500	0.14900960962214782
93	0xbf919f223bb70b40	-0.017208609480586334
94	0x3ff0000000000000	1.0
95	0x0000000000000000	0.0
96	0xc03f6de15f833d53	-31.429220170536905
97	0x3ffd33d1ca159f07	1.825151242630399
98	0x3fb0ca30d277aa00	0.06558518541684322
99	0xbfc144790c81eaa0	-0.13490212546078784
100	0x3ff0000000000000	1.0
101	0x0000000000000000	0.0
102	0xc03f5d172eb0c5a9	-31.36363498512006
103	0x3ffb0b42a88561b3	1.6902491171696112
104	0x3fb0ca30d277ab00	0.06558518541684677
105	0xbfc144790c81eaa0	-0.13490212546078784
106	0x3ff0000000000000	1.0
107	0x0000000000000000	0.0
108	0xc03f4c4cfdde4dfe	-31.298049799703215
109	0x3ff8e2b386f5245f	1.5553469917088234
110	0x3fa3ce7f80128a00	0.03868483007797252
111	0xbfc28ced9f1f0b08	-0.14492578763573527
112	0x3ff0000000000000	1.0
113	0x0000000000000000	0.0
114	0xc03f4265be1e44b9	-31.259364969625242
115	0x3ff69115d31142fe	1.4104212040730881
116	0x3fa3ce7f80128c00	0.03868483007797607
117	0xbfc28ced9f1f0b10	-0.1449257876357355
118	0x3ff0000000000000	1.0
119	0x0000000000000000	0.0
120	0xc03f387e7e5e3b73	-31.220680139547266
121	0x3ff43f781f2d619c	1.2654954164373526
122	0x3fa3ce7f80128a00	0.03868483007797252
123	0xbfc28ced9f1f0b08	-0.14492578763573527
124	0x3ff0000000000000	1.0
125	0x0000000000000000	0.0
126	0xc03f2e973e9e322e	-31.181995309469293
127	0x3ff1edda6b49803b	1.1205696288016174
128	0x3f07ad3a9ca80000	4.5159674829875485e-05
129	0xbfc333332499f780	-0.1499999932020124
130	0x3ff0000000000000	1.0
131	0x0000000000000000	0.0
132	0xc03f2e9448f6de99	-31.181950149794464
133	0x3fef0ee80d6c8296	0.970569635599605
134	0xbf87b386a6f65000	-0.01157288739231177
135	0xbfc3248c9b9f6820	-0.1495528945804958
136	0x3ff0000000000000	1.0
137	0x0000000000000000	0.0
138	0xc03f318ab9cbbd63	-31.193523037186775
139	0x3fea45c4e684a88e	0.8210167410191092
140	0xbf87b386a6f64800	-0.011572887392308218
141	0xbfc3248c9b9f6820	-0.1495528945804958
142	0x3ff0000000000000	1.0
143	0x0000000000000000	0.0
144	0xc03f34812aa09c2c	-31.205095924579084
145	0x3fe57ca1bf9cce86	0.6714638464386133
146	0xbf87b386a6f65000	-0.01157288739231177
147	0xbfc3248c9b9f6824	-0.14955289458049592
148	0x3ff0000000000000	1.0
149	0x0000000000000000	0.0
150	0xc03f37779b757af6	-31.216668811971395
151	0x3fe0b37e98b4f47d	0.5219109518581174
152	0x3fa030de0ae6d000	0.03162282832218466
153	0x3fc2c4bb49d5cbc4	0.14662877183181255
154	0x3ff0000000000000	1.0
155	0x0000000000000000	0.0
156	0xc03f2f5f2c70078e	-31.18504598364921
157	0x3fe564ad6b2a676e	0.66853972368993
158	0x3fa030de0ae6ce00	0.03162282832218111
159	0x3fc2c4bb49d5cbc0	0.14662877183181244
160	0x3ff0000000000000	1.0
161	0x0000000000000000	0.0
162	0xc03f2746bd6a9427	-31.15342315532703
163	0x3fea15dc3d9fda5e	0.8151684955217424
164	0x3fa030de0ae6d000	0.03162282832218466
165	0x3fc2c4bb49d5cbc0	0.14662877183181244
166	0x3ff0000000000000	1.0
167	0x0000000000000000	0.0
168	0xc03f1f2e4e6520bf	-31.121800327004845
169	0x3feec70b10154d4e	0.9617972673535549
170	0x3fa030de0ae6ce00	0.03162282832218111
171	0x3fc2c4bb49d5cbc8	0.14662877183181267
172	0x3ff0000000000000	1.0
173	0x0000000000000000	0.0
174	0xc03f1715df5fad58	-31.090177498682664
175	0x3ff1bc1cf1456020	1.1084260391853675
176	0x3fa030de0ae6d000	0.03162282832218466
177	0x3fc2c4bb49d5cbc0	0.14662877183181244
178	0x3ff0000000000000	1.0
179	0x0000000000000000	0.0
180	0xc03f0efd705a39f0	-31.05855467036048
181	0x3ff414b45a801998	1.25505481101718
182	0x3fa030de0ae6ce00	0.03162282832218111
183	0x3fc2c4bb49d5cbc0	0.14662877183181244
184	0x3ff0000000000000	1.0
185	0x0000000000000000	0.0
186	0xc03f06e50154c689	-31.026931842038298
187	0x3ff66d4bc3bad310	1.4016835828489924
188	0x3fb11edc44de3b00	0.06687714272832679
189	0x3fc12fa39f6be0a8	0.1342663315224446
190	0x3ff0000000000000	1.0
191	0x0000000000000000	0.0
192	0xc03ef5c6250fe84e	-30.96005469930997
193	0x3ff8934037a84f25	1.535949914371437
194	0x3fb11edc44de3b00	0.06687714272832679
195	0x3fc12fa39f6be0b0	0.13426633152244483
196	0x3ff0000000000000	1.0
197	0x0000000000000000	0.0
198	0xc03ee4a748cb0a13	-30.893177556581644
199	0x3ffab934ab95cb3b	1.6702162458938818
200	0x3fb11edc44de3b00	0.06687714272832679
201	0x3fc12fa39f6be0a8	0.1342663315224446
202	0x3ff0000000000000	1.0
203	0x0000000000000000	0.0
204	0xc03ed3886c862bd8	-30.826300413853318
205	0x3ffcdf291f834750	1.8044825774163264
206	0x3fbfa08918267500	0.12354332770924614
207	0x3fb5c733b23fdfa0	0.08507083036226826
208	0x3ff0000000000000	1.0
209	0x0000000000000000	0.0
210	0xc03eb3e7e36e0563	-30.70275708614407
211	0x3ffe3b9c5aa7454a	1.8895534077785947
212	0x3fc313dc247d5e80	0.14904357701992765
213	0xbf915159f9b78980	-0.016911893717300952
214	0x3ff0000000000000	1.0
215	0x0000000000000000	0.0
216	0xc03e8dc02b250aa6	-30.553713509124144
217	0x3ffdf656f2c06724	1.8726415140612938
218	0x3fb36438ffe9b300	0.07574802635071975
219	0xbf819a4d1a52fe80	-0.008595087400294021
220	0x0000000000000000	0.0
221	0x3ff0000000000000	1.0
222	0xc03e6cc22684f1cd	-30.424837501008188
223	0x3fde0b4116f99746	0.4694369053234947
224	0x0000000000000000	0.0
225	0x3fc3333333333334	0.15000000000000002
226	0x3ff0000000000000	1.0
227	0x0000000000000000	0.0
228	0xc03e6cc22684f1cd	-30.424837501008188
229	0x3fe3d26d58499870	0.6194369053234947
230	0x0000000000000000	0.0
231	0x3fc3333333333330	0.1499999999999999
232	0x3ff0000000000000	1.0
233	0x0000000000000000	0.0
234	0xc03e6cc22684f1cd	-30.424837501008188
235	0x3fe89f3a2516653c	0.7694369053234946
236	0x3f8dbc43ab4a0800	0.01451924196704013
237	0x3fc31c1eb2b73ae4	0.14929565168718917
238	0x3ff0000000000000	1.0
239	0x0000000000000000	0.0
240	0xc03e690a9e0f888c	-30.410318259041148
241	0x3fed6641d1c433f5	0.9187325570106838
242	0x3f8dbc43ab4a0800	0.01451924196704013
243	0x3fc31c1eb2b73ae4	0.14929565168718917
244	0x3ff0000000000000	1.0
245	0x0000000000000000	0.0
246	0xc03e6553159a1f4b	-30.395799017074108
247	0x3ff116a4bf390157	1.068028208697873
248	0x3f8dbc43ab4a1000	0.014519241967043683
249	0x3fc31c1eb2b73ae8	0.14929565168718928
250	0x3ff0000000000000	1.0
251	0x0000000000000000	0.0
252	0xc03e619b8d24b609	-30.381279775107064
253	0x3ff37a28958fe8b4	1.2173238603850622
254	0x3f8dbc43ab4a0800	0.01451924196704013
255	0x3fc31c1eb2b73ae0	0.14929565168718906
