data/online/npz-train/b02/b02-116/b02-116z-08.npz (npz, 33314 bytes, 1 tensors)

x f8 [679, 6]
0	0xc02b44d8de593f33	-13.634467075724023
1	0xbff99544d2ddbd63	-1.598942588516217
2	0xbfc32cbfe6042c00	-0.14980314952148888
3	0xbf7f77624b839000	-0.0076822127959736974
4	0x3ff0000000000000	1.0
5	0x0000000000000000	0.0
6	0xc02b918bddf14fe3	-13.784270225245512
7	0xbff9b4bc352940f3	-1.6066248013121907
8	0xbfc20ce47017ff00	-0.1410184428532304
9	0x3faa2d1936ee6240	0.05112532420679772
10	0x3ff0000000000000	1.0
11	0x0000000000000000	0.0
12	0xc02bd9bf6fb1afdf	-13.925288668098743
13	0xbff8e3536b71cde1	-1.555499477105393
14	0xbfbfb75edcbaa680	-0.12389176262754553
15	0x3fb5a5e4ca7741c0	0.08456258719457477
16	0x3ff0000000000000	1.0
17	0x0000000000000000	0.0
18	0xc02c192e2d6b252c	-14.049180430726288
19	0xbff788f51eca59c5	-1.4709368899108182
20	0xbfb3ef917d12b980	-0.07787427238029032
21	0x3fc068e73f977598	0.12820139508305028
22	0x3ff0000000000000	1.0
23	0x0000000000000000	0.0
24	0xc02c410d50654a9f	-14.127054703106579
25	0xbff57bd836d76b12	-1.3427354948277679
26	0xbfb3ef917d12b980	-0.07787427238029032
27	0x3fc068e73f977598	0.12820139508305028
28	0x3ff0000000000000	1.0
29	0x0000000000000000	0.0
30	0xc02c68ec735f7012	-14.204928975486869
31	0xbff36ebb4ee47c5f	-1.2145340997447176
32	0xbf9f8bdc11f97c00	-0.030806959721640936
33	0x3fc2ca6b6761a560	0.14680235431596156
34	0x3ff0000000000000	1.0
35	0x0000000000000000	0.0
36	0xc02c78b261686cd0	-14.23573593520851
37	0xbff1156de1f847b3	-1.067731745428756
38	0xbf9f8bdc11f97e00	-0.030806959721642713
39	0x3fc2ca6b6761a564	0.14680235431596167
40	0x3ff0000000000000	1.0
41	0x0000000000000000	0.0
42	0xc02c88784f71698f	-14.266542894930152
43	0xbfed7840ea18260d	-0.9209293911127944
44	0x3f9d60b1791afa00	0.02868916799229204
45	0x3fc2d8762077d114	0.14723087869027351
46	0x3ff0000000000000	1.0
47	0x0000000000000000	0.0
48	0xc02c79c7f6b4dc12	-14.23785372693786
49	0xbfe8c22361fa31c8	-0.7736985124225209
50	0x3f9d60b1791afa00	0.02868916799229204
51	0x3fc2d8762077d118	0.14723087869027363
52	0x3ff0000000000000	1.0
53	0x0000000000000000	0.0
54	0xc02c6b179df84e95	-14.209164558945568
55	0xbfe40c05d9dc3d82	-0.6264676337322472
56	0x3fb5d6fce1307600	0.08531170366082819
57	0x3fbf95a48e67f580	0.12337711788855721
58	0x3ff0000000000000	1.0
59	0x0000000000000000	0.0
60	0xc02c3f69a435eda9	-14.12385285528474
61	0xbfe01951480f3ed2	-0.50309051584369
62	0x3fb5d6fce1307680	0.08531170366082996
63	0x3fbf95a48e67f584	0.12337711788855726
64	0x3ff0000000000000	1.0
65	0x0000000000000000	0.0
66	0xc02c13bbaa738cbc	-14.03854115162391
67	0xbfd84d396c848043	-0.37971339795513276
68	0x3fc17a16b1252480	0.13653834962522993
69	0x3fafcc7d024ca028	0.0621069970423494
70	0x3ff0000000000000	1.0
71	0x0000000000000000	0.0
72	0xc02bcdd34faef82a	-13.90200280199868
73	0xbfd453a9cc3aec3e	-0.31760640091278336
74	0x3fc332b41e775f00	0.14998485076534251
75	0x3f6176b196e9ea80	0.002131792883401318
76	0x3ff0000000000000	1.0
77	0x0000000000000000	0.0
78	0xc02b81087f351aae	-13.752017951233338
79	0xbfd430bc690d1869	-0.31547460802938204
80	0x3fc2a393585e0c80	0.14561693014920607
81	0xbfa26e103bbc3518	-0.035995967189686506
82	0x3ff0000000000000	1.0
83	0x0000000000000000	0.0
84	0xc02b367a31d3a27c	-13.606401021084132
85	0xbfd67e7e70849f0c	-0.35147057521906855
86	0x3fb9bf6bda452900	0.10057710722790958
87	0xbfbc7d24835f25a0	-0.1112845249873744
88	0x3ff0000000000000	1.0
89	0x0000000000000000	0.0
90	0xc02b02fb5a1f182a	-13.505823913856222
91	0xbfdd9dc7915c6874	-0.46275510020644295
92	0x3fb9bf6bda452900	0.10057710722790958
93	0xbfbc7d24835f25a0	-0.1112845249873744
94	0x3ff0000000000000	1.0
95	0x0000000000000000	0.0
96	0xc02acf7c826a8dd8	-13.405246806628313
97	0xbfe25e88591a18ee	-0.5740396251938173
98	0xbf8b8af5b2d8ac00	-0.013448638458688933
99	0xbfc31f679e7bcb84	-0.1493958972783639
100	0x3ff0000000000000	1.0
101	0x0000000000000000	0.0
102	0xc02ad65f3fd74403	-13.418695445087002
103	0xbfe7266240b90bcf	-0.7234355224721812
104	0xbf8b8af5b2d8b000	-0.01344863845869071
105	0xbfc31f679e7bcb84	-0.1493958972783639
106	0x3ff0000000000000	1.0
107	0x0000000000000000	0.0
108	0xc02add41fd43fa2f	-13.432144083545692
109	0xbfebee3c2857feb0	-0.8728314197505451
110	0xbfacc355d2167400	-0.05617778958842479
111	0xbfc1cd7803bc4f68	-0.13908291036988918
112	0x3ff0000000000000	1.0
113	0x0000000000000000	0.0
114	0xc02afa05531610a3	-13.488321873134117
115	0xbff030cd14a38945	-1.0119143301204343
116	0xbfacc355d2167400	-0.05617778958842479
117	0xbfc1cd7803bc4f68	-0.13908291036988918
118	0x3ff0000000000000	1.0
119	0x0000000000000000	0.0
120	0xc02b16c8a8e82717	-13.544499662722542
121	0xbff26a7c151b1332	-1.1509972404903235
122	0xbfacc355d2167500	-0.05617778958842656
123	0xbfc1cd7803bc4f68	-0.13908291036988918
124	0x3ff0000000000000	1.0
125	0x0000000000000000	0.0
126	0xc02b338bfeba3d8c	-13.600677452310968
127	0xbff4a42b15929d1f	-1.2900801508602127
128	0xbfb97041a0afe380	-0.0993691460897832
129	0xbfbcc3eae2c9eb20	-0.11236446415743417
130	0x3ff0000000000000	1.0
131	0x0000000000000000	0.0
132	0xc02b666c81fb9d53	-13.700046598400752
133	0xbff67069c3bf3bd1	-1.4024446150176468
134	0xbfb97041a0afe380	-0.0993691460897832
135	0xbfbcc3eae2c9eb20	-0.11236446415743417
136	0x3ff0000000000000	1.0
137	0x0000000000000000	0.0
138	0xc02b994d053cfd1a	-13.799415744490535
139	0xbff83ca871ebda83	-1.514809079175081
140	0xbfb97041a0afe380	-0.0993691460897832
141	0xbfbcc3eae2c9eb20	-0.11236446415743417
142	0x3ff0000000000000	1.0
143	0x0000000000000000	0.0
144	0xc02bcc2d887e5ce1	-13.898784890580318
145	0xbffa08e720187935	-1.6271735433325152
146	0x3f9e5b09d8c65400	0.02964415917957197
147	0x3fc2d2421aeff1a8	0.14704157176300936
148	0x3ff0000000000000	1.0
149	0x0000000000000000	0.0
150	0xc02bbd000391f9b7	-13.869140731400746
151	0xbff7ae9edcba7b00	-1.4801319715695058
152	0x3fc10bc0d2bf7600	0.1331711796801045
153	0x3fb1ac1730c561d0	0.06903214398096869
154	0x3ff0000000000000	1.0
155	0x0000000000000000	0.0
156	0xc02b78d10046fbdf	-13.735969551720641
157	0xbff693dd69ae24e3	-1.4110998275885371
158	0x3fc10bc0d2bf7640	0.13317117968010628
159	0x3fb1ac1730c561d0	0.06903214398096869
160	0x3ff0000000000000	1.0
161	0x0000000000000000	0.0
162	0xc02b34a1fcfbfe06	-13.602798372040535
163	0xbff5791bf6a1cec6	-1.3420676836075685
164	0x3fc2e9d9211e6f40	0.14776147954114016
165	0x3f9a6fe982b388c0	0.025817535974859807
166	0x3ff0000000000000	1.0
167	0x0000000000000000	0.0
168	0xc02ae8fa98778449	-13.455036892499395
169	0xbff50f5c509700a3	-1.3162501476327086
170	0x3fc2f8759b025d40	0.14820737904367753
171	0x3f97acfca92f2200	0.023120830370119805
172	0x3ff0000000000000	1.0
173	0x0000000000000000	0.0
174	0xc02a9d18c20b7ad4	-13.306829513455718
175	0xbff4b0a85df2441b	-1.2931293172625888
176	0x3fc3321d09ba61c0	0.14996684050562514
177	0xbf69d618887ad200	-0.003153846660860049
178	0x3ff0000000000000	1.0
179	0x0000000000000000	0.0
180	0xc02a50504de4914d	-13.156862672950092
181	0xbff4bd936a368184	-1.2962831639234489
182	0x3fc3321d09ba6200	0.14996684050562692
183	0xbf69d618887ad200	-0.003153846660860049
184	0x3ff0000000000000	1.0
185	0x0000000000000000	0.0
186	0xc02a0387d9bda7c5	-13.006895832444465
187	0xbff4ca7e767abeed	-1.299437010584309
188	0x3fc3321d09ba61c0	0.14996684050562514
189	0xbf69d618887ad400	-0.003153846660860271
190	0x3ff0000000000000	1.0
191	0x0000000000000000	0.0
192	0xc029b6bf6596be3e	-12.85692899193884
193	0xbff4d76982befc57	-1.3025908572451692
194	0x3fc266572e908f80	0.14374818586031424
195	0xbfa5f0f32e3215a0	-0.042853927029720795
196	0x3ff0000000000000	1.0
197	0x0000000000000000	0.0
198	0xc0296d2608dc7c00	-12.713180806078526
199	0xbff586f11c308d04	-1.34544478427489
200	0x3fc16693e9228c40	0.13594292529623608
201	0xbfb03af657a714a0	-0.06339969291646463
202	0x3ff0000000000000	1.0
203	0x0000000000000000	0.0
204	0xc029278bb937f1cf	-12.57723788078229
205	0xbff68aa081aafe4e	-1.4088444771913546
206	0x3fc3050f346260c0	0.1485919004233036
207	0xbf94ff3655a583c0	-0.020504807450723694
208	0x3ff0000000000000	1.0
209	0x0000000000000000	0.0
210	0xc028db777c66684c	-12.428645980358986
211	0xbff6de9d5b01945d	-1.4293492846420783
212	0xbf89939f8b0a9800	-0.012488600187975152
213	0x3fc3222283cf85c8	0.14947921215120474
214	0x3ff0000000000000	1.0
215	0x0000000000000000	0.0
216	0xc028e1dc64492af2	-12.441134580546962
217	0xbff47a590a87a3a4	-1.2798700724908736
218	0xbfa8cb93cc87f300	-0.04842817184178294
219	0x3fc22bfbf7705178	0.1419672926136959
220	0x3ff0000000000000	1.0
221	0x0000000000000000	0.0
222	0xc028faa7f815b2e5	-12.489562752388744
223	0xbff234d98b999975	-1.1379027798771777
224	0xbfb2b0071ec4b800	-0.0729984712713474
225	0x3fc0c5e2ebd4c008	0.1310390140074562
226	0x3ff0000000000000	1.0
227	0x0000000000000000	0.0
228	0xc029200806533c55	-12.562561223660092
229	0xbff01c1d2e1f0174	-1.0068637658697215
230	0xbfb2b0071ec4b800	-0.0729984712713474
231	0x3fc0c5e2ebd4c00c	0.13103901400745632
232	0x3ff0000000000000	1.0
233	0x0000000000000000	0.0
234	0xc02945681490c5c5	-12.63555969493144
235	0xbfec06c1a148d2e5	-0.8758247518622652
236	0xbfb2b0071ec4b780	-0.07299847127134562
237	0x3fc0c5e2ebd4c00c	0.13103901400745632
238	0x3ff0000000000000	1.0
239	0x0000000000000000	0.0
240	0xc0296ac822ce4f34	-12.708558166202785
241	0xbfe7d548e653a2e2	-0.7447857378548088
242	0xbfb2b0071ec4b800	-0.0729984712713474
243	0x3fc0c5e2ebd4c008	0.1310390140074562
244	0x3ff0000000000000	1.0
245	0x0000000000000000	0.0
246	0xc0299028310bd8a4	-12.781556637474132
247	0xbfe3a3d02b5e72e0	-0.6137467238473526
248	0xbf9982f55f62d800	-0.024913629481225996
249	0xbfc2eeee1ae1f0d0	-0.14791656792284025
250	0x3ff0000000000000	1.0
251	0x0000000000000000	0.0
252	0xc0299ce9abbb8a10	-12.806470266955358
253	0xbfe85f8bb216ef14	-0.7616632917701929
254	0x3fb317632604e200	0.07457561186027561
255	0xbfc0a8afc98ff0e0	-0.13014790861041714
