data/online/npz-train/b10/b10-776/b10-776z-05.npz (npz, 43866 bytes, 1 tensors)

x f8 [895, 6]
0	0xc0430675190261b4	-38.05044853798191
1	0x3febd20cd0a32f81	0.8693908762884207
2	0xbf99406e64622000	-0.024659848095808456
3	0x3fc2f052cb4993dc	0.14795908857482132
4	0x3ff0000000000000	1.0
5	0x0000000000000000	0.0
6	0xc043099d26ceedf8	-38.075108386077716
7	0x3ff04710c1baca3c	1.017349964863242
8	0xbf99406e64621800	-0.02465984809580135
9	0x3fc2f052cb4993d0	0.14795908857482098
10	0x3ff0000000000000	1.0
11	0x0000000000000000	0.0
12	0xc0430cc5349b7a3b	-38.09976823417352
13	0x3ff2a51b1b23fcb6	1.165309053438063
14	0xbf5331e08d6c8000	-0.00117155960987958
15	0x3fc3330cd1f0d920	0.14999542475715888
16	0x3ff0000000000000	1.0
17	0x0000000000000000	0.0
18	0xc0430ceb985c9514	-38.1009397937834
19	0x3ff50b7cb56217da	1.315304478195222
20	0xbf5331e08d6d0000	-0.0011715596098866854
21	0x3fc3330cd1f0d920	0.14999542475715888
22	0x3ff0000000000000	1.0
23	0x0000000000000000	0.0
24	0xc0430d11fc1dafee	-38.10211135339328
25	0x3ff771de4fa032fe	1.4652999029523808
26	0x3facb38878960400	0.056057228774996304
27	0x3fc1cf100007ecc0	0.13913154603492295
28	0x3ff0000000000000	1.0
29	0x0000000000000000	0.0
30	0xc04305e519ff8a6d	-38.04605412461829
31	0x3ff9abc04fa13096	1.6044314489873037
32	0x3facb38878960400	0.056057228774996304
33	0x3fc1cf100007ecb8	0.13913154603492273
34	0x3ff0000000000000	1.0
35	0x0000000000000000	0.0
36	0xc042feb837e164ec	-37.98999689584329
37	0x3ffbe5a24fa22e2d	1.7435629950222264
38	0x3facb38878960400	0.056057228774996304
39	0x3fc1cf100007ecb8	0.13913154603492273
40	0x3ff0000000000000	1.0
41	0x0000000000000000	0.0
42	0xc042f78b55c33f6b	-37.933939667068294
43	0x3ffe1f844fa32bc4	1.8826945410571492
44	0x3facb38878960000	0.0560572287749892
45	0x3fc1cf100007ecc0	0.13913154603492295
46	0x3ff0000000000000	1.0
47	0x0000000000000000	0.0
48	0xc042f05e73a519eb	-37.877882438293305
49	0x40002cb327d214ae	2.021826087092072
50	0x3facb38878960400	0.056057228774996304
51	0x3fc1cf100007ecc0	0.13913154603492295
52	0x3ff0000000000000	1.0
53	0x0000000000000000	0.0
54	0xc042e9319186f46a	-37.82182520951831
55	0x400149a427d2937a	2.160957633126995
56	0x3fc12ca576d1a000	0.13417499829961343
57	0x3fb12adb62e1ba40	0.06706019558053189
58	0x3ff0000000000000	1.0
59	0x0000000000000000	0.0
60	0xc042d804ec1022ca	-37.687650211218696
61	0x4001d2fb02e9a14c	2.228017828707527
62	0x3fc07b1948921700	0.12875667613496233
63	0xbfb3b32c1a959bc0	-0.0769527020362224
64	0x3ff0000000000000	1.0
65	0x0000000000000000	0.0
66	0xc042c789d2c790b3	-37.55889353508373
67	0x40013561a214f46e	2.1510651266713046
68	0x3fc07b1948921800	0.12875667613496944
69	0xbfb3b32c1a959be0	-0.07695270203622284
70	0x3ff0000000000000	1.0
71	0x0000000000000000	0.0
72	0xc042b70eb97efe9b	-37.430136858948764
73	0x400097c84140478f	2.0741124246350817
74	0x3fc07b1948921700	0.12875667613496233
75	0xbfb3b32c1a959bd0	-0.07695270203622262
76	0x3ff0000000000000	1.0
77	0x0000000000000000	0.0
78	0xc042a693a0366c84	-37.3013801828138
79	0x3ffff45dc0d73561	1.997159722598859
80	0x3fba3c016cb7d600	0.1024781122613021
81	0x3fbc0a94e201db70	0.10953646199946632
82	0x3ff0000000000000	1.0
83	0x0000000000000000	0.0
84	0xc04299759f801099	-37.1989020705525
85	0x4000da83877ba98c	2.1066961845983254
86	0x3fba3c016cb7d400	0.102478112261295
87	0x3fbc0a94e201db60	0.1095364619994661
88	0x3ff0000000000000	1.0
89	0x0000000000000000	0.0
90	0xc0428c579ec9b4af	-37.096423958291204
91	0x4001bad82e8bb867	2.2162326465977915
92	0x3fba3c016cb7d600	0.1024781122613021
93	0x3fbc0a94e201db60	0.1095364619994661
94	0x3ff0000000000000	1.0
95	0x0000000000000000	0.0
96	0xc0427f399e1358c4	-36.9939458460299
97	0x40029b2cd59bc742	2.3257691085972576
98	0x3fc0fc8d76a74e00	0.13270729344968402
99	0x3fb1e643165dc540	0.06991977020313289
100	0x3ff0000000000000	1.0
101	0x0000000000000000	0.0
102	0xc0426e3d109cb176	-36.86123855258022
103	0x40032a5eee4eb56c	2.3956888788003905
104	0x3fc32c7ba0c1ca00	0.14979501103842097
105	0x3f800e0d68572f00	0.00783930277511713
106	0x3ff0000000000000	1.0
107	0x0000000000000000	0.0
108	0xc0425b1094fbefac	-36.7114435415418
109	0x40033a6cfbb70c9b	2.4035281815755076
110	0x3fc32c7ba0c1c900	0.14979501103841386
111	0x3f800e0d68572f00	0.00783930277511713
112	0x3ff0000000000000	1.0
113	0x0000000000000000	0.0
114	0xc04247e4195b2de3	-36.56164853050338
115	0x40034a7b091f63ca	2.4113674843506248
116	0x3fb762d5653cc800	0.09135183068863739
117	0xbfbe7516a2f62340	-0.11897412756492276
118	0x3ff0000000000000	1.0
119	0x0000000000000000	0.0
120	0xc0423c32aea88f7f	-36.470296699814746
121	0x400256d25407b2b0	2.292393356785702
122	0x3fb762d5653cc800	0.09135183068863739
123	0xbfbe7516a2f62340	-0.11897412756492276
124	0x3ff0000000000000	1.0
125	0x0000000000000000	0.0
126	0xc042308143f5f11b	-36.37894486912611
127	0x400163299ef00196	2.1734192292207792
128	0x3fb762d5653cc800	0.09135183068863739
129	0xbfbe7516a2f62340	-0.11897412756492276
130	0x3ff0000000000000	1.0
131	0x0000000000000000	0.0
132	0xc04224cfd94352b7	-36.28759303843747
133	0x40006f80e9d8507c	2.0544451016558565
134	0x3fa65d6f8ad8b400	0.04368160791305087
135	0xbfc25e2b84c5a240	-0.14349884016998438
136	0x3ff0000000000000	1.0
137	0x0000000000000000	0.0
138	0xc0421f387d609c8a	-36.24391143052442
139	0x3ffe933c6317ecb0	1.910946261485872
140	0x3fa65d6f8ad8b000	0.04368160791304376
141	0xbfc25e2b84c5a238	-0.14349884016998415
142	0x3ff0000000000000	1.0
143	0x0000000000000000	0.0
144	0xc04219a1217de65e	-36.20022982261138
145	0x3ffc4776f27f3869	1.767447421315888
146	0x3fa65d6f8ad8b400	0.04368160791305087
147	0xbfc25e2b84c5a238	-0.14349884016998415
148	0x3ff0000000000000	1.0
149	0x0000000000000000	0.0
150	0xc0421409c59b3031	-36.156548214698326
151	0x3ff9fbb181e68422	1.6239485811459038
152	0xbf8a7f0633a42000	-0.012937591982804975
153	0xbfc320e2249f7a50	-0.14944102085333322
154	0x3ff0000000000000	1.0
155	0x0000000000000000	0.0
156	0xc04215b1b5fe6a73	-36.16948580668113
157	0x3ff797953d5294d8	1.4745075602925706
158	0xbfab98c15a455400	-0.05389980532587657
159	0xbfc1eae9a680d0e0	-0.13998146657980381
160	0x3ff0000000000000	1.0
161	0x0000000000000000	0.0
162	0xc0421c97e654fbc8	-36.22338561200701
163	0x3ff55a3808827abc	1.3345260937127668
164	0xbfb2315940ddb200	-0.07106550058023942
165	0xbfc0e890671ce6f8	-0.13209729227838074
166	0x3ff0000000000000	1.0
167	0x0000000000000000	0.0
168	0xc04225b092f56aa1	-36.29445111258725
169	0x3ff33d25fb9edddd	1.202428801434386
170	0xbf6a954d9e920000	-0.003245021438999629
171	0xbfade06ca23fca00	-0.058352846914107914
172	0x0000000000000000	0.0
173	0x3ff0000000000000	1.0
174	0xc04188b9402e44c6	-35.068153402893174
175	0x3ff0d71931ce7249	1.0525142617763257
176	0x3fb4175c410efe00	0.07848145092338399
177	0xbfb0be22363729e8	-0.06540120910282321
178	0x0000000000000000	0.0
179	0x3ff0000000000000	1.0
180	0xc04165905ebc6a88	-34.79346832466132
181	0x3fe7375d01ba6a62	0.7255082162622097
182	0x0000000000000000	0.0
183	0x3fc3333333333334	0.15000000000000002
184	0x3ff0000000000000	1.0
185	0x0000000000000000	0.0
186	0xc04165905ebc6a88	-34.79346832466132
187	0x3fec0429ce87372f	0.8755082162622098
188	0x0000000000000000	0.0
189	0x3fc3333333333334	0.15000000000000002
190	0x3ff0000000000000	1.0
191	0x0000000000000000	0.0
192	0xc04165905ebc6a88	-34.79346832466132
193	0x3ff0687b4daa01fe	1.0255082162622098
194	0xbf8bbb54bef92000	-0.0135408993511561
195	0x3fc31f21b53aab20	0.14938756321984048
196	0x3ff0000000000000	1.0
197	0x0000000000000000	0.0
198	0xc041674c14085a1a	-34.807009224012475
199	0x3ff2cc5f84515762	1.1748957794820503
200	0xbf97781efec0a000	-0.02291916303525454
201	0x3fc2f97c56b73998	0.1482386992851843
202	0x3ff0000000000000	1.0
203	0x0000000000000000	0.0
204	0xc0416a3b17e8322e	-34.82992838704773
205	0x3ff52b8f0f283e95	1.3231344787672346
206	0xbf97781efec0a800	-0.022919163035261647
207	0x3fc2f97c56b739a0	0.14823869928518452
208	0x3ff0000000000000	1.0
209	0x0000000000000000	0.0
210	0xc0416d2a1bc80a43	-34.85284755008299
211	0x3ff78abe99ff25c9	1.471373178052419
212	0xbfaeb591fca2a400	-0.05997902115752396
213	0x3fc19927b935dce0	0.13748642486073148
214	0x3ff0000000000000	1.0
215	0x0000000000000000	0.0
216	0xc04174d7804732ec	-34.912826571240515
217	0x3ff9bde39125e165	1.6088596029131506
218	0xbfaeb591fca2a000	-0.059979021157516854
219	0x3fc19927b935dcd8	0.13748642486073126
220	0x3ff0000000000000	1.0
221	0x0000000000000000	0.0
222	0xc0417c84e4c65b94	-34.97280559239803
223	0x3ffbf108884c9d00	1.7463460277738818
224	0xbf8a6364e3862000	-0.01288489169452589
225	0x3fc3210856458d98	0.14944557392582847
226	0x3ff0000000000000	1.0
227	0x0000000000000000	0.0
228	0xc0417e2b1b1493f6	-34.98569048409256
229	0x3ffe552993154eb3	1.8957916016997103
230	0x3fb43d59e2fcac00	0.07906114379572671
231	0xbfc0510808c8ff98	-0.1274728815933457
232	0x3ff0000000000000	1.0
233	0x0000000000000000	0.0
234	0xc041740c6e2315a0	-34.90662934029683
235	0x3ffc4b0891fc2ec0	1.7683187201063646
236	0x3fb43d59e2fcac00	0.07906114379572671
237	0xbfc0510808c8ffa0	-0.1274728815933459
238	0x3ff0000000000000	1.0
239	0x0000000000000000	0.0
240	0xc04169edc131974a	-34.827568196501105
241	0x3ffa40e790e30ecc	1.6408458385130187
242	0x3fa69560d7c11400	0.04410841592520143
243	0xbfc259e3d49ecc38	-0.14336822397089732
244	0x3ff0000000000000	1.0
245	0x0000000000000000	0.0
246	0xc041644868fba705	-34.7834597805759
247	0x3ff7f5ab164f3545	1.4974776145421214
248	0x3fa69560d7c11400	0.04410841592520143
249	0xbfc259e3d49ecc40	-0.14336822397089755
250	0x3ff0000000000000	1.0
251	0x0000000000000000	0.0
252	0xc0415ea310c5b6c0	-34.7393513646507
253	0x3ff5aa6e9bbb5bbd	1.3541093905712238
254	0x3fa69560d7c11400	0.04410841592520143
255	0xbfc259e3d49ecc38	-0.14336822397089732
