data/online/npz-eval/b05/b05-074/b05-074-08.npz (npz, 38242 bytes, 1 tensors)

x f8 [782, 6]
00000000: f19f 24af cb3c 3dc0 72f1 6183 7a43 fdbf
00000010: 808b 50ac 0825 c3bf 809e e7dc 794e 873f
00000020: 0000 0000 0000 f03f 0000 0000 0000 0000
00000030: 0841 7dc0 1563 3dc0 3522 a88f dd14 fdbf
00000040: 808b 50ac 0825 c3bf 809e e7dc 794e 873f
00000050: 0000 0000 0000 f03f 0000 0000 0000 0000
00000060: 1fe2 d5d1 5f89 3dc0 f852 ee9b 40e6 fcbf
00000070: 008b 50ac 0825 c3bf 809e e7dc 794e 873f
00000080: 0000 0000 0000 f03f 0000 0000 0000 0000
00000090: 3583 2ee3 a9af 3dc0 bb83 34a8 a3b7 fcbf
000000a0: 808b 50ac 0825 c3bf 009f e7dc 794e 873f
000000b0: 0000 0000 0000 f03f 0000 0000 0000 0000
000000c0: 4c24 87f4 f3d5 3dc0 7db4 7ab4 0689 fcbf
000000d0: 808b 50ac 0825 c3bf 809e e7dc 794e 873f
000000e0: 0000 0000 0000 f03f 0000 0000 0000 0000
000000f0: 63c5 df05 3efc 3dc0 40e5 c0c0 695a fcbf
00000100: 808b 50ac 0825 c3bf 809e e7dc 794e 873f
00000110: 0000 0000 0000 f03f 0000 0000 0000 0000
00000120: 7a66 3817 8822 3ec0 0316 07cd cc2b fcbf
00000130: 8054 baac 52a2 c1bf c0a2 0471 f860 ae3f
00000140: 0000 0000 0000 f03f 0000 0000 0000 0000
00000150: 23db 91bc cc45 3ec0 edf0 7e09 c538 fbbf
00000160: 8054 baac 52a2 c1bf c0a2 0471 f860 ae3f
00000170: 0000 0000 0000 f03f 0000 0000 0000 0000
00000180: cc4f eb61 1169 3ec0 d7cb f645 bd45 fabf
00000190: 0054 baac 52a2 c1bf c0a2 0471 f860 ae3f
000001a0: 0000 0000 0000 f03f 0000 0000 0000 0000
000001b0: 74c4 4407 568c 3ec0 c1a6 6e82 b552 f9bf
000001c0: 0046 d164 29d3 bfbf 9091 abd1 f47c b53f
000001d0: 0000 0000 0000 f03f 0000 0000 0000 0000
000001e0: ba95 a930 29ac 3ec0 a8ed 5335 e6fa f7bf
000001f0: 0046 d164 29d3 bfbf 9091 abd1 f47c b53f
00000200: 0000 0000 0000 f03f 0000 0000 0000 0000
00000210: 0067 0e5a fccb 3ec0 8f34 39e8 16a3 f6bf
00000220: 0045 d164 29d3 bfbf 9091 abd1 f47c b53f
00000230: 0000 0000 0000 f03f 0000 0000 0000 0000
00000240: 4538 7383 cfeb 3ec0 767b 1e9b 474b f5bf
00000250: 0046 d164 29d3 bfbf 8091 abd1 f47c b53f
00000260: 0000 0000 0000 f03f 0000 0000 0000 0000
00000270: 8b09 d8ac a20b 3fc0 5ec2 034e 78f3 f3bf
00000280: 0046 d164 29d3 bfbf 9091 abd1 f47c b53f
00000290: 0000 0000 0000 f03f 0000 0000 0000 0000
000002a0: d1da 3cd6 752b 3fc0 4509 e900 a99b f2bf
000002b0: 00a3 2b22 6c70 b8bf c001 05de 799e bd3f
000002c0: 0000 0000 0000 f03f 0000 0000 0000 0000
000002d0: 7406 5f42 e643 3fc0 29b9 0863 c1c1 f0bf
000002e0: 00a3 2b22 6c70 b8bf c001 05de 799e bd3f
000002f0: 0000 0000 0000 f03f 0000 0000 0000 0000
00000300: 1732 81ae 565c 3fc0 1ad2 508a b3cf edbf
00000310: 004e 03ec 5442 adbf 9049 fa0d 84c0 c13f
00000320: 0000 0000 0000 f03f 0000 0000 0000 0000
00000330: be33 f7d8 f76a 3fc0 b63f d286 925f e9bf
00000340: 0024 5ef7 56ed 9e3f a46e f203 89ce c23f
00000350: 0000 0000 0000 f03f 0000 0000 0000 0000
00000360: 355c 3983 3c63 3fc0 0da4 d545 f0ab e4bf
00000370: 00d2 1a2e a0e6 bd3f 9843 a257 f017 b83f
00000380: 0000 0000 0000 f03f 0000 0000 0000 0000
00000390: 6341 0be3 5545 3fc0 9a5b e13a f2a8 e1bf
000003a0: 00d3 1a2e a0e6 bd3f a043 a257 f017 b83f
000003b0: 0000 0000 0000 f03f 0000 0000 0000 0000
000003c0: 9026 dd42 6f27 3fc0 4c26 da5f e84b ddbf
000003d0: 00d2 1a2e a0e6 bd3f 9843 a257 f017 b83f
000003e0: 0000 0000 0000 f03f 0000 0000 0000 0000
000003f0: be0b afa2 8809 3fc0 6695 f149 ec45 d7bf
00000400: 00d2 1a2e a0e6 bd3f 9c43 a257 f017 b83f
00000410: 0000 0000 0000 f03f 0000 0000 0000 0000
00000420: ecf0 8002 a2eb 3ec0 7f04 0934 f03f d1bf
00000430: 00d2 1a2e a0e6 bd3f 9c43 a257 f017 b83f
00000440: 0000 0000 0000 f03f 0000 0000 0000 0000
00000450: 1ad6 5262 bbcd 3ec0 30e7 403c e873 c6bf
00000460: 00d3 1a2e a0e6 bd3f 9843 a257 f017 b83f
00000470: 0000 0000 0000 f03f 0000 0000 0000 0000
00000480: 47bb 24c2 d4af 3ec0 c88a df20 e0cf b4bf
00000490: 00d2 1a2e a0e6 bd3f a043 a257 f017 b83f
000004a0: 0000 0000 0000 f03f 0000 0000 0000 0000
000004b0: 75a0 f621 ee91 3ec0 c0c6 15b6 8140 8a3f
000004c0: 00d2 1a2e a0e6 bd3f 9843 a257 f017 b83f
000004d0: 0000 0000 0000 f03f 0000 0000 0000 0000
000004e0: a385 c881 0774 3ec0 70fc 648e 0060 bb3f
000004f0: 00b4 cb8d 752a bb3f b02e 6f00 d323 bb3f
00000500: 0000 0000 0000 f03f 0000 0000 0000 0000
00000510: efb9 3a0c dd58 3ec0 9015 6ac7 e941 cb3f
00000520: 00b5 cb8d 752a bb3f b02e 6f00 d323 bb3f
00000530: 0000 0000 0000 f03f 0000 0000 0000 0000
00000540: 3aee ac96 b23d 3ec0 74d6 d0a3 e969 d43f
00000550: 0044 69af 5b9e b63f bc3f 383f 1608 bf3f
00000560: 0000 0000 0000 f03f 0000 0000 0000 0000
00000570: f684 fd3a 1427 3ec0 63e6 9e33 ef2b dc3f
00000580: 0045 69af 5b9e b63f bc3f 383f 1608 bf3f
00000590: 0000 0000 0000 f03f 0000 0000 0000 0000
000005a0: b11b 4edf 7510 3ec0 297b b661 faf6 e13f
000005b0: 00aa 3f62 18a8 a63f 10e6 56a3 7258 c23f
000005c0: 0000 0000 0000 f03f 0000 0000 0000 0000
000005d0: dcfb 1cd3 2105 3ec0 ad34 8c0a 178d e63f
000005e0: 003c 2f38 ada6 98bf 185b 5ccd 7cf3 c23f
000005f0: 0000 0000 0000 f03f 0000 0000 0000 0000
00000600: ab07 6b7e 4b0b 3ec0 734b e33d f649 eb3f
00000610: 80ba e2c7 b864 c0bf 885a 5989 4ffd b33f
00000620: 0000 0000 0000 f03f 0000 0000 0000 0000
00000630: 20cd faef 142c 3ec0 c476 0e2f a0c9 ed3f
00000640: 00bb e2c7 b864 c0bf 805a 5989 4ffd b33f
00000650: 0000 0000 0000 f03f 0000 0000 0000 0000
00000660: 9692 8a61 de4c 3ec0 0ad1 1c10 a524 f03f
00000670: 80ba e2c7 b864 c0bf 905a 5989 4ffd b33f
00000680: 0000 0000 0000 f03f 0000 0000 0000 0000
00000690: 0b58 1ad3 a76d 3ec0 b366 b208 7a64 f13f
000006a0: 80ba e2c7 b864 c0bf 905a 5989 4ffd b33f
000006b0: 0000 0000 0000 f03f 0000 0000 0000 0000
000006c0: 801d aa44 718e 3ec0 5cfc 4701 4fa4 f23f
000006d0: 00dd 2c2e 7a0b c2bf 609b 89cd b03c aa3f
000006e0: 0000 0000 0000 f03f 0000 0000 0000 0000
000006f0: 3a77 0639 88b2 3ec0 3749 b487 3476 f33f
00000700: 00dd 2c2e 7a0b c2bf 409b 89cd b03c aa3f
00000710: 0000 0000 0000 f03f 0000 0000 0000 0000
00000720: f4d0 622d 9fd6 3ec0 1196 200e 1a48 f43f
00000730: 00dd 2c2e 7a0b c2bf 609b 89cd b03c aa3f
00000740: 0000 0000 0000 f03f 0000 0000 0000 0000
00000750: ae2a bf21 b6fa 3ec0 ece2 8c94 ff19 f53f
00000760: 00dd 2c2e 7a0b c2bf 409b 89cd b03c aa3f
00000770: 0000 0000 0000 f03f 0000 0000 0000 0000
00000780: 6884 1b16 cd1e 3fc0 c62f f91a e5eb f53f
00000790: 00dd 2c2e 7a0b c2bf 609b 89cd b03c aa3f
000007a0: 0000 0000 0000 f03f 0000 0000 0000 0000
000007b0: 22de 770a e442 3fc0 a17c 65a1 cabd f63f
000007c0: 00dd 2c2e 7a0b c2bf 609b 89cd b03c aa3f
000007d0: 0000 0000 0000 f03f 0000 0000 0000 0000
000007e0: dc37 d4fe fa66 3fc0 7cc9 d127 b08f f73f
000007f0: 80dd 2c2e 7a0b c2bf 409b 89cd b03c aa3f
-29.237482973519892 -1.828974259579891 -0.14956768430519318 0.011380149892786351 1.0 0.0 -29.387050657825085 -1.8175941096871047
-0.14956768430519318 0.011380149892786351 1.0 0.0 -29.53661834213028 -1.8062139597943183 -0.14956768430518963 0.011380149892786351
1.0 0.0 -29.686186026435468 -1.794833809901532 -0.14956768430519318 0.011380149892786573 1.0 0.0
-29.83575371074066 -1.7834536600087454 -0.14956768430519318 0.011380149892786351 1.0 0.0 -29.985321395045855 -1.772073510115959
-0.14956768430519318 0.011380149892786351 1.0 0.0 -30.134889079351048 -1.7606933602231727 -0.13776620325066702 0.059333576007991606
1.0 0.0 -30.272655282601715 -1.701359784215181 -0.13776620325066702 0.059333576007991606 1.0 0.0
-30.410421485852382 -1.6420262082071895 -0.13776620325066347 0.059333576007991606 1.0 0.0 -30.548187689103045 -1.5826926321991979
-0.12431582175602074 0.08393793219472045 1.0 0.0 -30.672503510859066 -1.4987547000044774 -0.12431582175602074 0.08393793219472045
1.0 0.0 -30.796819332615087 -1.414816767809757 -0.12431582175601719 0.08393793219472045 1.0 0.0
-30.921135154371104 -1.3308788356150365 -0.12431582175602074 0.08393793219472023 1.0 0.0 -31.045450976127125 -1.2469409034203163
-0.12431582175602074 0.08393793219472045 1.0 0.0 -31.169766797883145 -1.1630029712255958 -0.09546542963256499 0.1156994025268494
1.0 0.0 -31.26523222751571 -1.0473035686987464 -0.09546542963256499 0.1156994025268494 1.0 0.0
-31.360697657148275 -0.931604166171897 -0.057146695909661815 0.13868761713508748 1.0 0.0 -31.417844353057937 -0.7929165490368095
0.03020225415051314 0.1469279546043839 1.0 0.0 -31.387642098907424 -0.6459885944324256 0.1168003189621416 0.09411527766702787
1.0 0.0 -31.270841779945282 -0.5518733167653977 0.11680031896214516 0.09411527766702799 1.0 0.0
-31.154041460983137 -0.45775803909836976 0.1168003189621416 0.09411527766702787 1.0 0.0 -31.037241142020996 -0.3636427614313419
0.1168003189621416 0.09411527766702793 1.0 0.0 -30.920440823058854 -0.26952748376431396 0.1168003189621416 0.09411527766702793
1.0 0.0 -30.803640504096713 -0.17541220609728603 0.11680031896214516 0.09411527766702787 1.0 0.0
-30.686840185134567 -0.08129692843025815 0.1168003189621416 0.09411527766702799 1.0 0.0 -30.570039866172426 0.012818349236769833
0.1168003189621416 0.09411527766702787 1.0 0.0 -30.453239547210284 0.10693362690379771 0.10611662589845139 0.10601538429835489
1.0 0.0 -30.347122921311833 0.2129490112021526 0.10611662589845494 0.10601538429835489 1.0 0.0
-30.241006295413378 0.3189643955005075 0.08835385353565073 0.12121714633417374 1.0 0.0 -30.152652441877727 0.4401815418346812
0.08835385353565428 0.12121714633417374 1.0 0.0 -30.064298588342073 0.561398688168855 0.04425121497463991 0.1433242127948664
1.0 0.0 -30.020047373367433 0.7047229009637214 -0.02407332091734915 0.14805564906483748 1.0 0.0
-30.044120694284782 0.8527785500285588 -0.12807378540079029 0.0780839643788146 1.0 0.0 -30.172194479685572 0.9308625144073734
-0.12807378540079384 0.07808396437881449 1.0 0.0 -30.300268265086366 1.008946478786188 -0.12807378540079029 0.07808396437881471
1.0 0.0 -30.428342050487156 1.0870304431650026 -0.12807378540079029 0.07808396437881471 1.0 0.0
-30.556415835887947 1.1651144075438173 -0.14097525839472524 0.0512442828083326 1.0 0.0 -30.697391094282672 1.21635869035215
-0.14097525839472524 0.051244282808332375 1.0 0.0 -30.838366352677397 1.2676029731604823 -0.14097525839472524 0.0512442828083326
1.0 0.0 -30.979341611072122 1.318847255968815 -0.14097525839472524 0.051244282808332375 1.0 0.0
-31.120316869466848 1.3700915387771473 -0.14097525839472524 0.0512442828083326 1.0 0.0 -31.261292127861573 1.4213358215854799
-0.14097525839472524 0.0512442828083326 1.0 0.0 -31.402267386256298 1.4725801043938125 -0.1409752583947288 0.051244282808332375
