data/online/npz-eval/b05/b05-074/b05-074-09.npz (npz, 30266 bytes, 1 tensors)

x f8 [615, 6]
-26.39719589446793 -0.6089681644240846 -0.012456821978059196 0.1494818637367321 1.0 0.0 -26.40965271644599 -0.4594863006873525
0.050480179889884624 0.14125066880650422 1.0 0.0 -26.359172536556105 -0.3182356318808483 0.05048017988988818 0.14125066880650422
1.0 0.0 -26.308692356666217 -0.17698496307434408 0.050480179889884624 0.14125066880650422 1.0 0.0
-26.258212176776333 -0.03573429426783986 0.05048017988988818 0.14125066880650422 1.0 0.0 -26.207731996886444 0.10551637453866436
0.050480179889884624 0.14125066880650416 1.0 0.0 -26.15725181699656 0.24676704334516852 0.07893081188331408 0.12755362376444312
1.0 0.0 -26.078321005113246 0.37432066710961165 0.07893081188331053 0.12755362376444312 1.0 0.0
-25.999390193229935 0.5018742908740548 0.1131673219051379 0.098453833103741 1.0 0.0 -25.886222871324797 0.6003281239777958
0.14526449800519003 -0.037392855190530816 1.0 0.0 -25.740958373319607 0.562935268787265 0.11465859657266364 -0.09671300963152224
1.0 0.0 -25.626299776746944 0.4662222591557427 0.047916863358821615 -0.14214068455530932 1.0 0.0
-25.578382913388122 0.3240815746004334 0.047916863358821615 -0.14214068455530926 1.0 0.0 -25.5304660500293 0.18194089004512415
0.04791686335882517 -0.14214068455530932 1.0 0.0 -25.482549186670475 0.03980020548981483 0.047916863358821615 -0.14214068455530926
1.0 0.0 -25.434632323311654 -0.10234047906549443 0.047916863358821615 -0.14214068455530926 1.0 0.0
-25.386715459952832 -0.2444811636208037 0.047916863358821615 -0.14214068455530937 1.0 0.0 -25.33879859659401 -0.38662184817611306
0.04791686335882517 -0.1421406845553092 1.0 0.0 -25.290881733235185 -0.5287625327314223 0.0010066342042449605 0.14999662225389893
1.0 0.0 -25.28987509903094 -0.37876591047752334 0.0010066342042449605 0.14999662225389893 1.0 0.0
-25.288868464826695 -0.2287692882236244 0.0010066342042449605 0.14999662225389893 1.0 0.0 -25.28786183062245 -0.07877266596972549
0.02137470972821376 0.14846926208489974 1.0 0.0 -25.266487120894237 0.06969659611517426 0.021374709728210206 0.14846926208489974
1.0 0.0 -25.245112411166026 0.218165858200074 0.02137470972821376 0.14846926208489974 1.0 0.0
-25.223737701437813 0.36663512028497375 0.02137470972821376 0.1484692620848998 1.0 0.0 -25.2023629917096 0.5151043823698735
0.04166090652168464 0.14409846934576165 1.0 0.0 -25.160702085187914 0.6592028517156352 0.04166090652168464 0.14409846934576165
1.0 0.0 -25.11904117866623 0.8033013210613968 0.04166090652168819 0.14409846934576154 1.0 0.0
-25.07738027214454 0.9473997904071584 0.04166090652168464 0.14409846934576176 1.0 0.0 -25.035719365622857 1.0914982597529201
0.11683850438624077 0.09406786854599591 1.0 0.0 -24.918880861236616 1.185566128298916 0.11762795644889934 -0.09307880457792739
1.0 0.0 -24.801252904787717 1.0924873237209887 0.11762795644889934 -0.0930788045779275 1.0 0.0
-24.683624948338817 0.9994085191430612 0.07060523913805028 -0.13234387105664802 1.0 0.0 -24.613019709200767 0.8670646480864131
0.07060523913805028 -0.1323438710566479 1.0 0.0 -24.542414470062717 0.7347207770297652 0.05287624114971834 -0.14037130448163881
1.0 0.0 -24.489538228913 0.5943494725481264 0.05287624114971479 -0.14037130448163876 1.0 0.0
-24.436661987763284 0.45397816806648766 0.05287624114971834 -0.14037130448163876 1.0 0.0 -24.383785746613565 0.3136068635848489
0.05287624114971834 -0.14037130448163881 1.0 0.0 -24.330909505463847 0.1732355591032101 0.05287624114971479 -0.1403713044816387
1.0 0.0 -24.278033264314132 0.03286425462157139 0.05287624114971834 -0.14037130448163881 1.0 0.0
-24.225157023164414 -0.10750704986006743 0.05287624114971834 -0.1403713044816387 1.0 0.0 -24.172280782014695 -0.24787835434170613
0.05287624114971834 -0.14037130448163893 1.0 0.0 -24.119404540864977 -0.38824965882334506 0.05287624114971479 -0.14037130448163881
00000000: 61d8 50a1 ae65 3ac0 0536 d0cd aa7c e3bf
00000010: 0018 1058 f682 89bf 1015 0cc2 3822 c33f
00000020: 0000 0000 0000 f03f 0000 0000 0000 0000
00000030: 64da 1b00 df68 3ac0 8261 9a3a 3968 ddbf
00000040: 004e 72c3 89d8 a93f aef1 877d 8014 c23f
00000050: 0000 0000 0000 f03f 0000 0000 0000 0000
00000060: 3d21 3abb f25b 3ac0 ab68 d6fb f85d d4bf
00000070: 0050 72c3 89d8 a93f aef1 877d 8014 c23f
00000080: 0000 0000 0000 f03f 0000 0000 0000 0000
00000090: 1568 5876 064f 3ac0 a8df 247a 71a7 c6bf
000000a0: 004e 72c3 89d8 a93f aef1 877d 8014 c23f
000000b0: 0000 0000 0000 f03f 0000 0000 0000 0000
000000c0: eeae 7631 1a42 3ac0 e8b7 73f2 c34b a2bf
000000d0: 0050 72c3 89d8 a93f aef1 877d 8014 c23f
000000e0: 0000 0000 0000 f03f 0000 0000 0000 0000
000000f0: c6f5 94ec 2d35 3ac0 6807 d601 1f03 bb3f
00000100: 004e 72c3 89d8 a93f acf1 877d 8014 c23f
00000110: 0000 0000 0000 f03f 0000 0000 0000 0000
00000120: 9f3c b3a7 4128 3ac0 60f5 72fe 0f96 cf3f
00000130: 0081 af47 cf34 b43f 34fc 4659 ad53 c03f
00000140: 0000 0000 0000 f03f 0000 0000 0000 0000
00000150: 1e8d 6bd8 0c14 3ac0 caf8 dcab def4 d73f
00000160: 0080 af47 cf34 b43f 34fc 4659 ad53 c03f
00000170: 0000 0000 0000 f03f 0000 0000 0000 0000
00000180: 9edd 2309 d8ff 39c0 723b 40ac 5a0f e03f
00000190: 00f8 8e9a 88f8 bc3f 50ae 5839 4534 b93f
000001a0: 0000 0000 0000 f03f 0000 0000 0000 0000
000001b0: a64e 8980 dfe2 39c0 3c51 6b53 e335 e33f
000001c0: 00e0 19ee 0698 c23f 3077 4b04 2825 a3bf
000001d0: 0000 0000 0000 f03f 0000 0000 0000 0000
000001e0: e61a ad72 afbd 39c0 c999 26d3 9003 e23f
000001f0: 001f 7c0a 445a bd3f 2c12 770d 2fc2 b8bf
00000200: 0000 0000 0000 f03f 0000 0000 0000 0000
00000210: c79e a22e 55a0 39c0 076f efe2 95d6 dd3f
00000220: 0028 1b22 8f88 a83f 324d cc7b aa31 c2bf
00000230: 0000 0000 0000 f03f 0000 0000 0000 0000
00000240: 3391 11e7 1094 39c0 6e48 09a5 c0bd d43f
00000250: 0028 1b22 8f88 a83f 304d cc7b aa31 c2bf
00000260: 0000 0000 0000 f03f 0000 0000 0000 0000
00000270: 9f83 809f cc87 39c0 ac43 46ce d649 c73f
00000280: 002a 1b22 8f88 a83f 324d cc7b aa31 c2bf
00000290: 0000 0000 0000 f03f 0000 0000 0000 0000
000002a0: 0a76 ef57 887b 39c0 e8d9 e749 b160 a43f
000002b0: 0028 1b22 8f88 a83f 304d cc7b aa31 c2bf
000002c0: 0000 0000 0000 f03f 0000 0000 0000 0000
000002d0: 7668 5e10 446f 39c0 6cad a452 fc32 babf
000002e0: 0028 1b22 8f88 a83f 304d cc7b aa31 c2bf
000002f0: 0000 0000 0000 f03f 0000 0000 0000 0000
00000300: e25a cdc8 ff62 39c0 e6a3 1ea5 284b cfbf
00000310: 0028 1b22 8f88 a83f 344d cc7b aa31 c2bf
00000320: 0000 0000 0000 f03f 0000 0000 0000 0000
00000330: 4e4d 3c81 bb56 39c0 8d78 7590 69be d8bf
00000340: 002a 1b22 8f88 a83f 2e4d cc7b aa31 c2bf
00000350: 0000 0000 0000 f03f 0000 0000 0000 0000
00000360: b93f ab39 774a 39c0 92cf 2d67 9feb e0bf
00000370: 0000 1f3f 217e 503f a2a4 8bdd 1633 c33f
00000380: 0000 0000 0000 f03f 0000 0000 0000 0000
00000390: 3d43 2641 354a 39c0 d3cc 955f b33d d8bf
000003a0: 0000 1f3f 217e 503f a2a4 8bdd 1633 c33f
000003b0: 0000 0000 0000 f03f 0000 0000 0000 0000
000003c0: c146 a148 f349 39c0 04f5 9fe1 4f48 cdbf
000003d0: 0000 1f3f 217e 503f a2a4 8bdd 1633 c33f
000003e0: 0000 0000 0000 f03f 0000 0000 0000 0000
000003f0: 454a 1c50 b149 39c0 c4a0 2808 722a b4bf
00000400: 0008 fa7c 40e3 953f b8d5 8e70 0a01 c33f
00000410: 0000 0000 0000 f03f 0000 0000 0000 0000
00000420: c30b fd7f 3844 39c0 ac0a f5d8 a2d7 b13f
00000430: 0004 fa7c 40e3 953f b8d5 8e70 0a01 c33f
00000440: 0000 0000 0000 f03f 0000 0000 0000 0000
00000450: 42cd ddaf bf3e 39c0 0e5b 09dd dbec cb3f
00000460: 0008 fa7c 40e3 953f b8d5 8e70 0a01 c33f
00000470: 0000 0000 0000 f03f 0000 0000 0000 0000
00000480: c08e bedf 4639 39c0 6318 cc26 f376 d73f
00000490: 0008 fa7c 40e3 953f bad5 8e70 0a01 c33f
000004a0: 0000 0000 0000 f03f 0000 0000 0000 0000
000004b0: 3e50 9f0f ce33 39c0 a0c1 892f bc7b e03f
000004c0: 0090 100e 9454 a53f b831 9f92 d171 c23f
000004d0: 0000 0000 0000 f03f 0000 0000 0000 0000
000004e0: f647 98c5 2329 39c0 0e8e 3194 3018 e53f
000004f0: 0090 100e 9454 a53f b831 9f92 d171 c23f
00000500: 0000 0000 0000 f03f 0000 0000 0000 0000
00000510: ae3f 917b 791e 39c0 7c5a d9f8 a4b4 e93f
00000520: 0092 100e 9454 a53f b431 9f92 d171 c23f
00000530: 0000 0000 0000 f03f 0000 0000 0000 0000
00000540: 6537 8a31 cf13 39c0 e926 815d 1951 ee3f
00000550: 0090 100e 9454 a53f bc31 9f92 d171 c23f
00000560: 0000 0000 0000 f03f 0000 0000 0000 0000
00000570: 1d2f 83e7 2409 39c0 ac79 14e1 c676 f13f
00000580: 00a1 40d3 20e9 bd3f 406d 02f3 d414 b83f
00000590: 0000 0000 0000 f03f 0000 0000 0000 0000
000005a0: 7cee afc6 3beb 38c0 80a0 4430 14f8 f23f
000005b0: 0018 0ba2 dd1c be3f d0eb 9c35 03d4 b7bf
000005c0: 0000 0000 0000 f03f 0000 0000 0000 0000
000005d0: 64e3 0de9 1ecd 38c0 c3d1 eafc d37a f13f
000005e0: 0018 0ba2 dd1c be3f d8eb 9c35 03d4 b7bf
000005f0: 0000 0000 0000 f03f 0000 0000 0000 0000
00000600: 4cd8 6b0b 02af 38c0 0b06 2293 27fb ef3f
00000610: 0031 0659 2f13 b23f 08d6 01db a4f0 c0bf
00000620: 0000 0000 0000 f03f 0000 0000 0000 0000
00000630: 1bd2 12dc ee9c 38c0 8990 615c febe eb3f
00000640: 0031 0659 2f13 b23f 04d6 01db a4f0 c0bf
00000650: 0000 0000 0000 f03f 0000 0000 0000 0000
00000660: eacb b9ac db8a 38c0 081b a125 d582 e73f
00000670: 0068 f23c 9812 ab3f d8d2 05d9 aff7 c1bf
00000680: 0000 0000 0000 f03f 0000 0000 0000 0000
00000690: b652 9b60 527d 38c0 52a6 5f2f e904 e33f
000006a0: 0066 f23c 9812 ab3f d6d2 05d9 aff7 c1bf
000006b0: 0000 0000 0000 f03f 0000 0000 0000 0000
000006c0: 83d9 7c14 c96f 38c0 3963 3c72 fa0d dd3f
000006d0: 0068 f23c 9812 ab3f d6d2 05d9 aff7 c1bf
000006e0: 0000 0000 0000 f03f 0000 0000 0000 0000
000006f0: 4f60 5ec8 3f62 38c0 ce79 b985 2212 d43f
00000700: 0068 f23c 9812 ab3f d8d2 05d9 aff7 c1bf
00000710: 0000 0000 0000 f03f 0000 0000 0000 0000
00000720: 1be7 3f7c b654 38c0 c420 6d32 952c c63f
00000730: 0066 f23c 9812 ab3f d4d2 05d9 aff7 c1bf
00000740: 0000 0000 0000 f03f 0000 0000 0000 0000
00000750: e86d 2130 2d47 38c0 c037 9d65 95d3 a03f
00000760: 0068 f23c 9812 ab3f d8d2 05d9 aff7 c1bf
00000770: 0000 0000 0000 f03f 0000 0000 0000 0000
00000780: b4f4 02e4 a339 38c0 d009 3dff 9485 bbbf
00000790: 0068 f23c 9812 ab3f d4d2 05d9 aff7 c1bf
000007a0: 0000 0000 0000 f03f 0000 0000 0000 0000
000007b0: 807b e497 1a2c 38c0 bc57 a458 7aba cfbf
000007c0: 0068 f23c 9812 ab3f dcd2 05d9 aff7 c1bf
000007d0: 0000 0000 0000 f03f 0000 0000 0000 0000
000007e0: 4c02 c64b 911e 38c0 4c15 d518 15d9 d8bf
000007f0: 0066 f23c 9812 ab3f d8d2 05d9 aff7 c1bf
